hw4/besttheta_of_simga_4444400C_1learn10000.npy (npy, 15328 bytes, 1 tensors)

array f8 [1900]
000000 0c b7 bf ce 03 2f c0 bf 08 65 5c 8d 5e b3 96 3f
       -0.12643478007469644 0.022168614747987397
000010 14 30 37 de 6f 04 a1 3f 42 18 a1 34 07 9d 7b bf
       0.03323697650520799 -0.006741550585564639
000020 1e d5 11 56 ac 1e 7f bf 3c 06 5d 54 63 b9 a3 bf
       -0.007597611606901892 -0.03852377323938724
000030 a4 19 b3 18 6c a0 98 3f b3 67 ad 13 6f 29 ad 3f
       0.02404946232561546 0.0569567405243129
000040 ca 6d a6 ca a0 26 84 bf d7 29 a5 1a 2d 51 96 3f
       -0.009839302238836906 0.02179403758172235
000050 e6 61 80 40 16 0a 99 3f 56 a0 09 6d 7e f4 a5 3f
       0.024452541052683595 0.04288096505189347
000060 d9 ef ac 9a df 38 97 bf dc 3e 11 59 b8 40 8c 3f
       -0.02267789250912231 0.013795318811531336
000070 45 62 0c c3 55 f2 53 3f 24 20 a0 35 c0 95 70 bf
       0.0012174451368932731 -0.004049063509235427
000080 a1 d6 17 16 50 69 8d bf f4 d1 68 6b 54 69 99 3f
       -0.014361024545887448 0.024815863662483964
000090 c3 80 df d7 7a dd 8b bf 05 02 f1 46 42 48 89 3f
       -0.013606033051417282 0.012344854154549454
0000a0 d7 52 7c 94 54 f0 6b 3f 9e 67 45 49 b0 60 a6 3f
       0.0034104968980365013 0.043706425613620356
0000b0 ba d9 df 9a fa 4a 96 bf b3 45 ca e5 14 c2 af bf
       -0.021770396902832202 -0.06202760033660173
0000c0 cc 04 dc d7 4a 56 84 bf c3 73 2b 65 5f f5 a7 3f
       -0.00993021460772283 0.046793919658490356
0000d0 29 79 08 ae 5e 92 ad bf af 2b 0e 2a ec 4d 9a 3f
       -0.057757338279986144 0.02568787581143866
0000e0 77 4d d1 c5 81 12 68 3f f4 a1 d6 80 9a 70 84 bf
       0.0029385122893842946 -0.00998039918597813
0000f0 33 8f 01 ca 65 83 a5 bf 51 8a 2d a9 a1 6c 93 3f
       -0.042018109234759037 0.01896908373908907
000100 7d d3 da 11 4c 78 a1 3f 20 a3 ac 63 ee a6 9b 3f
       0.03412091939882254 0.027003979524269472
000110 3f e9 31 7e 66 17 a3 3f c1 d2 09 fb d1 8e 72 3f
       0.037287905602129794 0.004530735241691176
000120 aa 4d cc bb e6 b0 91 3f 05 83 6a 0e fd 63 61 3f
       0.017276387417110385 0.0021228735452755187
000130 3e 40 46 bd 01 90 98 3f 27 a6 45 02 fc 52 9d bf
       0.023986842324632322 -0.028636872900653778
000140 97 68 bc a2 ce 04 a4 3f 45 47 54 b1 bd 37 89 bf
       0.03909917580149729 -0.012313348745496841
000150 33 6d b5 6d ed 14 a3 bf b4 bb 38 bb ff 8a 78 bf
       -0.03726903881280421 -0.005991934729123228
000160 ef d1 77 4e d2 55 70 bf b9 4a ab 4b e2 ed 62 3f
       -0.0039880957697175775 0.002310697539863096
000170 28 44 1b 03 9d 54 99 bf f5 2e 69 71 a5 be 7b 3f
       -0.02473683673344254 0.00677361131836184
000180 cc d1 d2 08 26 a8 4a 3f 0f 8d 2d 1c c5 a5 71 3f
       0.000813501903073327 0.00430848117943873
000190 11 b7 69 b7 4d 1b 81 3f 6a af 7a dc c0 03 6e 3f
       0.00835285869581129 0.0036638991185408603
0001a0 dd 7b 15 4e da b5 85 3f c6 c4 9a 59 3a ec 9a 3f
       0.010600762851650397 0.02629176303770888
0001b0 7f fa 70 70 43 2c a0 3f 33 b7 98 68 ea 6e 76 bf
       0.031587703204867694 -0.005476871164814589
0001c0 fc a2 c0 a2 cd 6c 81 bf f9 3d 14 f0 8e 34 4f 3f
       -0.008508307008086906 0.0009523103655357238
0001d0 46 44 d9 d0 ed 1d 8f bf a0 58 61 a1 04 d0 59 bf
       -0.015193803726250132 -0.001575474283091384
0001e0 99 ca 8e b1 9c 2f 81 bf ba b1 9d 06 dc 64 a5 3f
       -0.0083915940939268 0.041785121734253264
0001f0 ce b3 1d 1e f0 3f 8a bf 35 43 32 d4 1f ac 5c bf
       -0.01281726447970213 -0.0017500220135710624
000200 8b 96 a0 a9 8f 71 b1 3f e2 3a 3e 92 50 73 9d 3f
       0.06813905612269815 0.028760203290910342
000210 59 03 9a e3 10 8b 82 bf 24 30 b8 42 6a 4f 9a bf
       -0.009054309793329262 -0.025693569490656057
000220 3b 27 ad b5 2d 98 89 bf d8 2a f7 9b 96 24 95 3f
       -0.012497288805792919 0.02064738585412837
000230 14 90 32 38 4d 2f 9c 3f 94 68 91 f6 49 23 a5 bf
       0.027524191432021963 -0.041284858082421355
000240 6d 07 4d 34 cb 1c 9c bf 82 30 eb 4b 67 4b 98 bf
       -0.027453589503472587 -0.023725141533575307
000250 94 8a 6d b6 9a 21 76 bf 67 56 4e b3 42 2d 9e 3f
       -0.005403141351822644 0.02946953029057511
000260 b9 18 ec b2 eb 9e 79 bf 6c 44 44 26 0a 5d a2 bf
       -0.006255074213873773 -0.03586608616945672
000270 20 2e 1a 69 fd c0 73 bf cd 1a e1 69 33 3c 74 3f
       -0.0048227213716347805 0.004940224489536416
000280 8b 95 27 86 5d 41 a9 bf cd 0f 58 d9 cf 19 ab bf
       -0.04932682287816722 -0.052931304246186174
000290 71 68 76 6a bf d3 69 bf ca 3d 1f 22 04 7a 99 3f
       -0.0031527269927212266 0.02487951715721496
0002a0 2b c6 67 1d 22 95 80 bf 27 23 88 89 6b 53 87 bf
       -0.00809694912183819 -0.011389579901349102
0002b0 72 46 4f 2b 8e 53 a5 bf 1e 01 82 8e d9 39 8d bf
       -0.04165310171778182 -0.014270496045583555
0002c0 f1 9b b8 25 a3 30 99 bf fa 30 16 40 3a 44 9a 3f
       -0.02459959905368331 0.025650892411747762
0002d0 eb b0 06 05 bd a1 96 bf 68 8f 31 9e 8d cb 5b bf
       -0.022101357871790944 -0.001696480082295582
0002e0 19 cf 75 7a 0e ba 9a 3f a1 7f fc f7 70 71 94 bf
       0.026100374435784255 -0.019963994155773105
0002f0 76 ef 95 14 9a b1 85 bf 6c 96 93 75 4e 5e 9f bf
       -0.010592654946542029 -0.03063318817739573
000300 68 3c fb 19 89 17 a4 bf 55 b7 eb 01 22 64 7e bf
       -0.0392420620170178 -0.007419712869461599
000310 10 22 9a d3 c7 30 a5 bf 2a 8c 05 0b ad 2e 2b 3f
       -0.041387791233379656 0.00020738470403633527
000320 33 23 23 ee 1c ac 7e bf 72 04 16 28 88 b0 9e 3f
       -0.007488358505903392 0.02997029060998497
000330 30 f2 ea a6 4b 52 92 bf 21 61 e8 ae df 88 b0 3f
       -0.017892057478763046 0.06458852787216475
000340 25 0a 8b e3 14 be 91 bf 9e d4 de 19 6b a4 90 3f
       -0.017326666248445605 0.016252206281667562
000350 46 ae 24 27 10 f4 8f bf 21 8f eb 64 3e e9 90 bf
       -0.015602232164915308 -0.016514754209210673
000360 64 87 ad f4 8b 21 89 3f 5f ee a0 d9 f8 60 75 bf
       0.012271016506648365 -0.005219432898282499
000370 b9 f5 a7 6c 30 4e 80 bf bc 5d ea 5a 16 5f 8a bf
       -0.007961633983536541 -0.012876677178879407
000380 4b 70 a4 74 3a ba 81 bf f5 1a 1f 71 07 f5 77 3f
       -0.008655983624116589 0.005848912305686173
000390 59 43 15 7c 35 2d 9a bf 70 d1 44 cd e6 16 87 bf
       -0.025563083361081016 -0.011274150027568125
0003a0 ad 14 d1 1e 61 45 b1 bf 57 77 79 b7 f3 a6 9c bf
       -0.06746489527093287 -0.027980621407884012
0003b0 14 3d 56 11 f0 3a 7a bf c7 50 36 9e f5 99 90 bf
       -0.006403863682307848 -0.016212308675293465
0003c0 67 5c 4d 11 55 97 ab 3f f4 5c a6 b4 39 55 84 3f
       0.05388894878586186 0.009928179574485864
0003d0 b3 71 88 00 be 0c 89 bf ed 7a 01 ae 8e c2 9c 3f
       -0.012231335059419068 0.02808592736289033
0003e0 ce b9 9f af d9 4c ac bf 6c 81 ef 12 98 a9 6e 3f
       -0.055273821533649334 0.0037429781145734056
0003f0 14 28 94 a2 f8 d9 8c bf 67 c8 ad 89 d6 1e 9a bf
       -0.014087622128972334 -0.025508262780427417
000400 98 53 5a db c0 09 9e bf 3f 83 9f d7 d2 04 90 3f
       -0.02933408106635546 0.01564340058382929
000410 66 ef 75 32 1f 1e 82 3f 0f 4e 6a c4 10 41 98 3f
       0.008846515395582077 0.023685705173717205
000420 a8 f2 d5 c2 43 fe 96 bf 72 87 6e 19 35 5d a8 bf
       -0.02245431782420107 -0.04758611617513865
000430 1d 26 9b fe e5 ca a6 bf 6b 55 a6 af 1b 11 b2 bf
       -0.04451674206718457 -0.07057354963611366
000440 2f 45 68 6f d0 dd 80 3f 4c 2c 13 1c d5 d9 87 bf
       0.008235577010995058 -0.011645951194074432
000450 b8 a2 84 9e b3 d4 77 bf 92 64 aa 1d 0f 32 98 3f
       -0.005818082463783618 0.023628460107464173
000460 61 ff ca 08 d8 e3 5b 3f 8a b3 b8 6e ad 40 71 3f
       0.0017022714338707711 0.004212071867681364
000470 74 05 6d 3b 44 49 9b bf 1c 65 59 a9 d4 56 7f 3f
       -0.026646677138392375 0.0076511675921094
000480 6d a4 6b 13 64 6a 81 bf 53 a0 8b 92 82 57 a1 3f
       -0.008503705828348107 0.03387077368626081
000490 07 55 5b 64 83 6d 6f bf 8c b6 c5 74 d3 60 8e 3f
       -0.003836399674450267 0.014833118439777658
0004a0 6d 9f 59 5a 2c ca 85 3f 63 43 04 22 56 1b 82 bf
       0.010639521128908059 -0.008841202653032182
0004b0 64 b8 34 66 3c 6d 97 bf 21 15 92 75 f2 0e 8e bf
       -0.022877639520793372 -0.014676946843119655
0004c0 34 4f 95 e6 ba 0d 5d bf 0c 14 49 14 67 93 a8 3f
       -0.0017732930376341384 0.047999592996838286
0004d0 4d d7 42 ee fe 6a 85 bf 11 2b e4 db e1 b2 89 bf
       -0.010457984586860336 -0.012548222086953527
0004e0 b9 bb f4 1e 92 66 c4 3f c6 48 5c 29 e9 0c 7e bf
       0.1593802119400303 -0.0073365314363106945
0004f0 77 e9 02 60 d4 67 71 bf 9a 44 75 3b 55 d6 94 3f
       -0.004249410238282506 0.02034886527446087
000500 b9 7e 2f 7f 34 0a 9e 3f 13 c9 2a f9 39 29 98 3f
       0.02933580423621038 0.023594766457514526
000510 82 13 c3 07 43 eb a9 3f 2d 7b 8a ab d8 9e 77 bf
       0.050623030374061365 -0.005766722075945902
000520 0b 4a fa 20 6f 11 9a bf c4 46 9f 34 c7 ac 86 3f
       -0.025457130801962474 0.011071735661889355
000530 e7 e1 68 98 ee 19 89 bf e6 38 be e1 50 a3 8a 3f
       -0.012256492639708362 0.013006812943583811
000540 80 72 97 60 d7 b9 93 bf d6 94 e6 0a 29 47 a0 bf
       -0.01926361586616787 -0.03179291017594614
000550 3d 76 35 f0 72 be 63 3f 37 7a 14 36 d7 73 77 bf
       0.002410149086854911 -0.005725708645768316
000560 3f e4 13 2e 68 a6 86 bf 99 28 51 7b ec 5b 70 3f
       -0.011059583574466568 0.00399391532580231
000570 20 0f cc ed bc a8 c1 3f ea 4b 49 62 37 6d a3 3f
       0.13796197520434195 0.03794262957367052
000580 47 29 c0 c2 9f 5a b3 3f 34 91 54 e0 0d fb 7a bf
       0.07560156349805879 -0.006587080196627949
000590 d1 1c e0 7f f8 cd 92 bf 0d 0d 43 97 df 39 a8 bf
       -0.018363840870759433 -0.04731653901537856
0005a0 97 69 84 dd 11 99 97 3f 17 7c 2a ba e9 54 5a 3f
       0.02304485239538109 0.001607158898572219
0005b0 01 81 01 02 5a 44 a1 3f 2d 66 f1 64 bc 29 8f bf
       0.03372460627065444 -0.015216323690924483
0005c0 73 aa 43 37 70 2b 89 bf 5b 15 62 f8 e5 40 7a bf
       -0.012289883314641181 -0.006409548112178721
0005d0 2c 57 3c 3b 34 bf a5 bf 43 50 23 ae f4 83 10 3f
       -0.04247439597217659 6.300145063004116e-05
0005e0 94 50 9b 20 d9 42 a0 3f e6 2e 2e b9 1b 9b 9d bf
       0.0317600109389399 -0.02891200368644222
0005f0 44 5e 71 2f 3d 9b 98 bf 95 32 62 98 90 52 69 bf
       -0.024029689808541713 -0.003091127789110646
000600 f8 7c 99 a0 71 53 68 3f bc 13 d7 63 d1 6e 9c 3f
       0.0029694766315483366 0.027766486853369562
000610 a4 46 15 34 69 ce a4 bf e1 3a 1f 75 f1 4f a0 3f
       -0.04063729058056012 0.031859918162458596
000620 b6 76 8d 4f c9 b4 7b bf d1 4f 8d f6 1d 93 94 3f
       -0.0067642081929457 0.02009245698293666
000630 7b fe a7 ec 18 90 a7 bf 0f 4f 33 6f eb 2f 76 bf
       -0.04602125061864811 -0.0054167935042703915
000640 27 8c 5b c6 de c3 71 3f 5a d1 20 ef 65 27 8d 3f
       0.004337187017628564 0.014235302314866406
000650 dc c0 6c 4d 62 5a 93 bf 58 ea 50 c2 21 90 33 3f
       -0.018899475074420788 0.00029850792117583824
000660 0f 67 5e 92 6c 93 68 3f 15 57 8d a7 07 07 8a 3f
       0.0029999847929048705 0.012708720970902069
000670 b3 e1 a3 62 49 6a 9c bf e6 7b 5d 60 ea 74 a8 3f
       -0.02774920143653654 0.04776699472744621
000680 28 a6 0f ef f2 97 40 3f 8b ad 6b 3e d2 27 83 bf
       0.0005063949776033571 -0.00935329678528409
000690 70 af 4f 0c 5b b8 a5 3f f8 9a da e1 63 16 92 bf
       0.04242214703830782 -0.017663536701230748
0006a0 ea 08 f1 e5 18 99 8e bf c1 5c 9c 13 0a cf a1 bf
       -0.0149404473469343 -0.03478270997418909
0006b0 a2 70 2d 23 26 14 90 bf 32 03 de 44 4e db 84 3f
       -0.01570186223703785 0.010183917500172866
0006c0 95 a4 f5 3d ea 04 a3 bf ad 2d 70 47 d8 ce a7 bf
       -0.03714687353460381 -0.04649997589157393
0006d0 c0 67 3d 6a 13 2b 66 3f 84 ea 02 9e 86 3d 8a 3f
       0.0027060870360573197 0.012812663743138282
0006e0 d0 bb 41 34 a0 ef 90 bf 48 c1 cf 5b 3c c1 91 3f
       -0.016539099874019858 0.017338698486072418
0006f0 65 17 0b 9b 7a 2f 54 bf a3 ec 9c f1 3e bf 96 bf
       -0.0012320229836162097 -0.022213920113455143
000700 64 3e 55 df b5 91 af 3f b8 b0 16 9d f8 cd c5 bf
       0.06165855742676454 -0.17034824056952913
000710 96 01 60 cd ab 35 84 3f e3 ab 0e 0f f1 36 a5 3f
       0.00986799450402102 0.04143479641728456
000720 ff f3 88 20 e7 54 84 bf bf 91 d6 96 80 4f a1 3f
       -0.00992756431616648 0.03380967942510748
000730 e8 2b 01 ed 2c 84 82 3f 0c a9 f0 62 3e 3d 84 bf
       0.009041167242818518 -0.00988243808213387
000740 49 f0 e3 2f 32 0a 74 3f bd 7f 4f 64 7b ab 72 bf
       0.004892536204575811 -0.004558069228522696
000750 63 97 ad 51 ec 9d 99 3f 9f 6f 44 c8 36 39 83 3f
       0.02501649139903551 0.009386470781968912
000760 27 25 e8 10 c2 67 9d bf b9 52 20 64 94 40 6e 3f
       -0.028716118127737247 0.0036929033531215264
000770 92 e3 ab a5 e1 23 80 bf 94 40 a4 6a a8 a0 91 bf
       -0.007880938404456281 -0.017214423664939263
000780 eb ff 16 eb 6e 78 83 3f f1 59 9a 23 30 15 95 bf
       0.00950705199181808 -0.02058863847067899
000790 45 df cc 8f a0 0f 63 bf 1e 1a 1a 46 84 2f 66 3f
       -0.0023267875643816793 0.0027082046006541424
0007a0 9a 8a a8 ec 22 f3 70 3f 9a 28 56 8b 8c f1 7a 3f
       0.0041381229625893304 0.006578015328509457
0007b0 c8 e2 cd d2 77 4a a5 3f c3 84 b4 1f 56 ae 7e 3f
       0.04158377121252027 0.007490478917391022
0007c0 af 19 9f 07 8d 5d 82 3f f0 36 7e ce bb bc 71 bf
       0.008967496676530155 -0.004330381030639194
0007d0 be 44 b3 ac 27 ac 88 3f 26 90 33 66 59 5e a2 bf
       0.01204710956372634 -0.035876077390441005
0007e0 41 f3 71 69 0a eb a1 3f 62 48 23 40 59 e4 84 bf
       0.034996343013494975 -0.01020116545661071
0007f0 aa 3f 1a 3e 20 08 34 3f 69 c9 27 b5 47 f0 75 3f
       0.00030566012547072563 0.0053561020927069625
