hw4/besttheta_of_simga_4444400C_3learn10000.npy (npy, 15328 bytes, 1 tensors)

array f8 [1900]
-0.11225274004332414 0.019648342100535024 0.037784775230345194 0.00175427777380885 -0.0021635880702164084 -0.0465447906534659 0.02986553633730428 0.06596800504739435
-0.007822766529335699 0.013727508599839558 0.036319372566194885 0.09205280043817941 -0.02688101013962873 0.024277725267757965 -0.00034625868307803766 -0.010451939576745244
-0.0003698182009535913 0.03641797586898417 -0.02823240783189522 0.006424986164155826 0.03216498983880291 0.113818691157741 -0.02726348374602018 -0.08429297824270911
-0.020217196291203745 -0.00169634268076804 -0.07954150954329652 0.06562579168843796 0.023817283407252598 -0.017152618439739604 -0.013104004930766406 0.023139162338194227
0.05921896759197622 0.04300839397009529 0.04551196340721635 0.007485894641524735 0.023541711476827473 -0.002083969286124027 0.0308929040284493 0.0022980891712787036
0.056240192704770195 -0.011223207796848765 -0.03779882131861464 -0.0009282268958231325 -0.0029857351445320367 -0.008781741197850393 -0.018050383739435454 0.011659830243206637
-0.002281058487710392 0.022161846448173744 0.019759836785509632 -5.697373768543384e-05 0.011412818621792104 0.007782300343332963 0.035590351531757755 -0.03674194136254428
-0.011943916486040254 0.024342597348624515 -0.05511334297023615 -0.0015757163416590812 -0.028619215564318255 0.051053325323414375 0.01339348018175346 -0.0013400613879844825
0.1146043872127068 0.04476460701975849 -0.013094304817849647 -0.02604110030804714 -0.015496792542929676 0.01808092197558807 0.013449610842804247 -0.1009076167651272
-0.0514877470881307 -0.03786909791673855 -0.020366681302624715 0.04022655534508756 -0.004874587206713983 -0.08923819930781064 -0.017545716021387398 0.004008887481818071
-0.05830932194988472 -0.07152234828469196 0.007147144995082497 0.051116667532960555 -0.012957010994672937 -0.021064619171205234 -0.041033410901706174 -0.0015408023538133037
-0.04087841442524212 0.05540046942941174 -0.034045930152030585 0.0007394922661657729 0.050955707215746465 -0.03091171836232422 -0.010249630090486373 -0.043873649602386065
-0.06171680522565893 -0.026223302560023556 -0.09787070303272527 -0.018453747408845957 -0.027974502359348636 0.06446551982673307 -0.02785765252292739 -0.03750665155760101
-0.027710400386306913 0.027218313664460585 -0.019444498316240632 -0.010049577365887408 0.012025558951608886 0.003065649043615532 -0.023366547131193547 -0.0055079626473417366
-0.037442388982143665 0.002019006882154889 -0.05230406422445022 -0.027814740740591953 -0.05875314166161938 -0.056835340782394966 0.028679292293970253 -0.026315904404510357
0.05783269659704112 0.023265275269534057 0.002028209550419526 0.060487687308302424 -0.07121644801876004 0.003197982348188755 0.0010194818126357437 -0.024168212829381818
-0.04063241768880855 0.02399691466716157 0.018060021697742464 0.02953197533060865 -0.030437394527285076 -0.06801154754653878 -0.0675261339353632 -0.13035589232392522
0.021798790924573364 -0.027696186207054455 0.040720674305572496 0.050332406550063255 0.009705542147441909 0.015122979684798768 -0.013000391562672669 0.027708831489519758
-0.005930418938580933 0.06769369007374676 -0.0030859735786499523 0.008648869397819205 0.008787075906482615 -0.012028190421834043 -0.015015806932572297 -0.03667854643142283
0.011197653775960211 0.0675978230756451 -0.009836019479460138 -0.003438271635473546 0.2533330213294668 -0.013134198137259618 -0.007811365595236481 0.03761541614946301
0.03234124065516423 0.02788187641240663 0.01697329903616327 -0.02550396763254487 -0.0287123711453057 -0.0018274183337983502 0.005090172968481786 -0.02421441764338703
-0.016920646918902802 -0.02848169788393086 0.012342948141446004 0.01591367822470443 0.0030166215745705926 0.040531066858071355 0.14627127239389565 0.03696831813873426
0.08901455727187384 -0.029215847988668112 -0.010170704816341724 -0.06028262543542111 0.015359675284689272 0.008583154014246122 0.055766860170465775 -0.019381050879331615
-0.003735325326194324 -0.02174714545299485 -0.06071520570394372 0.00427326666958046 0.08015852519893875 -0.025028824189468675 -0.025921434414930486 -0.008562178715788678
0.017125899805824858 0.0398574325054061 -0.06822628829667063 0.05721259382471985 -0.00598542322855411 0.03478695050891596 -0.0678998436771248 -0.013809464512073686
0.004751265665856773 0.005065336916781014 -0.027591995840768234 0.0035210722333177524 0.021166410994145634 0.017955974961616872 -0.023725513310500868 0.08845463681484234
-0.02214043621401511 -0.007932982454918674 0.03442106234555415 -0.054743405800248814 -0.0011493574596548681 -0.06694427242996674 -0.0257277796806018 0.003652506048214748
-0.046190443361792864 -0.05628948066788113 0.024679796433022438 0.009030592159357604 -0.015679269970619313 0.024507349506744804 -0.005573214857753564 -0.019815441103529827
0.0903245587852015 -0.16925808423603295 -0.003300466079946555 0.0703394999459304 -0.0103226762747424 0.036702778455695854 0.021029439241651487 -0.017041778289723062
0.0021889421249583515 -0.014454277359794206 0.008043843590636002 0.03011319223515673 -0.031994045753762544 0.005918121417167962 0.037677960171105335 -0.040330355429114194
0.029683324652795655 -0.020175954038671177 -0.0003030638851227873 0.0026617386545494687 0.015161199833726224 -0.005821471342721275 0.0691831971148283 0.006943689849411685
0.003238255643745281 0.010963916731411056 0.013203754283512236 -0.049574335232685826 0.03483385338233999 -0.0305650360638062 0.01231798144815619 0.007213260082941231
00000000: fc59 5f77 98bc bcbf 643c f8ea b11e 943f
00000010: 9255 cdab 8658 a33f 85b7 a96a f9bd 5c3f
00000020: bc73 1d80 5fb9 61bf 59c5 4f03 b8d4 a7bf
00000030: e487 6237 1295 9e3f c3cb 4278 47e3 b03f
00000040: 520d 43f3 6105 80bf 5b59 ef03 2b1d 8c3f
00000050: b01e c4ea 7398 a23f 371f 63b7 c590 b73f
00000060: 9e8b bb0d b286 9bbf 8367 2f90 42dc 983f
00000070: c940 43b8 41b1 36bf 698c 4b95 d367 85bf
00000080: bc96 1c14 853c 38bf 1a07 b07e 60a5 a23f
00000090: cc21 4dd1 f4e8 9cbf c5a0 3c17 1651 7a3f
000000a0: 121f def6 ed77 a03f 7f2e 32c4 3823 bd3f
000000b0: 84b9 416c f5ea 9bbf 61ba d580 3994 b5bf
000000c0: 57d5 8c13 d1b3 94bf 749e 8c15 faca 5bbf
000000d0: cfb5 2916 d55c b4bf 7071 1315 dacc b03f
000000e0: 133e 41d5 8e63 983f e531 f5bc 7490 91bf
000000f0: 5d7e fec4 45d6 8abf 3c5d ffe5 cab1 973f
00000100: 3389 38d2 f251 ae3f 942e 1c3b 3205 a63f
00000110: e74c d214 584d a73f 9799 aa8a 87a9 7e3f
00000120: fc13 8a83 511b 983f 74af c07d 6612 61bf
00000130: 3131 ecb1 63a2 9f3f e295 af3a 71d3 623f
00000140: fe83 c6b8 83cb ac3f dfa6 8c73 31fc 86bf
00000150: 9b16 c8fa 5d5a a3bf a702 9614 886a 4ebf
00000160: f3ea 9b59 8a75 68bf 953f f959 29fc 81bf
00000170: fe4f 5dbf cc7b 92bf 5366 92ec 1be1 873f
00000180: a8fd 5bf3 b9af 62bf 5b03 db56 98b1 963f
00000190: c07e 1233 ec3b 943f 1a03 81b8 e2de 0dbf
000001a0: fdde e295 9a5f 873f 9e6f 6557 55e0 7f3f
000001b0: 269b c307 e638 a23f e15c 16f9 d6cf a2bf
000001c0: 9bb1 8c55 0d76 88bf d953 0c0e 44ed 983f
000001d0: 3cc3 42eb d037 acbf c2c5 ee89 08d1 59bf
000001e0: e62e 8b0b 5b4e 9dbf 3673 3b55 a923 aa3f
000001f0: 81cd e17a 0a6e 8b3f 0572 81f5 9ff4 55bf
00000200: a683 0e8f b656 bd3f 6118 56f6 62eb a63f
00000210: aef3 a6d7 2fd1 8abf b41d b3a8 84aa 9abf
00000220: fc77 5149 c8bc 8fbf 5c47 4422 ce83 923f
00000230: b2cd b535 788b 8b3f fb6b ece1 14d5 b9bf
00000240: 78c7 c61b 9a5c aabf 12af 2912 9463 a3bf
00000250: 94c6 7dd8 00db 94bf df98 4637 9398 a43f
00000260: 153e 260a 60f7 73bf e1ba 948b 50d8 b6bf
00000270: 35af fc11 81f7 91bf 1c46 0b8a 9f6b 703f
00000280: e343 a72d b8da adbf 19dd d0e2 494f b2bf
00000290: 70e8 3720 5346 7d3f d64c abbe f62b aa3f
000002a0: 3bea ce93 3489 8abf 53a7 c5a9 f691 95bf
000002b0: 0c79 bbcb 5402 a5bf b6d4 07ee 973e 59bf
000002c0: 2433 23fa 03ee a4bf 29c6 c348 735d ac3f
000002d0: dc36 21d9 776e a1bf 4f5c a68c 4f3b 483f
000002e0: 7c86 12d0 dd16 aa3f 45a6 b74d 52a7 9fbf
000002f0: ed23 4710 c2fd 84bf 3396 6564 9b76 a6bf
00000300: e198 1d58 5899 afbf 77bc 8d0b 48da 9abf
00000310: e017 c3ec 0d0e b9bf fa44 7006 8ae5 92bf
00000320: 6567 0513 59a5 9cbf 061e 60f3 cf80 b03f
00000330: 2302 1e6a b786 9cbf de0c a563 1234 a3bf
00000340: c44a ac7d 1d60 9cbf 7e1d 2a1c 1edf 9b3f
00000350: e3e8 6b31 42e9 93bf c038 0071 df94 84bf
00000360: db65 4e33 dba0 883f 4157 44cc 211d 693f
00000370: 99e4 fe6e 66ed 97bf dbba 0177 848f 76bf
00000380: 6c28 5318 a62b a3bf 73a6 ef10 2a8a 603f
00000390: 9073 952a 99c7 aabf 386c 4fa7 777b 9cbf
000003a0: 60a4 f24b e414 aebf a4b5 d593 8519 adbf
000003b0: 7e6d e6b9 1a5e 9d3f 9ccd 2073 8ef2 9abf
000003c0: 2b2d 0c49 3f9c ad3f 660c a931 dad2 973f
000003d0: 5115 08b6 769d 603f bc83 99fd 3df8 ae3f
000003e0: 2088 2dbb 3d3b b2bf 9a30 28b3 a732 6a3f
000003f0: 5525 d342 04b4 503f b3e1 d14e 8dbf 98bf
00000400: 11fe 42b2 c5cd a4bf 9c2b cdae a592 983f
00000410: 0238 3a8a 537e 923f f3ca ec50 a13d 9e3f
00000420: 76d2 47f8 fa2a 9fbf ad75 766c 3469 b1bf
00000430: ffb0 e088 6449 b1bf d1a2 2f7b 80af c0bf
00000440: fd1a 7418 6c52 963f 94d2 ee97 635c 9cbf
00000450: 74b6 d318 57d9 a43f a67c 1f50 2bc5 a93f
00000460: 03dc e7d0 7fe0 833f a873 50f9 cbf8 8e3f
00000470: 9665 c604 f39f 8abf 4340 3b34 b45f 9c3f
00000480: 06d8 48b6 7e4a 78bf 3c26 03a9 5f54 b13f
00000490: 3e86 1773 c147 69bf 5425 b099 7fb6 813f
000004a0: af9f 2a5d f5fe 813f 9548 ef63 3ca2 88bf
000004b0: f46b 967d 9bc0 8ebf e98a c6ca 87c7 a2bf
000004c0: 1ed3 13a6 cbee 863f 4004 6447 174e b13f
000004d0: cf94 e52f e824 84bf 6afa 5407 942a 6cbf
000004e0: f2d7 66b4 9b36 d03f 5772 ab3b 1ae6 8abf
000004f0: bb59 4c7c cffe 7fbf 78ef 5fec 5342 a33f
00000500: 251c daf5 078f a03f 2e9e 5e0d 118d 9c3f
00000510: 3aec 0fd1 7261 913f 919f 994b b61d 9abf
00000520: 8822 3d9c c666 9dbf 0da1 b47e bff0 5dbf
00000530: f1c9 e3e6 6ed9 743f d9e9 7a0f aacb 98bf
00000540: 994d 9364 a553 91bf 84bd c863 4e2a 9dbf
00000550: ca72 d474 4247 893f 36fe 22de ac4b 903f
00000560: d7e3 3a60 50b6 683f 5a3b 41ed 7cc0 a43f
00000570: e656 a35d 04b9 c23f b2b8 c9ea 82ed a23f
00000580: 0bc2 5974 a8c9 b63f b181 8b5e c2ea 9dbf
00000590: f3f5 81e4 60d4 84bf b638 8641 5ddd aebf
000005a0: 3609 33b8 e474 8f3f 353f 4d6e 0b94 813f
000005b0: 87f8 4351 798d ac3f 9f5f c14e a0d8 93bf
000005c0: aba8 b583 8b99 6ebf e503 023a e244 96bf
000005d0: 7e98 bc3d 1016 afbf 52a9 7c49 d880 713f
000005e0: d19b 39e4 4485 b43f 3287 67f5 27a1 99bf
000005f0: 6c65 4f04 268b 9abf bed8 882c 0c89 81bf
00000600: 5286 52ae 7389 913f 73fb 3982 3168 a43f
00000610: de2f f62c 4777 b1bf 7b02 cb16 f84a ad3f
00000620: 004b 4fd0 2b84 78bf bad7 865d 98cf a13f
00000630: e32b ff57 e261 b1bf 9214 a3f3 2248 8cbf
00000640: cb32 642a 1076 733f fea8 6906 64bf 743f
00000650: 06e3 117f 1341 9cbf dcb4 d842 39d8 6c3f
00000660: 4365 f9cb a5ac 953f ed68 e914 0d63 923f
00000670: 5d66 ff3e 804b 98bf 489f 4c8c f6a4 b63f
00000680: ac5e d585 fbab 96bf 3602 a1e1 2a3f 80bf
00000690: c9ad 2232 a39f a13f 0dde 2ae3 5307 acbf
000006a0: a824 d72c c1d4 52bf b3c0 bd84 4223 b1bf
000006b0: 1fb9 4e11 6258 9abf d818 d140 dceb 6d3f
000006c0: 0bd7 4017 46a6 a7bf 869d 278d f9d1 acbf
000006d0: e302 351a a945 993f ea54 e78f a17e 823f
000006e0: a3f0 fefe 390e 90bf 9a8b 9262 7418 993f
000006f0: aa1a c378 f0d3 76bf bc5d fbbd 7f4a 94bf
00000700: df10 02a2 821f b73f d04d 30b8 3faa c5bf
00000710: 8968 ff3b 9409 6bbf f37f e2fb c401 b23f
00000720: 11c6 0e28 0e24 85bf b772 47e2 b4ca a23f
00000730: 0838 2fc7 bd88 953f d91f ae61 6673 91bf
00000740: 0774 dd5a 8bee 613f 7e8b 6144 349a 8dbf
00000750: 6d53 3f69 4a79 803f fe08 501f fed5 9e3f
00000760: f3b7 5b08 8661 a0bf fc42 0c9f 993d 783f
00000770: cc05 6e8d 864a a33f cb4c 352b 2ea6 a4bf
00000780: fe31 7b32 4e65 9e3f f1f8 0b5b 01a9 94bf
00000790: 09c7 a679 91dc 33bf 44e5 180f 12ce 653f
000007a0: 86bd a1cb d50c 8f3f 8e63 8150 41d8 77bf
000007b0: 0579 0a71 fdb5 b13f c392 118d fc70 7c3f
000007c0: 4e4b c042 1d87 6a3f fd3b 61fe 3f74 863f
000007d0: a626 a8e6 910a 8b3f fe34 17a9 ce61 a9bf
000007e0: 1c41 242a bed5 a13f d830 2ed9 704c 9fbf
000007f0: 73d0 c77b 2b3a 893f 9adc 75c2 a68b 7d3f
