hw4/besttheta_of_simga_200C_0.1learn5000000.npy (npy, 25736 bytes, 1 tensors)

array f8 [3201]
-0.8906787078894084 0.21607617703106444 0.19229810170445893 -0.05077926132472934 -0.10914622283812275 -0.09818820850901674 -0.018741180529416927 0.15352949334474703
-0.10883503860819689 -0.09102865808557146 -0.1327877473884219 0.199149899098362 -0.12969605329816294 -0.14962727154855243 -0.06370805699573381 0.14709249169856065
-0.07666988698717435 -0.0922843888340235 -0.09089769624358246 0.1735934654726846 0.20189884673332104 -0.10150442619851546 0.1728517372901913 -0.12548711592699097
0.16766976669323533 0.15426423071740256 0.23975916310617554 0.1895271175001765 -0.10395640725743101 -0.11882339277614454 -0.13411196176447443 -0.11187718091231359
0.13825241215015002 -0.09022136416889075 -0.06801705998420467 -0.11705610900605594 -0.094018824549706 -0.100294382703659 -0.08550482455488106 0.15467671394669238
-0.08786056398488305 0.1983919299556656 0.20669789860463325 -0.102091255783207 0.1584624351762409 -0.08244854932711716 0.18186000353313755 0.18640953768094767
0.21209891208208492 -0.12301876485637628 0.20245721958098825 -0.09683882081324403 -0.13230008400022322 0.17303587671835755 -0.14359252657788157 0.10114302207570972
0.14444107668068695 0.2594127174505598 -0.08785590714711385 -0.09546469369112871 -0.11791278908603574 -0.09018676975136396 0.15835544388716358 0.1783743366099101
-0.1541157512679066 -0.07987739545735055 -0.08402066862343503 0.14026872055033943 0.24081643228022073 -0.06311823833115622 -0.12161384844947096 0.1797381958625633
0.21066143994808417 -0.0946082380125227 0.2055121192475866 -0.026012091605256783 0.20999471112609844 -0.0755714899517232 -0.0483301989880558 -0.018565018306912224
-0.2258465728621767 0.276789817784249 0.24918251570797897 -0.11738518012736494 0.12310477621404427 0.08359240443352618 -0.06944169037065635 0.07664667757690895
-0.09219860014878971 -0.0911827312609356 0.1806555124020236 -0.06592220096493084 -0.09457653637412079 -0.0534062199257472 0.13909523026405204 -0.18604312658106675
-0.08316648013285402 -0.10874590848700834 -0.049992022024578406 -0.14858293414885174 0.10703836170473889 0.2543687857574369 -0.045302710691564 -0.08539651490550453
0.21864588464011733 -0.051788779805966426 -0.10266466832969007 -0.10216139195841649 0.1756753418521839 -0.16424057373162815 -0.11568183624894039 -0.07992204379118115
0.15562170318495155 0.18421869085655407 -0.13801625678983973 -0.0787679766083699 0.17865949580471294 0.17626523868057326 -0.09774074896389418 -0.08809943793871637
-0.07598665283315241 0.2496726552488251 -0.21131622912515557 -0.093075091338308 -0.06420913255848276 0.19270103961149937 -0.1514804295502798 -0.03884746811970037
0.18999753717541035 -0.10833392341681358 -0.10643697471957861 -0.0457755112031856 -0.10291045921232013 0.15325142946616768 -0.10324033498586822 -0.11174255911180439
-0.0739546452271336 -0.0670310950033735 0.22571359547722225 -0.06364785661393214 0.30167193456191954 0.19002463721348833 -0.06003157546330859 0.1562994905777002
-0.13461049561130714 -0.06644985698306999 0.24239520466054068 0.19430001843899286 0.2228072904848947 -0.11363973755343354 -0.08811714420268593 0.1529493888392118
0.16370718810763743 0.2895765942672195 0.18640953768094767 -0.12176439541303753 0.1735934654726846 -0.11255937920222953 0.22081782143306017 -0.04431901353531476
-0.1122648736483742 -0.10063200869656858 -0.030359552190254047 -0.1201614319720339 -0.09499790079345248 0.14492577943936188 -0.11664764600668524 -0.04184093365776811
0.14137456721995312 -0.14858149530406348 0.16148063094485995 -0.1596685293854345 -0.12567609860811788 -0.06398486421526596 0.07913016684169931 -0.07131683072265531
0.10819144108805065 -0.08842850179415786 -0.08002453409299104 0.2566094106948917 -0.06725762175757555 -0.08054137878259378 0.23762996977363104 -0.08583240190925903
0.23670100102681557 -0.09861457692286454 -0.10371787551199764 0.12673680827592926 0.1252676178906063 0.23196502703604682 -0.1091852626983734 -0.16344334823493595
-0.028707795564484155 -0.123144463033112 -0.2258465728621767 -0.10248424201605402 -0.05445308123872978 0.21764741006326288 -0.03689780286828722 -0.15362828987815716
-0.07653813007866529 -0.08156337643243682 -0.0840970396618386 -0.07984614007181684 -0.12097109312193206 0.1361497945434093 -0.08027471373983361 -0.06943087415367041
-0.10727754688957475 0.23030335163607785 0.20854680329814007 -0.09873013461348755 0.08382250117802933 -0.06472277028153602 -0.058876474868837396 0.1641309965681832
-0.050368931187943 -0.07337136470674697 -0.13370844228367695 0.15758634169968594 -0.0991822066580824 -0.06587510894736542 0.1754369347651621 0.19037799513997752
-0.07584891677023488 0.20097508433016398 0.1944045953792924 -0.12650064453781387 -0.06058946342523606 0.1649230305455623 -0.09297467484136138 -0.11667412839310373
-0.10894219677555912 -0.079184636598047 -0.053773782012248424 -0.1468334318884911 0.11102597020552221 -0.11153252626918567 -0.051965484391738856 -0.12463450828960358
-0.07573063202281552 -0.06971509960179252 0.23093149498578788 0.18640953768094767 -0.08066672418326548 0.1665132002253568 -0.0158339353993778 0.03866185238636811
-0.07297976599830579 0.24490599316081066 -0.04020587364605214 -0.1528197717802102 0.2331781414444796 -0.11988143744278357 -0.07971039849201464 -0.047769456291249894
00000000: 0d1d 34a2 7080 ecbf 3985 e558 62a8 cb3f
00000010: f8a6 f364 399d c83f 03d5 6845 bdff a9bf
00000020: ac58 92c1 01f1 bbbf 8628 66c8 dc22 b9bf
00000030: 515f d955 e330 93bf be8d 71bc daa6 c33f
00000040: 9129 7bf3 9cdc bbbf 7fee 7975 a74d b7bf
00000050: 43e0 2b5c 30ff c0bf 7888 d06f be7d c93f
00000060: 35fe aa59 e199 c0bf e603 f286 fc26 c3bf
00000070: 52d3 49d5 2b4f b0bf 5c8e aa40 edd3 c23f
00000080: 87ab 3241 a3a0 b3bf e335 f91f f39f b7bf
00000090: a8de a548 1245 b7bf fb92 8088 4f38 c63f
000000a0: ecec e847 d2d7 c93f a4ff ebae 31fc b9bf
000000b0: 83ec 5b77 0120 c63f 96e6 7c39 f60f c0bf
000000c0: c5d9 3cf2 3376 c53f 13da ef28 eebe c33f
000000d0: 918a 3aa2 6db0 ce3f f927 afb1 6c42 c83f
000000e0: dd5c 6119 e39c babf 6a2a f9b9 356b bebf
000000f0: eaf1 e3ac 942a c1bf 51e3 2fa1 fba3 bcbf
00000100: bf95 634a 41b2 c13f 2382 8150 bf18 b7bf
00000110: 4dc5 33e8 9069 b1bf 9b5f fa9f 63f7 bdbf
00000120: c03b a620 9e11 b8bf 094a af85 e4ac b9bf
00000130: e009 1de9 a4e3 b5bf 0549 ed51 72cc c33f
00000140: 0f56 eca8 077e b6bf 8996 7921 e864 c93f
00000150: 5754 54a5 1375 ca3f d1e3 cb0c a722 babf
00000160: 1ffd 5c40 7f48 c43f ad6d f61e 591b b5bf
00000170: db08 d047 3047 c73f 7346 008a 44dc c73f
00000180: 2a72 74a1 0e26 cb3f 2e3a da63 287e bfbf
00000190: 6b3f 7840 1eea c93f 4147 60d0 6dca b8bf
000001a0: 55fe 048b 35ef c0bf d11f c523 0a26 c63f
000001b0: bc0e cd6a 3d61 c2bf c2a5 0854 82e4 b93f
000001c0: 3873 4592 0b7d c23f 1477 67cc 379a d03f
000001d0: 6d0f f587 b97d b6bf 5d78 53c9 5f70 b8bf
000001e0: 6798 e754 882f bebf 772e 9dea 7a16 b7bf
000001f0: 7bc8 51be fd44 c43f 94b6 1763 f8d4 c63f
00000200: a23f bf9f 10ba c3bf 9bd1 2d51 d872 b4bf
00000210: 1ffb ece7 6082 b5bf 272e b54f 53f4 c13f
00000220: 33d1 7da6 12d3 ce3f d5d7 6951 8428 b0bf
00000230: 16c8 d4cd 1522 bfbf 2a2f 8944 a901 c73f
00000240: 207a 8d3d f4f6 ca3f 072b 32d8 3e38 b8bf
00000250: 00ce 8c9b 384e ca3f 6a04 fbea e9a2 9abf
00000260: bf4d 4f50 1be1 ca3f dd46 da35 a758 b3bf
00000270: c130 2060 bcbe a8bf 154c e949 b502 93bf
00000280: 54a9 2d5e 8ae8 ccbf 0df2 cfa3 ecb6 d13f
00000290: 07b3 d971 36e5 cf3f 359e ae85 f40c bebf
000002a0: a11a d26b cb83 bf3f 856a 3cd3 4f66 b53f
000002b0: 15f5 1e3d eec6 b1bf 9b35 8add 1d9f b33f
000002c0: ab43 60d4 539a b7bf dac5 b960 c057 b7bf
000002d0: 9ced cd46 b81f c73f 1887 3901 47e0 b0bf
000002e0: 2920 b2fa 2a36 b8bf bbd7 f75f 0f58 abbf
000002f0: b1c0 815c dfcd c13f b2d7 27dc 42d0 c7bf
00000300: 5246 4b00 664a b5bf cd87 8698 c5d6 bbbf
00000310: 9e1d 50e7 8d98 a9bf 7dde 74fd c304 c3bf
00000320: 2774 f0b6 dd66 bb3f 19e4 fc03 9447 d03f
00000330: 204b aeb9 ea31 a7bf 1326 b6c6 8bdc b5bf
00000340: e796 f79d 96fc cb3f 62fb 2117 0f84 aabf
00000350: bc42 ee50 3b48 babf 7b0f 60bd 3f27 babf
00000360: ffff fb93 877c c63f 6843 6dca d505 c5bf
00000370: 6b30 6e27 539d bdbf be06 5064 c575 b4bf
00000380: 6e14 dd76 69eb c33f 0c3a 4562 7a94 c73f
00000390: 0746 9d46 84aa c1bf 6a4a 815b 232a b4bf
000003a0: 8ff0 cc79 50de c63f 4a00 c7fd db8f c63f
000003b0: 3056 49a8 8905 b9bf 1326 be4c af8d b6bf
000003c0: 47d4 d97c dc73 b3bf 58e5 7f08 46f5 cf3f
000003d0: 6871 9a02 690c cbbf 6dc8 5ee9 c4d3 b7bf
000003e0: 5c76 717c 0270 b0bf feae 847b 6daa c83f
000003f0: 9684 73f1 b563 c3bf 3a89 36ba d0e3 a3bf
00000400: 5095 3edc d651 c83f 9861 1fa2 c5bb bbbf
00000410: 127a 811d 743f bbbf 1496 2647 e36f a7bf
00000420: b9b6 bb00 5758 babf 25ac cf2a be9d c33f
00000430: 9573 6466 f56d babf 3ee0 f40c 299b bcbf
00000440: 4248 a30e b1ee b2bf 53c4 da28 f328 b1bf
00000450: c82a 6bdf 2ee4 cc3f b909 9ed6 394b b0bf
00000460: b620 44cd 974e d33f be12 2231 ba52 c83f
00000470: 8c3d af6a 75bc aebf c8d2 3428 9f01 c43f
00000480: 45a9 2cae ea3a c1bf 0cf0 909a db02 b1bf
00000490: 31b4 5c5a ce06 cf3f c661 67b0 d2de c83f
000004a0: 0db4 f804 f384 cc3f c469 516c 7e17 bdbf
000004b0: 8a44 915c d88e b6bf 1bf9 8077 d893 c33f
000004c0: 1d6e 856d 5bf4 c43f 2c25 8444 6c88 d23f
000004d0: 7346 008a 44dc c73f d9bf 1d90 f32b bfbf
000004e0: fb92 8088 4f38 c63f 7419 8804 b1d0 bcbf
000004f0: 34e8 b624 c243 cc3f f147 7353 fbb0 a6bf
00000500: de30 cf08 64bd bcbf 2c55 48f2 04c3 b9bf
00000510: d006 1d0f 9316 9fbf 5177 8f4c e6c2 bebf
00000520: 3fb6 184d c851 b8bf 070a 858d ed8c c23f
00000530: 930c c1c0 9edc bdbf c370 63c3 2c6c a5bf
00000540: b011 59d3 8f18 c23f db94 8feb b704 c3bf
00000550: 3f3d 6cb6 65ab c43f ef96 f4b3 0470 c4bf
00000560: 0b93 b486 2716 c0bf 795a 3ee3 4f61 b0bf
00000570: a34d b6e6 df41 b43f 33b1 9bdf d141 b2bf
00000580: 5e27 2e2d 6fb2 bb3f c97c 3d13 40a3 b6bf
00000590: c099 cee4 7c7c b4bf f3f1 b1e0 496c d03f
000005a0: b003 dba5 cb37 b1bf b592 d81b 5c9e b4bf
000005b0: 5815 5daa a86a ce3f 5a2c 23bf 1cf9 b5bf
000005c0: f099 2be9 374c ce3f 7ee6 ca0e ce3e b9bf
000005d0: 41aa 5533 418d babf 084d 5f67 e938 c03f
000005e0: e242 0bf1 c408 c03f fcc0 77ae 07b1 cd3f
000005f0: 83a3 7ebc 90f3 bbbf 1e7a b52d b6eb c4bf
00000600: cedd 5b8c 9365 9dbf 7023 6941 6586 bfbf
00000610: 54a9 2d5e 8ae8 ccbf 0a76 d043 683c babf
00000620: d96d 2c36 46e1 abbf c2f1 23ce dedb cb3f
00000630: 0b23 3ad1 44e4 a2bf 1930 6280 17aa c3bf
00000640: 79b9 95bd 0098 b3bf 9f22 5462 56e1 b4bf
00000650: 22bb 0933 6287 b5bf 6cfe 51f0 cb70 b4bf
00000660: 6d56 b828 f6f7 bebf 5ee5 7541 5b6d c13f
00000670: 3e56 3536 e28c b4bf de9c d2c5 38c6 b1bf
00000680: 5c5f 7c93 8a76 bbbf 84d3 b789 947a cd3f
00000690: dee8 ec61 a9b1 ca3f 576b 4bcb 6046 b9bf
000006a0: be82 3a35 6475 b53f 7d6c aae5 ab91 b0bf
000006b0: 0f7f 21ac 0e25 aebf 1097 4297 3e02 c53f
000006c0: c895 5fe0 f4c9 a9bf a7dc e03b 77c8 b2bf
000006d0: 085c 67b5 5b1d c1bf 4abe f20b ca2b c43f
000006e0: 370b f14d 0164 b9bf 9ca3 8cee 30dd b0bf
000006f0: 70d6 a9ac b774 c63f 478b 805f 4e5e c83f
00000700: 5916 f7a8 d56a b3bf 8423 4133 8db9 c93f
00000710: 6a4f acf1 3fe2 c83f 113e 9b51 2c31 c0bf
00000720: ed82 c907 9505 afbf 7a73 46a7 321c c53f
00000730: 02c5 cc33 30cd b7bf f6d8 bc0d 5bde bdbf
00000740: 3530 4ec4 a2e3 bbbf 0ac5 88c0 7145 b4bf
00000750: 09eb 3fb6 3c88 abbf 5dd3 f519 70cb c2bf
00000760: 5a15 0aaf 326c bc3f aa33 c448 658d bcbf
00000770: 4e75 f74f 389b aabf 3b90 0e11 0ce8 bfbf
00000780: 42e9 d72b 1563 b3bf 9dbb d348 d9d8 b1bf
00000790: cf48 4ac9 298f cd3f 7346 008a 44dc c73f
000007a0: 9019 3e0e 93a6 b4bf 8dfc a8f6 4d50 c53f
000007b0: 9747 d46a c536 90bf 9157 347f 7ccb a33f
000007c0: 3f82 3b4c cdae b2bf a12b 9c5f 1459 cf3f
000007d0: 3574 d540 dd95 a4bf 3735 fd28 998f c3bf
000007e0: 79b3 d205 c8d8 cd3f 78d7 36c5 8cb0 bebf
000007f0: eea0 ac92 e667 b4bf 8788 09f9 3c75 a8bf
