hw4/besttheta_of_simga_4444400C_0.1learn10000.npy (npy, 15328 bytes, 1 tensors)

array f8 [1900]
000000 29 cd 2c 9b 33 87 bf bf a0 32 b1 6f 81 58 61 3f
       -0.12315676248981745 0.002117398076313684
000010 3a 0b 84 1b b5 98 74 3f 75 55 2f 4e a8 6a 58 bf
       0.005028445674045307 -0.001490272866012302
000020 cb 8c 87 b8 35 cb 43 3f 2d be d3 79 4a 25 9c bf
       0.0006040584858592266 -0.027486003576028196
000030 7a 19 d6 15 ff 38 80 3f d7 56 2f fe 44 0d 99 3f
       0.007921212057010452 0.02446468163892387
000040 dc f2 29 e3 0b 9d 75 3f 93 85 a6 31 22 5f 68 3f
       0.005276724276538327 0.0029750507212191273
000050 fb 49 55 4c ca cb 96 3f 32 c6 7d 1d 4a e9 8d 3f
       0.022261773022657732 0.01460512068271944
000060 d7 60 38 f2 c5 e1 79 bf b3 fd 80 06 83 99 94 3f
       -0.006318829753148423 0.020116851112332145
000070 2b a4 70 94 c7 84 6f 3f 84 75 73 79 29 aa 6e 3f
       0.003847493938810694 0.0037432489440180645
000080 f2 b5 fd 28 69 9d 76 bf c1 6b f3 24 4b 20 95 3f
       -0.005521212369655514 0.02063100255041284
000090 17 8f be d5 b1 f0 6c bf fe 4d 09 9b 8f da 83 3f
       -0.0035327409113551467 0.009694215697130023
0000a0 de 5b 31 d6 0f 43 7d bf 15 41 fc c1 df f8 7c 3f
       -0.007144033300469281 0.007073282293063939
0000b0 13 b4 ef 96 f0 d4 82 bf 17 f6 a2 e2 e1 91 93 bf
       -0.009195212942325203 -0.019111184556768714
0000c0 5e 7b a8 6a 5d 6d 72 3f 53 f4 5b 48 92 35 a8 3f
       0.00449882975456614 0.04728371747294404
0000d0 cc f4 12 07 1b f4 80 bf b8 9d 39 e7 d6 39 86 3f
       -0.008278094437964255 0.01085250752585308
0000e0 c8 c0 60 08 7b c2 43 3f de 4f 95 6e 06 96 6a 3f
       0.0006030178781255774 0.0032453656792004034
0000f0 0c 74 ef 6c 16 37 7d 3f 33 f1 a6 ef 16 ff 4c 3f
       0.007132613754007099 0.000884901236808433
000100 10 5b 3f b0 26 ae 74 3f af cd e3 eb 29 82 71 3f
       0.005048895956824465 0.004274524455684255
000110 1a 1b 53 fb db dd 76 3f 5d 9d c6 e2 55 63 69 bf
       0.005582675269755888 -0.003099124666011184
000120 f6 b1 79 ad 4d 45 8d 3f 50 b3 6c 04 3e d7 7c 3f
       0.014292342049167833 0.007041208510412414
000130 bd ba 74 e7 2a ca 7b 3f 2a 87 34 6a 9d 2d 6d bf
       0.0067845989172343165 -0.003561789942652012
000140 2d cf bc d5 cf 47 9a 3f ea 50 f9 91 d4 91 7d bf
       0.025664565487388536 -0.007219152786621866
000150 db 4b e4 d2 7b 7e 82 bf bf fa 95 f5 bf f1 65 3f
       -0.009030310986906478 0.002678751869722745
000160 e3 6a 61 c3 cc 26 5d 3f bc e8 e0 7c 08 45 78 bf
       0.0017792701378513346 -0.0059252101473765105
000170 96 67 7a 61 ef c2 7b bf 1d 96 08 30 ff ba 52 3f
       -0.00677770145525782 0.0011432163302144201
000180 73 ad bc af ec 18 5d 3f e5 07 25 ed 70 25 39 3f
       0.001775962008603607 0.00038370139113308297
000190 c6 16 66 da d0 43 54 3f c6 ac 29 82 4d 73 0d bf
       0.001236871679425476 -5.6172182912950184e-05
0001a0 68 e8 6d 3f 32 bb 6b 3f 9e 8b a4 e9 7a f1 90 3f
       0.0033851605798505442 0.016546173582479555
0001b0 64 e8 d5 24 39 7f 91 3f ba 0f 53 fa d9 c4 76 bf
       0.017086880563035214 -0.005558825946710694
0001c0 e1 49 f4 7e ea c0 52 bf 9d 92 07 74 a9 d8 65 3f
       -0.0011446275710268394 0.0026667890199284076
0001d0 28 4d e5 36 37 d9 69 bf 60 6f c3 d2 d5 60 56 bf
       -0.0031553343207321345 -0.0013658607595549918
0001e0 af 92 8d 37 06 79 83 bf 16 9d 9a 93 c4 ab 73 3f
       -0.009508179254859554 0.0048024824879242724
0001f0 cb 01 d4 a5 3b 78 79 bf 90 ab a6 e5 24 a1 62 bf
       -0.006218178748213575 -0.00227410513362742
000200 6e df 6b 4a 69 e5 76 3f 5b 42 32 0f 07 56 81 3f
       0.005589877406911954 0.00846486582875732
000210 10 3e 7e ad 0c 60 38 bf 9d 71 2b db 0e 71 5f bf
       -0.00037193593515724797 -0.0019190449790392535
000220 a5 0d 75 27 8f 29 79 bf 98 ff e2 16 7b d5 83 3f
       -0.00614314956266374 0.009684526096293486
000230 ba 58 2a 99 21 24 90 3f 09 90 db 75 22 4a 97 bf
       0.015762829755282516 -0.02274373859735593
000240 5b f1 ec 1f b5 c0 6b bf 26 cf c7 3b 1a 3a 6e bf
       -0.003387788542936016 -0.0036898147939100788
000250 6b 00 53 dc df 09 a2 bf 2b 18 15 fe 26 9c 90 3f
       -0.03523158611778928 0.01622067380710505
000260 9f 9e a9 ed 5b 82 6a bf 1d ed 50 f9 24 e6 8b bf
       -0.00323598818549782 -0.013622559412502394
000270 34 85 ef 76 75 ce 61 3f 35 af 01 f9 db 57 6f 3f
       0.0021736425619428793 0.003826074251312673
000280 33 07 d4 8f c0 cb 8b bf 5a ea d3 15 d0 0f 84 bf
       -0.013572220219888109 -0.009795785585528783
000290 0e a5 48 63 d4 09 52 3f 35 9b 98 0d 41 3e 75 3f
       0.0011009763812899784 0.005186323274336148
0002a0 24 5f 63 bc b8 74 41 bf a4 78 55 63 5b bc 5e bf
       -0.0005327131300658411 -0.0018759624920999052
0002b0 ba 17 cb b4 9b cb 6d bf 3d 76 ec 86 e5 7b 7e bf
       -0.003637127031057977 -0.007442375745794258
0002c0 ca 81 1e dc 06 fb 87 bf 73 79 bb 56 43 25 8b 3f
       -0.011709264366630463 0.013254667362556849
0002d0 d9 c4 f3 9e 73 19 68 bf 9a fb dc a4 48 19 45 bf
       -0.0029418237896768726 -0.0006438832003608952
0002e0 65 93 5b 67 6a d0 91 3f 4e cb 7d 69 d2 b8 83 bf
       0.01739660507054754 -0.009629863590566192
0002f0 82 e5 c4 75 34 21 80 bf c6 d3 b8 54 a3 1f 88 bf
       -0.007875833362606558 -0.011779094717988669
000300 a7 53 18 a7 ec f1 8e bf 76 da 56 62 2e 69 7a 3f
       -0.015109871720634006 0.00644796484760112
000310 fa 9c 31 0a 80 25 85 bf d7 a9 1d c7 c2 f6 68 bf
       -0.01032543212040914 -0.0030473522428355704
000320 1a c6 06 86 3a 61 70 bf 3c 04 fc 5e 51 24 8f 3f
       -0.0039989744258704055 0.015205989562220627
000330 05 a7 34 34 79 d3 83 bf 13 bd 30 8c dc 7f 9b 3f
       -0.009680697351160736 0.026854940468351417
000340 aa d1 a8 0b 1b b2 7b bf 91 ed 99 21 29 62 6f 3f
       -0.006761651655825688 0.0038309863419365227
000350 a0 7d 18 a6 67 1f 7c bf d8 d6 3b b4 00 b4 7d bf
       -0.0068658875257194 -0.007251742124699333
000360 78 a6 8a a6 eb 5d 6e 3f 6f 94 a5 37 d2 a7 6e bf
       0.0037068941640726015 -0.0037421327407849907
000370 89 63 81 04 e8 90 86 bf fa 37 83 1c 05 9f 67 bf
       -0.011018574368948613 -0.002883443816336315
000380 15 5f 09 c9 98 19 66 bf a9 f8 a6 65 ce 11 54 3f
       -0.0026977523887515933 0.0012249484631037622
000390 94 b4 f3 42 0f 04 90 bf 2c 18 a1 59 5c a5 76 bf
       -0.015640486203598217 -0.005528794043192103
0003a0 49 a2 c3 e1 67 59 95 bf c7 75 bd 0e bb a2 80 bf
       -0.0208488685174493 -0.008122884166079992
0003b0 fb 08 e6 73 a7 6e 6d bf 4c 23 da b9 97 b0 60 3f
       -0.003592803054915381 0.002037330951513294
0003c0 42 43 23 79 06 a6 96 3f 58 4a 3e 88 a1 dc 78 3f
       0.0221177112042057 0.006069785103948698
0003d0 c0 ec 73 e6 4b 95 72 bf 0a 6e 50 8b 1d 76 80 3f
       -0.004536911473446981 0.008037787260085433
0003e0 8a db 90 72 24 ac 98 bf ce cd f2 db ac 87 38 3f
       -0.024094171040100622 0.0003742978114573387
0003f0 43 da ed 87 66 76 67 bf 63 a2 a1 18 4c 1c 87 bf
       -0.0028640749509876453 -0.011284441472711742
000400 2e d0 91 81 da af 85 bf a1 04 0f cb 93 f3 75 3f
       -0.010589320258283488 0.005359246556453063
000410 ec 13 5f 22 0f 8e 77 3f d0 35 54 a0 d9 01 77 3f
       0.0057507125074538305 0.005616998770404405
000420 ff 1e 0b e7 7d 6b 7f bf 30 64 5a fa 33 56 97 bf
       -0.007670871550267354 -0.02278977599653248
000430 9a 71 f1 2d 2a fa 94 bf ce 3c 96 77 1f 84 87 bf
       -0.020485552839419087 -0.011482473217965607
000440 7d 04 89 8a 08 c7 6f 3f e7 52 5f 3d 0e 5b 45 bf
       0.003879086191120039 -0.0006517238168678136
000450 b1 f7 30 2a 8e 7c 80 3f 8d 2c 5d 54 e0 7f 9c 3f
       0.008050070440841358 0.027831559323470634
000460 ba 2a e2 fc e8 e9 40 3f c3 7a d3 f6 2a 74 61 bf
       0.0005161655078763296 -0.0021305884498440133
000470 93 49 50 77 cc 0c 69 bf a6 11 70 4a 15 fc 00 bf
       -0.003057860706129742 -3.2395744078458994e-05
000480 11 1d a1 92 45 2b 68 bf 4b e0 5a 50 6c cf 72 3f
       -0.0029503210871869652 0.004592345334167257
000490 f0 c4 67 a5 d6 04 73 bf 53 65 fc 03 ab 2b 54 bf
       -0.00464328619135411 -0.0012311143945623229
0004a0 34 da c0 77 7e 96 65 3f af ba e3 61 9f 4d 40 bf
       0.0026352377008394216 -0.0004975345835001778
0004b0 2d 06 1a 9c 9a 98 68 bf eb 60 c4 77 1e c9 43 bf
       -0.0030024547311888945 -0.0006038092392684191
0004c0 05 24 a1 4b f2 eb 44 3f 1d 76 53 48 5b c4 92 3f
       0.0006384785731451409 0.018327165879659647
0004d0 06 c9 15 b9 2c 34 5f bf 02 ad 9e 48 6c 8f 50 bf
       -0.0019045292613922306 -0.001010757203838975
0004e0 0e 55 0a b0 39 ff 92 3f 97 af f9 23 e7 fb 67 bf
       0.018551732415820026 -0.0029277338469934733
0004f0 44 f2 ca ee 26 b9 73 bf 04 cd aa 3e 10 b5 65 3f
       -0.0048152466594584865 0.0026498143464209773
000500 cc ba 0b 44 59 c8 6d 3f 6c 81 ef 12 98 a9 6e 3f
       0.0036355727646574017 0.0037429781145734056
000510 3a af e2 e0 3c eb 9b 3f c4 af 41 62 89 81 60 3f
       0.027264548517151634 0.002014892890704419
000520 80 ab 9c f4 84 06 7f bf 4c c2 25 bf c3 e1 6a 3f
       -0.007574576718790804 0.003281481092180882
000530 46 60 1d bd a6 28 2a bf a3 bc f2 40 2a b1 79 bf
       -0.00019957576165086278 -0.006272473386317009
000540 ad e7 63 db 22 e9 90 bf c5 ce 32 56 e9 20 8b bf
       -0.01651434387256472 -0.013246367400234669
000550 ed 09 96 4d 8e 9e 74 bf d9 5f 1a 4d c2 07 62 bf
       -0.0050340231622407585 -0.0022009653992647146
000560 40 82 47 11 58 e7 78 bf e8 73 99 de c4 de 50 3f
       -0.006080001844083471 0.0010296747735971615
000570 e2 48 eb b4 c9 83 b0 3f db c8 48 ec 1b ac 8f 3f
       0.0645109240242934 0.015464990757298505
000580 88 26 68 f1 a9 1c a3 3f 78 87 d9 70 7d 28 72 bf
       0.03732806274281325 -0.004433145526123165
000590 1f d7 63 54 d1 5b 8a bf 40 11 6f d6 d8 26 94 bf
       -0.012870440853002983 -0.019679439628604856
0005a0 33 16 af 7d 39 6c 69 3f 3d 74 1a dd ae 08 81 bf
       0.003103363310830409 -0.008317342875040374
0005b0 d4 eb 8b f1 a5 18 8a 3f 8e 3f f2 5b cb 6f 73 3f
       0.012742325242916332 0.004745287296046187
0005c0 20 8c 5d 3a a2 0b 72 bf 05 d1 ec 48 5b 7c 6f bf
       -0.004405626013837455 -0.003843477526425445
0005d0 78 81 ce 83 92 e4 99 bf 75 d7 31 f0 f2 03 61 3f
       -0.02528599671825435 0.002077078331747135
0005e0 bb 15 86 bd ae 65 7c 3f be 78 c2 d3 65 13 81 bf
       0.006932909564402785 -0.00833777954568082
0005f0 91 2b d1 7c 41 cc 83 bf 55 06 ac 6d fb 77 50 3f
       -0.009666930791487423 0.001005168471863623
000600 e1 1e 80 b0 c4 aa 69 bf 4f fe 23 d1 e5 7d 71 3f
       -0.0031331864920537277 0.004270456049425399
000610 76 ab a7 0f ee 42 82 bf 99 31 0e 74 3f d5 82 3f
       -0.008916721203566996 0.009195800523024643
000620 d9 6d 70 0c 4e e4 63 bf ed 07 7b 37 69 f2 80 3f
       -0.002428200186398871 0.008274862294800978
000630 b6 67 7c c2 63 75 89 bf de 7a 4c d4 49 31 7a bf
       -0.012430934307804491 -0.006394661327049104
000640 d4 69 9d d9 f0 4d 50 3f da 35 0d a7 be 66 74 3f
       0.000995145039687108 0.00498079751635091
000650 92 d4 44 82 d6 fc 80 bf f1 81 e5 89 87 3c 67 3f
       -0.008294750071039556 0.0028364798774165247
000660 95 9c 7c a9 87 7a 5a bf 82 ce 55 69 3e b1 73 3f
       -0.0016161274742872201 0.004807704729831054
000670 03 3e 9e a5 99 06 6d 3f ce 69 93 c9 0e 4f 74 3f
       0.003543186275187572 0.004958207858374709
000680 23 4c 61 ec 8f bb 85 3f a6 57 74 bf 92 a2 6e bf
       0.01061165275692672 -0.0037396303338352475
000690 66 59 ef fd 85 e9 81 3f 1a da b4 ac ec f3 81 bf
       0.008746191799144664 -0.008766030331213637
0006a0 2e 9d d6 f9 ea 25 77 bf 69 93 53 e2 69 c6 7c bf
       -0.005651395678263156 -0.007025159463613353
0006b0 ab 39 87 11 cb 57 6b bf 9f a4 3d 6a 66 4f 7c 3f
       -0.0033377615147635784 0.006911659296613553
0006c0 41 1b e4 f2 f1 a2 65 bf 59 a0 cc 15 62 78 8c bf
       -0.002641174846874789 -0.013901487627279762
0006d0 66 09 82 14 d9 60 89 3f 52 ef a9 40 73 9b 7c bf
       0.012391754091599604 -0.006984186368409544
0006e0 db fa 21 f3 8d 33 7f bf bb e5 d1 6b 4c a1 78 3f
       -0.007617525569115736 0.006013201255990304
0006f0 e5 b9 52 a0 5a 5d 5d 3f 84 23 51 8c 2b d2 78 bf
       0.0017922768613903791 -0.006059808835808481
000700 f8 76 44 e7 15 99 a8 3f 77 ba 3e 54 21 04 ba bf
       0.048042950135124884 -0.10162552172435278
000710 e6 0e 45 c3 b9 b0 67 3f 03 3f 30 d4 ac 26 87 3f
       0.0028918865374708445 0.011304235673406554
000720 e8 74 af 3d ac 1a 7d bf 80 47 b8 b4 e2 af 86 3f
       -0.007105515304798284 0.011077662601596705
000730 45 b6 3d 6a 3c 5c 5a bf dd 9c 71 91 19 b4 73 bf
       -0.0016089048376345544 -0.004810428500696432
000740 85 b5 ca 99 44 97 46 bf 07 ba c8 40 07 b6 54 3f
       -0.0006894192661854181 0.0012641020613376479
000750 37 46 fe 02 18 e5 95 3f 56 2c e9 47 0a b1 66 bf
       0.021381735975927376 -0.0027699662016736166
000760 95 35 80 a8 06 cf 81 bf 44 dd 20 5a 49 20 5d 3f
       -0.008695652024494996 0.0017777172402143196
000770 e6 22 fb 54 3c b7 85 bf 20 df 1e 64 d9 d0 4e 3f
       -0.010603400557913156 0.0009404241065942044
000780 39 ac 45 bb ec 25 83 3f 22 b4 34 47 4d 60 6c bf
       0.009349679436772106 -0.003463889058954909
000790 a4 2d b8 03 50 3d 61 bf 8c ce e8 52 9c 1a 61 3f
       -0.0021044314178248636 0.0020878842545018535
0007a0 d2 fd 88 75 ff 01 65 3f 07 41 e4 f8 0c 61 72 3f
       0.00256442922935183 0.004487085984024703
0007b0 b8 cf 29 f9 fc 51 98 3f 77 51 68 79 8e e3 66 3f
       0.023750260074350854 0.0027940542888790737
0007c0 70 65 3c 8e 41 26 4b 3f 4a f4 92 75 ba 53 6c bf
       0.0008285350890872411 -0.0034578935415923483
0007d0 40 bd 26 8e 2e 02 76 3f dc 3a 17 ef ac ad 91 bf
       0.005373174530560576 -0.017264082043591297
0007e0 46 79 4b 67 79 61 95 3f 63 a5 f8 5c c3 c4 60 bf
       0.020879647187819893 -0.0020469489752669586
0007f0 71 b6 c0 0e 6c 78 66 bf 60 7a cf e3 89 89 38 3f
       -0.002742968607001122 0.0003744088788248164
