hw4/best_theta.npy (npy, 25736 bytes, 1 tensors)

array f8 [3201]
0	0x3f193ea1077ed173	9.63006767723035e-05
1	0xbf81696af44c176b	-0.008501849727973817
2	0xbfa0584605c334ec	-0.03192347355216349
3	0x3f601ca3d3e00e8f	0.001966781593184148
4	0x3f7a1bd7ac73e07d	0.006374208903473397
5	0x3f81a980972d15b4	0.008624081243065664
6	0xbf6c660b52cecf3d	-0.003466627231739765
7	0xbf88a43083029b81	-0.012031916616548123
8	0x3f867f677ba45e02	0.010985191784626206
9	0x3f6cf9e7a7c823ba	0.0035371326941952804
10	0x3f7fc597e970fceb	0.007756799131185969
11	0xbf87d12ca042f552	-0.011629437104029226
12	0x3f95364f5cf58d9e	0.0207149887550152
13	0x3f7d74b27a98a3f4	0.007191369231386514
14	0x3f67c4754778c7ba	0.0029012957200160424
15	0xbfa788d597645b5a	-0.04596583817526918
16	0xbf64e0c4bd0892ba	-0.002548584227286402
17	0x3f802eb7765deaa2	0.00790160493828768
18	0x3f6dd52136c64156	0.0036416672430236536
19	0xbf78e77c5fbee1e3	-0.006080137096369206
20	0xbf84b0289bbed929	-0.010101620915389535
21	0x3f88615527b1f078	0.011904397272012299
22	0xbfa3c2f0807ee327	-0.03859664505529841
23	0x3f8761cac84dfae6	0.01141699241429479
24	0xbf83a0a313e09187	-0.009583734554390556
25	0xbf8251d6e03d5f1e	-0.008945158689740714
26	0xbf900997131fd0fa	-0.015661583463910646
27	0xbf702728e6876c2f	-0.003943595664590168
28	0x3f56ee9bd10e1f8b	0.001399662174863511
29	0x3f81d9f2ffb3fc63	0.00871648638576356
30	0x3f9014929e698857	0.015703478735652556
31	0x3f726b3c27d2b6fb	0.004496798498775818
32	0xbf9644fd56949e2c	-0.02174754944749517
33	0x3f81b540efcd0d9f	0.008646495168824595
34	0x3f82b6d56cd249d4	0.009137790091959731
35	0x3f79dfd6f83d21ff	0.0063169858220324384
36	0x3f63245a9b0c9f22	0.0023366708413909013
37	0x3f7489b68fd8fc24	0.005014145977440019
38	0x3f82810007d2270f	0.009035110701251207
39	0x3f600a0117acd0d2	0.0019578954064859233
40	0x3f6919300a76c7bc	0.003063768224557754
41	0xbf89f7719d2bd784	-0.012678992852197764
42	0xbf91fd921f370671	-0.01756885829468619
43	0x3f4f015748e4806a	0.0009462047762873853
44	0xbf80ea4d81bb56ec	-0.008259397050476257
45	0x3f62220760730d8e	0.0022134918286568833
46	0xbf720bcd2cc27236	-0.004405786003328907
47	0xbf77f46f0930fc1a	-0.005848344549177953
48	0xbf9789446fbdfe6d	-0.022984570808601768
49	0x3f7b23b14c1191fc	0.006625835959401357
50	0xbf97058d8af419aa	-0.022482120138215635
51	0x3f78c51eabb2fa0e	0.006047363097592141
52	0x3f898c1d5015378c	0.012474278456149589
53	0x3f59fc32769e8e24	0.0015860073858470292
54	0x3f92cca608c7c49d	0.018358797346028955
55	0xbf902120e62a5a85	-0.01575137524431593
56	0xbf6de6ce6242a24e	-0.0036500960287251588
57	0xbf97d2f52c62f1dc	-0.023265677293908257
58	0x3f77bc9bcfa66756	0.005795105588186042
59	0x3f7c8b4a70307c6e	0.0069687755340331736
60	0x3f7c0567e7344fe4	0.006841092940948788
61	0x3f727e701751fc50	0.004515111785735007
62	0xbf7de2f3c80358c4	-0.007296516676623625
63	0xbf7903ef4bc3e1da	-0.006107268094858809
64	0x3f94ba6753cbe229	0.0202423233886028
65	0x3f71898f7c70b9c3	0.004281578533705535
66	0x3f5d8017bb2848b8	0.001800559210668724
67	0xbf832c92d6d5b9d3	-0.009362361127128438
68	0xbf88c19b08787d64	-0.012088023372654084
69	0x3f7783eac0ede876	0.00574104023587029
70	0x3f7ed7dc905405ec	0.00753008039214496
71	0xbf75067015402c2a	-0.00513309271264987
72	0xbf8ac74a3cb19555	-0.013075427987312574
73	0x3f7d82ffe61d978f	0.007205009083781535
74	0xbf8abd49a52ad517	-0.013056350090986641
75	0xbf7fd13bb4c658e7	-0.007767899729875994
76	0xbf833b9f7b49bca9	-0.009391065549804916
77	0xbf2430a4bbd744c9	-0.00015403757963253762
78	0xbf72b589107f5890	-0.004567656906109843
79	0xbf63f68fcfb2b223	-0.0024369057478763763
80	0x3fa0e2415e6147f8	0.03297619130229629
81	0xbf8e2707fef84f93	-0.014722883671346476
82	0xbf92a80d6eccb435	-0.018219194305107506
83	0x3f83a0d198c68861	0.009584081148947545
84	0xbf931717eaa266a3	-0.018642781921335182
85	0xbfa3c57ac19d19f9	-0.03861602414558613
86	0x3f514a498ddd429f	0.0010553091337507715
87	0x3f84680258a2b51e	0.009964006738608474
88	0x3f77ccb9826f4791	0.005810475012326581
89	0x3f6a29a6e3bcff31	0.003193689304595092
90	0xbf8141e17b60b69d	-0.0084264388825333
91	0xbf3f3f666d0a3185	-0.00047680140145513916
92	0x3f713c6b327252aa	0.004208010424140577
93	0x3f5f898af44f9004	0.001924882600399692
94	0xbf7a3ae160b62597	-0.006403808958006427
95	0x3f9447fca17817af	0.019805857997219508
96	0x3f70fc7d1f643676	0.0041470420458274895
97	0x3f80bb04a445ebe9	0.008169208777635677
98	0xbf5d3e7b509e0f36	-0.0017849163291154386
99	0x3f846366b089c4b8	0.009955217611805942
100	0xbf99ac35f0925ea9	-0.025070994194350025
101	0xbf9a1180186ca9ac	-0.025457383623839355
102	0xbf7899cd510aed9d	-0.006006052034247669
103	0x3f83c91f518804e2	0.009660954166067662
104	0xbfa008210643e2df	-0.0313120193622518
105	0x3f70b5a2700065fd	0.004079470178135034
106	0x3f703dc1a1915c12	0.003965145465449476
107	0x3f770de61614bc03	0.005628489279202678
108	0xbf9497c053896c4c	-0.02011013517254083
109	0x3f826c72e9c92760	0.008995912322592836
110	0x3f751bbd7ecfaba6	0.005153408256755398
111	0xbf534c8c25e98a58	-0.0011779183038461895
112	0xbfa887cc4e67785f	-0.04791105706293374
113	0xbf8bb4fc60e9ec31	-0.013528796870778322
114	0x3f8674893a1e8e05	0.01096446236244387
115	0x3f70a76425e53901	0.004065886691320354
116	0xbf7d9c2755897044	-0.007228997849406286
117	0xbf8004f41e5994dc	-0.007821948219496049
118	0x3f80b67a669cc714	0.008160549408418961
119	0x3f8a48d1cf23c545	0.012834204801466806
120	0x3f81594d5eade3f4	0.008471111728555393
121	0xbf9273d81797c4c7	-0.018020035209649145
122	0x3fa095ab3d0c8cd5	0.032391883089326313
123	0x3f733531145732a0	0.004689399448989079
124	0x3f658fbd2196ffc9	0.002632016560454507
125	0xbf8d15e47a9ed3c5	-0.014201912872389042
126	0x3f9397c43587bc32	0.019133630530571995
127	0x3f6afd75ab681b3e	0.003294687102655485
128	0xbf903463f4c6d2c7	-0.01582485372064715
129	0x3f83195dec6306de	0.00932572724957786
130	0x3f8362fae4eb5145	0.009466133223590698
131	0x3f62ec67839ec860	0.002309992004449632
132	0x3f75ee00edafbd80	0.005353931071098272
133	0xbf454637233a6e2c	-0.0006492394663441584
134	0x3f7a66ba50aece12	0.006445625108358681
135	0x3f80631ec4406b00	0.00800155674374059
136	0x3f81bf2b9b72d5a2	0.008665409737981748
137	0x3f552142acc017be	0.001289668190112433
138	0xbf92e4272e42755e	-0.018448459814512368
139	0x3f692e0487d76355	0.003073700760733914
140	0xbfa15c30b3c531ad	-0.033906480736365686
141	0xbf92f8f5bd8536cb	-0.01852783173790477
142	0x3f4c5b5cd1f075b9	0.0008653834555649088
143	0xbf84df467f25cdd4	-0.01019148898624326
144	0x3f875fc0dfa85708	0.011413103890884027
145	0xbf47c6f93ba5d21b	-0.0007256237943651962
146	0xbf8db1d0705ae1bf	-0.01449930994873305
147	0xbf84410c2d5fbb69	-0.009889693388655823
148	0xbf9458c880adc8bc	-0.0198699310817083
149	0x3f7c0f8ff948e134	0.006850778958828397
150	0x3f81a5b086218d0d	0.008616808980326707
151	0xbf8a2ca873645d2f	-0.012780490895734601
152	0xbf82294380bf9630	-0.008867766729916488
153	0xbf9643bd8014a0e1	-0.021742783491533472
154	0xbf77f46f0930fc1a	-0.005848344549177953
155	0x3f86f060af29053b	0.011200671525446118
156	0xbf78e77c5fbee1e3	-0.006080137096369206
157	0x3f80fe089fb67f77	0.008297030805635803
158	0xbf82f17ddc98bf85	-0.00924967126329058
159	0x3fa013fd38a6cb18	0.031402505078764686
160	0x3f849d0cf643279b	0.010065175309495624
161	0x3f81fefea85980f5	0.008787145149824907
162	0x3f94809ac988b457	0.02002183775964669
163	0x3f8c4d950c1af323	0.013819851333545302
164	0x3f6d29bd5640a627	0.0035599420534893236
165	0xbf99c3823372216a	-0.02515986861229306
166	0x3f64d734c641c6b2	0.0025440245390705102
167	0xbf5027079fa919da	-0.000985867924684683
168	0xbf986ee36f458c2a	-0.02386050573967339
169	0x3f8c812a2aba5303	0.013918237141561379
170	0xbf91c3a8eff151e9	-0.017347945828378206
171	0x3f892eb11e8d41ab	0.01229608892904895
172	0x3f83c5077e68c14e	0.009653147263720154
173	0x3f860fad92769cb8	0.010772090942579346
174	0xbf72a5a1afe58f5c	-0.004552489843579224
175	0x3f7a08400d479188	0.006355524256353447
176	0x3f5ad06099af6ff7	0.0016365950930241604
177	0x3f82640ed4aa469a	0.00897990786077978
178	0x3f690d48e6767adb	0.003058092482845038
179	0xbf88a07030dfc754	-0.012024761668701402
180	0x3f78bc743a26084a	0.00603909875133197
181	0x3f75fba0ed5acc51	0.005366924878830907
182	0xbf9501ab231b015c	-0.0205141773392382
183	0x3f6a5528bf2a54c5	0.0032144351801642623
184	0xbf9d3b819eed9434	-0.028547311139295498
185	0x3f80da3d64764d0c	0.008228759411201846
186	0x3f7ca2305364de2e	0.006990612766734778
187	0xbf82d1fba1917080	-0.009189573162238895
188	0xbf98028b03b67c84	-0.02344720087205278
189	0xbf91303fd7427f5d	-0.016785619271672093
190	0x3f763d29a2644206	0.005429422983312287
191	0x3f99edf108852f6b	0.025321737427744944
192	0xbf7c5a1224623aa2	-0.006921835773154557
193	0x3f8179e7feeac235	0.008533298937750103
194	0x3fa0e2415e6147f8	0.03297619130229629
195	0x3f87e9a75ea1e403	0.0116761279825699
196	0xbf682e99b17c5568	-0.0029519082853634478
197	0xbf82fa44192ae434	-0.009266407030155667
198	0x3f61cc4f5d88536f	0.0021726179222789003
199	0x3f947a792f9fa833	0.019998448878972574
200	0x3f673827593990c3	0.002834393360716532
201	0x3f8109e2b50d42e1	0.008319636488211159
202	0x3f84f3b79104eb5a	0.010230478394637355
203	0x3f7874fba85e003b	0.00597093871863313
204	0x3f85807930640aab	0.010498949803609511
205	0xbf96b36944adb766	-0.022168774430091708
206	0x3f6f9b5599ffb9f2	0.003858248892348864
207	0x3f4de1b975c081e9	0.0009119182173016857
208	0x3f802b778a4a4e4f	0.007895406635078176
209	0xbf8e8443949f1b56	-0.014900711033886498
210	0xbf9aa9f97b03f94c	-0.026039026387473727
211	0x3f7a7df7f3b34f80	0.006467789232562526
212	0xbf951fc731424dd3	-0.02062903631356312
213	0x3f6e87c608e84a7d	0.003726851259906737
214	0x3f50c5aa29fbd444	0.0010236894376565312
215	0xbf988ed2e37fd89a	-0.023982329497777323
216	0x3f6686d14084be11	0.0027498328164694626
217	0xbf65f628d984f4b8	-0.002680854591885575
218	0x3f7fdb60658ce3d8	0.007777573155913729
219	0xbf6e33bc3927660b	-0.0036867786632057745
220	0x3f6d0d704d984e33	0.0035464471263908725
221	0xbf599e1c480e9414	-0.0015635753809217822
222	0xbf7d13dfa42fb7b1	-0.007099031065974802
223	0xbf885827107e43fc	-0.0118868877323468
224	0x3f68e26a785332ad	0.0030376510136192665
225	0xbf8078a433f0a494	-0.008042605242808677
226	0xbf8c4314d5289010	-0.013799822573737713
227	0x3f7c185e9af26752	0.0068591781156558
228	0xbf51ffd14309c7fb	-0.001098589284222572
229	0xbf895458f4ee3967	-0.01236791131466637
230	0x3f6a3c67934d474c	0.0032026312787047147
231	0x3f86851298636eaa	0.010996003413701178
232	0x3f81976c9775e9f5	0.008589599964342812
233	0x3f7589fc716ed8f2	0.005258546930170237
234	0xbf33481bed9d7ad7	-0.0002942150291484319
235	0x3f87ff58e25024a1	0.011717504889036614
236	0xbf80847daaf2c029	-0.008065206317354594
237	0x3f8b23118e935322	0.013250481761511394
238	0x3f63453481c848fe	0.0023523355032547535
239	0x3f8d1d26b8c4206b	0.014215757859816066
240	0x3f6460f7879b51b8	0.0024876436772080755
241	0x3f6eb495526178e7	0.003748218197002651
242	0xbf7a0c8d94838cba	-0.006359627768890147
243	0xbf77f46f0930fc1a	-0.005848344549177953
244	0x3f769c2060f09b12	0.005519987563309641
245	0xbf76709b1285ab05	-0.005478482962966384
246	0xbf7975014658873b	-0.006215100268976144
247	0xbf75f9e1bebc512c	-0.00536525899567079
248	0x3f800d1895037e1b	0.00783747868302869
249	0xbf8cb87222cac4fd	-0.014023677527208006
250	0x3f52a770a9d3f5d8	0.0011385536411688737
251	0x3f954560035a7ef4	0.020772457318002105
252	0xbf90d948dfa842c1	-0.016453875208813033
253	0x3f858261232fa65c	0.010502585302634752
254	0x3f750649d4c56d2a	0.0051329502133186464
255	0xbf621a0b92bcebf5	-0.0022096849478692123
