hw4/besttheta_of_simga_210.0C_0.03learn5000000.npy (npy, 25736 bytes, 1 tensors)

array f8 [3201]
00000000: 17c8 5721 2bbb dfbf 0c73 65e1 3576 c13f
00000010: c86d 9404 42cf a93f ef10 951f ff3c a0bf
00000020: 902b 02ab d154 b1bf bc12 bef2 e955 b0bf
00000030: 2d9e 20db 44a4 92bf aa41 c35d 8a31 ba3f
00000040: b0b7 bb82 60b4 b3bf 9a0c 8c04 37af aebf
00000050: aa45 5fee e976 b0bf 35a6 ef94 cce7 bd3f
00000060: e7e3 0337 279d aabf 975d e4a4 b9ad b8bf
00000070: b52d 7568 9055 a8bf 8c5e c856 b004 a83f
00000080: ff2f ea7a 4684 aebf c510 bf9c 96ce b1bf
00000090: 7b07 f477 1518 b3bf 66fb 1e2f 97d3 bd3f
000000a0: eeb3 bca1 a3e7 c13f b383 9255 fbd8 9fbf
000000b0: be15 9d8a e14a b03f 3591 8b38 fb23 aabf
000000c0: 51af 557d e6f2 bb3f 2f54 e145 68bb bc3f
000000d0: b146 5fd6 1e4b c33f 9d80 c932 d5bf bd3f
000000e0: b729 5c6c 4207 b0bf 4891 1153 3ebf b3bf
000000f0: 2988 b4b7 f005 b2bf da16 06f4 d4d4 afbf
00000100: 422f 2072 6462 b03f 8806 35c6 6359 aabf
00000110: 4030 eba5 cb45 abbf b9f4 1eec 376d b2bf
00000120: 5f3c 9813 cee7 b0bf 1826 bbb0 b4ce b1bf
00000130: f124 64c6 2323 b2bf ca05 bd62 1a0e bf3f
00000140: a33c 2f72 cc86 b2bf 44ca 0452 96ac c33f
00000150: ae81 c472 8240 c03f 7b0a 547b 6cd2 b0bf
00000160: c7dc 5109 f43b b73f 6fbf 248c 26ab acbf
00000170: fa64 c456 cc5f c13f 15df ac79 61eb c03f
00000180: b0cd 15c1 da9c b23f 0513 0497 50af b4bf
00000190: 6275 f159 0058 b13f abb0 c580 6b7d a9bf
000001a0: 1707 0191 837e b6bf 876f cd26 2061 bf3f
000001b0: abc4 c953 2563 b0bf 62c3 0a22 52ac a93f
000001c0: 545b 5fe0 8984 bd3f 18c3 f415 e4ee bd3f
000001d0: 06ef 37e5 9990 acbf aed7 1871 8e2e b0bf
000001e0: 1840 a825 610b b2bf 84d0 a611 4f8c acbf
000001f0: 2561 ea60 1ebc be3f 0453 0f1c 8cbd c03f
00000200: 7042 8636 2cbb b0bf 8975 21bb fb41 aabf
00000210: 4b27 be9c 56f2 a8bf 9197 9823 fdff b83f
00000220: b0e3 58c6 ef84 c43f 70d8 dc6b 1ce5 a3bf
00000230: 217d fb9f 53c1 b3bf b226 85a8 705d c03f
00000240: 1c2e 9672 bb88 c23f e770 0d3e d558 b0bf
00000250: 34a1 d24e 25e7 c13f e928 eaa7 300e 9fbf
00000260: 3899 61cf 13ee c03f 8dab e43c 166a b1bf
00000270: 0584 2878 2355 a3bf 55a0 f940 6700 95bf
00000280: 5710 7ac1 a859 a8bf d7ef e62f a08a c73f
00000290: 1499 4e13 cae8 c23f 1307 395a 6628 b4bf
000002a0: 573d 694c 434a b03f 4852 301d 46d5 8f3f
000002b0: f38a 68ec fb25 9dbf c8ee 1158 0672 b63f
000002c0: d03a cbf2 8d67 aabf f030 3655 3fe8 b1bf
000002d0: aa75 f63a 596c bd3f c328 e6d3 f769 9ebf
000002e0: 38b4 51b3 e35e afbf 1f34 ec17 f85f aabf
000002f0: df11 b516 e49c b33f 986e 1be8 c909 bbbf
00000300: 2ebf b64a 062a a8bf dd3c 2fb5 2751 b1bf
00000310: 05e5 ff26 adb0 a2bf 9e93 6c5f e51c b7bf
00000320: df98 d0bf 45f4 a53f 9065 e561 833d be3f
00000330: 5105 ea2b 62d4 a0bf d5d1 71a6 96c0 a5bf
00000340: 8ecb 08bd bd99 ae3f 79f4 c045 5ae5 9bbf
00000350: b005 85c7 0398 b0bf fc5e 6f6f 1a7e b0bf
00000360: a45c 1e21 9948 b73f bf04 6be0 d609 babf
00000370: b038 9cc7 5019 b2bf 18d1 4e21 4951 b0bf
00000380: 160a 24c3 fce3 9e3f 8298 da49 4ded bf3f
00000390: b5e0 84aa 4332 b6bf 45bc d648 278d a8bf
000003a0: ae4b 33d7 35e3 bd3f ee69 8d87 73a9 ba3f
000003b0: 3881 e6cd 7ecd a9bf 1c79 a794 0e03 acbf
000003c0: af77 10ed 52b5 a2bf 4625 6cf1 dea9 c33f
000003d0: 15a7 1c3e 5bd8 a5bf dd35 5ae0 516d b1bf
000003e0: 0752 1247 b94b a7bf 49d9 373e 67cd ba3f
000003f0: 4f18 c043 4b55 b2bf e3b4 f7f3 c869 a3bf
00000400: 95de a0f5 933a bd3f 8d9f e2b7 1f75 b2bf
00000410: 04e5 d247 f24f b1bf 51f1 72a5 be8a a1bf
00000420: 868b 26a9 853c b2bf 623c f35e 7396 be3f
00000430: d045 b8d4 c2e4 b0bf 43d0 3255 b139 b1bf
00000440: e396 2739 4d0a a0bf e4a2 2f0f 1ea5 a9bf
00000450: bea8 2202 450c b43f 9cb5 6336 fcbf acbf
00000460: 0dfb 9e14 0a46 b63f 3de6 5e84 e597 bf3f
00000470: 4181 0e01 7a16 a4bf cdc9 3228 fad4 b93f
00000480: 3249 6b9b 5c99 acbf c833 2d81 319d a4bf
00000490: f10a 41e2 848a c33f 67f3 973a 8207 bf3f
000004a0: 3d59 e388 6c42 c13f bd55 be9c 12c6 adbf
000004b0: 6ef1 2021 9f29 99bf 8c4d 96ce 43b8 b53f
000004c0: d8f2 fd6c c350 bb3f 1922 192c b3c6 c73f
000004d0: 15df ac79 61eb c03f 8c4f a3de 5054 b1bf
000004e0: 66fb 1e2f 97d3 bd3f 18e0 3df5 a8fd b1bf
000004f0: e17a 1bb3 7d43 c23f c9fd a642 e6b0 8f3f
00000500: cc4f 9f33 e88f b3bf 7901 e56a 3912 b0bf
00000510: 7efe 4774 7461 88bf a8e4 7c0f 3541 abbf
00000520: 92de 8614 8181 a8bf 8e59 e16d 9e90 b03f
00000530: b411 050d 3273 b3bf 790f 57a0 4ddc 9ebf
00000540: 71fe c9d4 f96a b23f 2940 e4a8 5470 b3bf
00000550: bd09 6afd 2717 b83f f2e4 068f d893 babf
00000560: 8f67 3f56 a7be b3bf a74d 92f7 d1c2 a8bf
00000570: 66b8 8ff9 cda4 a23f e0ca 690d e479 a4bf
00000580: d67e 80cb 95b1 b33f ef7a afeb 5f7c aabf
00000590: 1f26 57d5 7cc4 a1bf 4b86 ac58 3f3c c63f
000005a0: 07eb 1042 ce18 acbf bde6 2f60 c2ff acbf
000005b0: f617 b268 3c3d c33f 5184 1df9 cb6f a9bf
000005c0: 2b8d 058b d519 b53f 83d4 aa94 852c a9bf
000005d0: daa0 0f04 abdb adbf f834 2163 846f b83f
000005e0: 71e2 db0b ef37 a43f 99b3 2475 d090 c43f
000005f0: fd98 ff9c 2a16 b2bf c322 3512 1c0a b7bf
00000600: 6e68 7fbb 55c3 9dbf c27d cec4 1e3b b3bf
00000610: 5710 7ac1 a859 a8bf 6366 0dc2 d7af acbf
00000620: 67e3 28c2 75c7 acbf a56e 593a 5a4d c13f
00000630: 45c2 6e1f 5084 9ebf 1fdd 3881 22ac b2bf
00000640: 3524 5673 463b abbf 8072 eeed c82e a1bf
00000650: 8c68 1661 fbe8 adbf 6889 12f6 1b7e abbf
00000660: 9770 d986 27d6 b1bf 7eaa 401a 73dc b13f
00000670: c687 914c 352c aabf f756 7cad 23f7 a3bf
00000680: b684 c46b ad64 b1bf c38d 9620 126a c33f
00000690: 7f14 8f3e a7fc c03f 21c5 154a 2c2e acbf
000006a0: eb9b 603f 2f52 8a3f d82a 93c4 5be9 a9bf
000006b0: 976a 1f68 c2ca a0bf b36a e107 3d05 bb3f
000006c0: 3009 156d 1ce2 a5bf 6e3a 7e3f 02a9 abbf
000006d0: b849 f717 49a1 b4bf cef2 ed0c 4112 bd3f
000006e0: 785a 7ca0 6fb6 b0bf 5d23 9091 5895 a8bf
000006f0: 2784 6c1b 3ec0 c03f a808 ddc1 427e be3f
00000700: cf77 ac9e 1536 a7bf 13ba bf3a 980a b03f
00000710: 6cc7 375a b4c6 bf3f b87a fd1c 09a8 b3bf
00000720: 69f2 84cc 7619 a6bf 5cd6 bdc0 1be3 b93f
00000730: 3abd 4b6c a6bf adbf e834 1efd 348b afbf
00000740: 39a2 50df a441 b3bf 68a5 843b faea afbf
00000750: 95c9 355f ed14 9ebf 2fcc d51d de28 b1bf
00000760: 1542 0d96 040d 9d3f 6447 778c 2395 afbf
00000770: a642 2f20 5752 a3bf a677 13c8 c0a0 b3bf
00000780: 225a 554b 3a8d a6bf 53f2 64cd eba1 9fbf
00000790: b1a5 031c fcc9 c43f 15df ac79 61eb c03f
000007a0: 3e09 b4e7 40de abbf a0d2 7200 1786 be3f
000007b0: 300b 5f8b c452 9cbf b9ce ef44 d4a0 903f
000007c0: e3fd a828 cd5b a8bf 4a5c 56fd 49d7 c23f
000007d0: d4a8 23a6 73bd a0bf 39bf 3588 3144 b5bf
000007e0: ced2 df6b e94b c13f 2d70 eb60 1632 b3bf
000007f0: a2a0 2e13 d7f1 a3bf 6d4f 8a79 8a0a a1bf
-0.49579885727064393 0.13641999726942122 0.050409377154405244 -0.031715366940746274 -0.06770048546802188 -0.06381094147043148 -0.018204761385417868 0.10231842793587612
-0.07697108451586021 -0.059930533700048375 -0.06431448049195035 0.11681822429786666 -0.05198023363659115 -0.0964008357590188 -0.04752780223006018 0.04691077288970033
-0.05960293054985754 -0.06955853773894478 -0.07458624056383016 0.11650986576476682 0.13988156697578752 -0.031101157281799362 0.0636425937091962 -0.051055765774238905
0.1091751152031837 0.11223460870799394 0.1507299944628833 0.1162083863250722 -0.0626107706595239 -0.07713689353983455 -0.07040314183225917 -0.062170653141078794
0.06400134836456764 -0.051463239617544565 -0.05326687240958039 -0.07197904123946132 -0.06603706339250114 -0.0695603305313387 -0.0708486899713028 0.1213089457569573
-0.07236936366756423 0.15370444302387132 0.1269686756504717 -0.0657108117193647 0.09075856425794192 -0.0559932752679505 0.13573602902105347 0.13218325081992846
0.0727059098624554 -0.08080009161865227 0.06774904437903254 -0.04978500315596198 -0.08786794939171859 0.12257576892210241 -0.06401284499749475 0.050142828612826276
0.11530362823337487 0.11692643676793713 -0.05579071925236971 -0.06321039448888996 -0.07048613709798734 -0.05575797167276256 0.12005796304800194 0.13078452463255286
-0.0653560288540207 -0.05128466281233119 -0.04872389472354984 0.09765607947391987 0.1603069036953264 -0.03885735336955143 -0.07716868072337892 0.1278515646793515
0.1447977361207088 -0.0638554836745616 0.13986650799530198 -0.030327568291377203 0.1322655451396686 -0.06802500712062294 -0.037758930604702846 -0.020509351101651713
-0.0475590454271077 0.18391802157373036 0.14772916739202258 -0.07874145224289135 0.06363316169266874 0.015543506398935439 -0.02846521025106603 0.08767738008640003
-0.05157130802910148 -0.06995006399501214 0.11493451776046607 -0.029701111133854107 -0.06127082408861678 -0.05151343624138626 0.07661271623971498 -0.10561811367682095
-0.04719562208208426 -0.06764457868051772 -0.036504183779422696 -0.09028466777506458 0.04287927595605522 0.11812611713448562 -0.03287035738049816 -0.042484958475060765
0.059766702008707914 -0.027242098338537055 -0.06481956120571541 -0.06442418308813197 0.09095151003417584 -0.1017126367469414 -0.07069878457352519 -0.06374032080822578
0.030166577730606013 0.12471468976090885 -0.08670447266638599 -0.04795191539903291 0.11674820426860208 0.10414812144646365 -0.0503959299414895 -0.05471082272173275
-0.03653964179851187 0.15362154758649121 -0.04266629346086696 -0.06807433822014937 -0.045499601293304485 0.10469670552251843 -0.07161398319303312 -0.03791645029182591
0.1141750788382246 -0.07209966887842097 -0.06762613538275636 -0.034261663147364126 -0.07123599414494039 0.11948319500082641 -0.06599061673502793 -0.06728657083550708
-0.03132859537781287 -0.050087870935220186 0.0783122186864231 -0.05615223087248042 0.0870062160820277 0.1234115074320465 -0.039233982686030185 0.10090602380186127
-0.05585755727010379 -0.040261790293335376 0.1526647667652337 0.12120832376963407 0.13483959850300123 -0.05815179980633498 -0.024572836300863647 0.08484290879851225
0.10670110140740563 0.18575133946639324 0.13218325081992846 -0.06769280848976517 0.11650986576476682 -0.07027679431291778 0.1426846622989251 0.015474127682749821
-0.07641459713278137 -0.06277808055620494 -0.011904630468961171 -0.05323186697064247 -0.04786303878375721 0.06470670874236914 -0.075976494005835 -0.030137265120870425
0.07194482274098292 -0.075932780488302 0.09410333573217762 -0.10381844989651137 -0.07712789397865392 -0.04836136004555707 0.03641360923198604 -0.03999245322929368
0.07692848413762063 -0.05173015357990162 -0.03470220665219536 0.17371360616475537 -0.054876752438266556 -0.05663878845366586 0.1503062735757223 -0.0496810666652513
0.08242544788440813 -0.04916779937540474 -0.05831655907224027 0.09545161647948308 0.03948924083482986 0.16066938133135691 -0.07065073330850065 -0.08999801105995701
-0.029065455979300152 -0.07512085251663961 -0.0475590454271077 -0.05602907413294813 -0.056209258986604387 0.13517310952271547 -0.029801608961579146 -0.07293906836354268
-0.05318660886684549 -0.033560065311779574 -0.05841813621664568 -0.05369651202024067 -0.06967398683758784 0.06977004424030928 -0.051118531796205555 -0.03899489872689615
-0.06794246560140746 0.1516745242234788 0.1327103667701159 -0.05503977207525624 0.012852067109703177 -0.050608508821445575 -0.03279693146733569 0.10554868166347368
-0.04274071532792545 -0.05402380967199326 -0.080586021758143 0.11355978551541598 -0.0652837530909468 -0.04801441933529447 0.13086677874619676 0.11911408646577348
-0.04533450662550786 0.06266166147518275 0.1241257400759232 -0.07678276975409914 -0.04316302534650591 0.10112164931873607 -0.05810279914828205 -0.06160894002742073
-0.0752203984453751 -0.06233961082973388 -0.029376706062473074 -0.06702984074017658 0.028369971903261588 -0.061684714218826625 -0.037737581900392045 -0.07667164692563108
-0.044046231933567506 -0.03089111748816926 0.16241408698924212 0.13218325081992846 -0.054430034908380595 0.11923354874563552 -0.027659483915850547 0.016238514621319953
-0.04757538911189465 0.14719509954440674 -0.032695402174640315 -0.08307179999769411 0.13512914435673057 -0.07498302332118163 -0.03895446881443944 -0.033283545814952166
