hw4/besttheta_of_simga_4444400C_3learn10000.npy (npy, 15328 bytes, 1 tensors)

array f8 [1900]
000000 fa 68 4d 92 05 d4 b6 bf 86 00 26 69 ce 4b 99 3f
       -0.0891726953681519 0.024703240554572868
000010 3d 1b 04 f6 88 df a6 3f d7 95 10 d7 68 b6 8b bf
       0.04467418673635002 -0.013531512320763035
000020 f5 2b 0f 54 bc 75 a2 bf 36 53 46 1a f4 e3 a0 bf
       -0.036054501782551464 -0.03298914738403484
000030 0e d3 d6 87 4d eb 7f 3f e5 08 7a a4 1d ad b3 3f
       0.007792761663428361 0.0768602873377265
000040 a1 0c 0c fd ef 22 91 bf 0e 4b 17 ff d1 f0 9a 3f
       -0.01673483831383449 0.026309281534689304
000050 15 f7 d1 cf 37 13 89 3f 0f c8 2c 86 49 d8 b1 3f
       0.012243686704319448 0.06970653081660337
000060 8d 17 f8 56 0b 89 a2 bf 09 8f 4a 6a 79 33 a1 3f
       -0.03620181500086437 0.03359584257603216
000070 ee 2e 64 bd 95 5b 79 bf 74 e5 20 21 09 a4 89 bf
       -0.00619085781205418 -0.012519904445172904
000080 6d ed 7d 46 e3 23 8a bf f7 b2 7d 44 48 14 93 3f
       -0.012763763035528364 0.01863205831562006
000090 d4 d1 09 21 a5 07 9d bf 35 92 27 ca 30 dd 81 3f
       -0.028349475995541898 0.008722668809192683
0000a0 fa 8c 32 59 65 52 a4 3f 2b 95 29 eb f3 06 b6 3f
       0.03969113077007509 0.08604359141607591
0000b0 8b ed 04 d3 ad f0 96 bf ee d4 81 74 1c 0e b2 bf
       -0.022402492527573464 -0.07052781910336467
0000c0 3a 59 f9 ed fa b4 a0 bf 0a db 91 4d b9 d6 80 3f
       -0.032630769300043785 0.008222053222409115
0000d0 09 8e a5 45 30 0c b3 bf 7d a9 e6 4e b7 a6 a8 3f
       -0.07440473270758487 0.04814694250247251
0000e0 ef 5c 92 c7 33 7a 80 3f c4 e3 e9 c6 98 bf 96 bf
       0.008045582321115378 -0.022215258732533064
0000f0 58 1d 99 5d 0c e4 aa bf 43 6b 44 4d 99 43 ab 3f
       -0.05252112047724705 0.0532501131840122
000100 6f 85 c6 da 69 41 b0 3f 74 9f 0d 86 0d f5 a2 3f
       0.06349813071439823 0.037025854696195376
000110 77 71 ce 0f 2b 3c aa 3f ff 71 55 64 77 0b 8c 3f
       0.05124029701184701 0.013693745374149023
000120 14 28 c1 86 3a 6a 91 3f e0 ef 38 c8 2f 56 8b bf
       0.01700679252125077 -0.01334798173694901
000130 8e d0 d6 45 2a a0 9a 3f 78 38 15 15 d0 6e 93 bf
       0.026001606476441945 -0.01897740486793295
000140 b4 b4 8c 8d 01 bb a0 3f a5 3f 8e 16 29 ec 65 bf
       0.03267674305821214 -0.002676086664401072
000150 3a 7f 6f 1c 52 f7 aa bf 0e ef 5e b2 37 57 82 bf
       -0.05266815754998651 -0.008955416804262064
000160 54 91 f8 59 d9 ac 30 3f 26 e5 e1 fc b5 59 77 3f
       0.00025444322997915836 0.005700789346627466
000170 69 53 b1 eb e9 c2 a0 bf 86 c0 94 76 5d 8f 86 3f
       -0.03273707391841791 0.011015634709650845
000180 d8 31 ee 9f fb 70 42 3f 1b 4c 8f 69 70 9b 94 3f
       0.0005627850185745921 0.020124203150612013
000190 b3 50 b9 6c 83 f9 9b 3f a4 f6 66 8f 6b 23 86 3f
       0.027319005499820203 0.010809746087825652
0001a0 ef d6 fa 72 84 18 89 3f 3b 28 48 55 97 43 a5 3f
       0.012253794440180125 0.04153130451238992
0001b0 a8 5d 19 54 83 15 a0 3f 2d 81 58 8c ea 2b 7b bf
       0.03141413117981112 -0.0066336786308343445
0001c0 c2 76 30 ca 64 50 90 bf 49 44 50 97 f3 5e 80 3f
       -0.015931677666336304 0.007993605666373098
0001d0 ab b3 eb 4c 0b 04 82 bf e4 e3 1e b6 d7 d4 59 bf
       -0.008796776089605126 -0.0015766245419241926
0001e0 23 f8 57 44 d6 74 a0 bf 73 07 ae 3b 37 e3 ae 3f
       -0.03214139541886165 0.06032726863396833
0001f0 a6 25 01 4d c2 38 54 3f 5a f0 e1 d4 c9 4e 7c bf
       0.0012342355221498318 -0.006911075977878845
000200 85 67 c1 b8 24 0e c0 3f 0b 52 85 21 c0 40 a8 3f
       0.1254316236616512 0.04736900719823119
000210 1b 92 fa 48 ef f8 93 bf 2f a6 46 27 8a 1f a5 bf
       -0.019504298047325102 -0.04125625352328332
000220 63 2d 79 74 7d 29 83 bf cb 46 12 f6 41 7f 9e 3f
       -0.009356479756340524 0.029782324451452163
000230 ed b6 ff 68 da 4c 9c 3f 9a 56 c5 a2 cb 4e ae bf
       0.027636921557067252 -0.0591949115939034
000240 6b bf c9 60 78 5a a9 bf af af c7 87 ea 60 a2 bf
       -0.04951835805411416 -0.03589566142531397
000250 f1 8a 6b 40 b2 9f 6c bf e7 4b 0a 99 9c 76 a4 3f
       -0.003494117877708696 0.03996743553320652
000260 c7 04 e2 ea 6f 50 8c bf 60 1a 7f a4 c4 ea a7 bf
       -0.013825296741062932 -0.04671301372541303
000270 78 2b 0f 36 0f 28 7a bf 18 3e bc e4 06 3e 74 3f
       -0.0063858598886764525 0.004941965987896001
000280 39 52 02 9a 31 9e b2 bf 72 8d 50 df 74 3d b5 bf
       -0.07272634515749922 -0.08296900226610207
000290 e5 d0 9c 69 3f 93 79 3f fa 16 95 35 0f c3 a2 3f
       0.006243941979665578 0.03664443520623979
0002a0 69 fd 87 18 85 a8 84 bf 1e f7 65 35 a9 24 92 bf
       -0.010087051211484082 -0.017717975505994514
0002b0 62 88 ea f3 80 c9 b7 bf 07 e9 7e 47 68 4e 84 bf
       -0.09291845278724645 -0.009915175134541444
0002c0 f2 7b cb 05 54 dc a3 bf 4a 7b 22 88 9a d9 a2 3f
       -0.03879034586656606 0.03681643401909314
0002d0 9d 99 83 be 4b 1b a5 bf 68 f9 6b 18 8f e2 55 bf
       -0.04122387600527875 -0.0013357541481010208
0002e0 cd c3 60 45 7e ce 99 3f c5 a3 fb 45 b2 6d 94 bf
       0.025201771721359557 -0.019949708482190482
0002f0 73 4e ee a9 62 36 61 bf cf 68 bf 14 f0 63 a3 bf
       -0.0021011282946775066 -0.037871840031316155
000300 13 03 88 d5 0d 02 a9 bf 88 6e cd 8d 86 53 99 bf
       -0.04884379607756819 -0.024732687382636814
000310 87 5d 4b bc cd dc b7 bf 00 a0 96 17 fb 54 5e bf
       -0.09321294638663434 -0.0018513156959247823
000320 65 73 46 6a 25 17 98 bf f9 73 46 7f 71 52 a6 3f
       -0.023525795566104252 0.043597742830776505
000330 bc fd 0d 08 ce f6 99 bf 41 86 a4 fe e2 b5 ab 3f
       -0.02535554813539219 0.05412206037932466
000340 52 08 3e 3e 9d 2e 9e bf 73 12 94 96 71 02 a3 3f
       -0.02947469417950572 0.037128018981125964
000350 d4 78 3e 42 70 91 92 bf 30 f6 48 37 a1 3f 96 bf
       -0.01813292888947944 -0.021727103232697498
000360 f9 ac 89 74 cc 0b 91 3f 67 f2 82 c7 3f 77 58 3f
       0.01664657079019791 0.0014932749600539365
000370 46 a9 95 33 13 94 6d bf 9e cd 8c 64 5e 82 92 bf
       -0.003610646727499364 -0.018075442206464502
000380 a7 0c 46 bd c6 da 9f bf 03 3a 45 f1 c0 29 8d 3f
       -0.03110800295099794 0.014239795077313216
000390 0f 12 57 f6 e6 41 95 bf eb 41 b6 2e 34 14 94 bf
       -0.020759209428222344 -0.019608321524687538
0003a0 19 65 51 15 2a f5 b6 bf 38 c6 cd 74 19 1e a5 bf
       -0.08967841167886483 -0.04124526549174984
0003b0 49 9e 1c 92 dd 1d 85 3f 03 6c 6e 01 8e 99 9d bf
       0.010310870191076254 -0.02890607722984485
0003c0 1b 87 8b f2 11 9e ab 3f 73 a6 6e a3 ce e2 91 3f
       0.05394035421137585 0.017466763234244852
0003d0 6b 65 b6 09 9f 2d 8a bf a6 36 4f 09 22 b9 a8 3f
       -0.01278232811346199 0.048287452351002444
0003e0 72 7c 1b 10 f1 d3 b1 bf 52 61 02 c9 2e 37 76 3f
       -0.06964022296186714 0.00542372012582633
0003f0 93 c9 64 0d fd a7 a0 bf 9c bf 9d 3d 25 9d 9a bf
       -0.032531650433514823 -0.025990087400202463
000400 e5 b3 c1 0c da 85 9d bf e0 4a db 32 1a 75 97 3f
       -0.028830916432003213 0.022907647470513548
000410 7b 1d 6d 15 58 ac 90 3f 67 a9 d2 95 c8 42 9f 3f
       0.016282440479043352 0.030528196472610427
000420 d5 40 f9 3e 8c b4 98 bf 42 2e 9b 2a 0b 3b b4 bf
       -0.024126235335928243 -0.07902593412580308
000430 eb 48 e2 56 3a d4 b0 bf 2c 6d 0d 3e 8a bc c1 bf
       -0.06573834057988719 -0.1385662844648804
000440 47 c6 ff ba da a9 83 3f 60 f4 42 9f d1 72 9b bf
       0.009601315337906103 -0.02680518660121256
000450 75 30 78 dd 8c df 8c 3f a7 80 f5 65 a6 b1 8c 3f
       0.014098263272011228 0.014010715471784186
000460 c8 a8 08 de 2f bb 93 3f fb b0 13 78 63 68 87 3f
       0.019268749167317606 0.011429574109989895
000470 7c ff c9 8c 4f a9 a8 bf 22 b5 ec 49 c3 d1 87 3f
       -0.04816673844925298 0.011630559628964369
000480 90 ef 90 f1 fe d5 5b 3f 67 d3 15 7a 6f 26 af 3f
       0.0016989698108451391 0.06084011426256702
000490 06 a5 52 bc 08 8e 89 3f f6 ac d4 b5 07 41 87 3f
       0.012477939841419882 0.011354503857168723
0004a0 a9 a6 d8 bd bd f6 7c 3f f7 1a 86 f0 a9 79 93 bf
       0.007071248224329509 -0.019018798165713027
0004b0 91 5a 90 aa 07 97 ab bf 32 49 7a 49 6a 89 9f bf
       -0.05388664204672467 -0.03079763482544102
0004c0 51 f4 de 66 26 dc 84 3f ab ab b3 4e fe 9e b3 3f
       0.010185527815219116 0.07664479657584759
0004d0 02 b5 df cb c9 ed 7b bf 0e 54 c2 04 f0 0c 9a bf
       -0.006818569438093338 -0.025439977922889816
0004e0 39 a6 f5 4f 74 59 ce 3f 95 77 36 bb b3 8d 89 bf
       0.23710492996478807 -0.012477306509761902
0004f0 fc 46 54 31 29 47 54 3f a0 3a 65 5a eb 2f 9e 3f
       0.001237669207800384 0.029479672806071222
000500 ef 07 99 1e e7 ea a2 3f 32 15 ad 43 d6 c7 9c 3f
       0.03694841621883415 0.02810606754362261
000510 ee c6 38 4e 64 9c 7a 3f 43 fa 9a 26 bd e5 7d bf
       0.006496803110666012 -0.007299174185105675
000520 5a 1c ee 79 ff 05 a5 bf d5 1d 5b c3 c5 30 7e 3f
       -0.041061385759399285 0.007370731842179142
000530 9e b2 25 6e 9e 96 90 bf ce 63 25 b3 c8 57 62 3f
       -0.01619956538472655 0.002239124290252615
000540 6a e7 d2 da 15 b4 52 bf 4a 82 1a 0f 65 d8 9e bf
       -0.0011415685105888537 -0.030122355505797928
000550 41 5d e0 d8 8c 2d 94 3f 14 07 e0 7a ec 27 6e 3f
       0.01970501016338955 0.003681146502459218
000560 d4 43 a1 0c c9 db 93 bf 50 5c b6 90 86 3e 88 3f
       -0.019393102069731175 0.011838008204717948
000570 f8 46 f2 46 f8 61 c5 3f f1 bd 48 11 e3 d9 a0 3f
       0.1670523020189234 0.03291234575260294
000580 e2 3c 4b 76 c9 76 b2 3f 5e c0 dc e3 3c d2 8a bf
       0.0721250451854192 -0.013096309379392487
000590 17 95 61 10 e5 36 7d bf 35 ba 62 58 63 3f aa bf
       -0.007132429867941845 -0.05126486257482946
0005a0 9b e3 10 f0 9d 37 9c 3f 1d 96 1b aa db 74 9e 3f
       0.02755591180559556 0.029742653138688725
0005b0 c7 2f 9d 34 c5 b9 b4 3f 35 11 a0 44 8f 7b 98 bf
       0.08095963034173713 -0.02390884262423861
0005c0 4e 42 b1 f8 7c 8a 7b bf e4 2b ab 97 99 56 7f bf
       -0.006723869485612056 -0.007650947542695772
0005d0 76 ad 1a 06 dd 87 a5 bf 94 ec 1f 61 e7 a6 6c bf
       -0.04205218028558992 -0.003497554695966418
0005e0 b0 9f 5f e0 15 4d af 3f 9c 6e 5e 0c ce b6 a5 bf
       0.06113499034819314 -0.04241031552302596
0005f0 e6 f7 8c 3c e4 70 a0 bf 67 84 7c 4d eb 7a 95 bf
       -0.03211129416602869 -0.020976711849588627
000600 8f f9 ac 11 4d 89 92 3f e5 73 55 59 80 40 a3 3f
       0.01810188694366271 0.03760148134708866
000610 5f a6 9d da 9f 58 b0 bf 0d 32 c7 29 32 d3 a8 3f
       -0.06385230147648134 0.04848629722582496
000620 53 18 53 91 11 a9 7b bf 43 1b 62 51 b6 e3 9d 3f
       -0.006753033279158843 0.029188965527761523
000630 6b 23 4c 0a 88 bb b1 bf fe 39 20 cb d3 20 6c 3f
       -0.06926775218393082 0.0034336220351243165
000640 02 ed 2a 87 6e 17 6d 3f 29 cb f2 b8 77 f5 8c 3f
       0.00355121219157939 0.014140067416837336
000650 5b 56 7a 1c 6d 26 97 bf bc 82 a9 c2 81 6a 4b 3f
       -0.022607521880294672 0.0008366712184618356
000660 14 6f ec c1 85 d7 39 bf 6d 3e 4f 02 0c 99 95 3f
       -0.00039431586803727434 0.02109164013000824
000670 0a 64 59 0c 24 0a ae bf 34 34 cc 0d 02 7d b4 3f
       -0.05867111826655254 0.0800324710546228
000680 50 35 93 64 67 99 9b bf 58 82 56 38 0a 27 8e bf
       -0.026952376855480964 -0.014722900242135115
000690 0a e1 80 a7 e8 1d a8 3f 8b 94 ff de 1e 22 a2 bf
       0.04710318608016635 -0.035416569444160016
0006a0 00 15 75 f7 f0 ea 95 bf d0 ab 10 02 39 8e af bf
       -0.02140404234275639 -0.0616319479962254
0006b0 c7 eb 39 a4 6b 58 9b bf 17 98 c7 8e 7f 29 89 3f
       -0.026704484842848843 0.012286182923116269
0006c0 92 74 5f a3 64 a0 b2 bf 1b 97 98 7c e1 0a b0 bf
       -0.07275990475268859 -0.0626660279454793
0006d0 0e 0b cd 92 27 20 7f 3f c4 e9 b0 ab 5b 7d 90 3f
       0.007599024375681619 0.016103203157607174
0006e0 3c 9e 31 f1 94 a2 91 bf 49 fb dc db 65 62 9d 3f
       -0.01722176286821607 0.028695670647034963
0006f0 73 06 13 19 a8 01 89 bf 3f fd 36 66 96 1a 9b bf
       -0.012210191025931771 -0.026468610752769847
000700 49 cf c5 81 29 f7 b0 3f 62 65 cd fe 21 7b c4 bf
       0.0662713949039332 -0.16000771466751035
000710 75 84 df 03 5f 27 89 3f a9 19 5e 8b 0a ba a2 3f
       0.012282125764558874 0.036575631630557943
000720 57 70 dc 9e 7e 55 84 bf b7 04 92 3b 5a 2e a2 3f
       -0.00992869303041048 0.03550989129235787
000730 db df 13 bb 25 11 9d 3f 40 e3 5e db 7c 56 96 bf
       0.02838572458583131 -0.02181429947788449
000740 91 65 dd 50 b6 e5 8e 3f 1c c2 5f a5 ba e9 78 bf
       0.015086578696059035 -0.006082276426227409
000750 88 11 26 6a ad e2 b1 3f 8a 60 95 33 8d a5 a0 3f
       0.06986507264634245 0.03251305823022317
000760 64 89 b7 e4 f3 60 a0 bf 89 cb 01 53 b4 2f 55 3f
       -0.031989690465496406 0.0012931118945089545
000770 72 1b ec 1b c6 7b 9d 3f ea 5d 1a b5 c4 17 a3 bf
       0.028792472318879665 -0.037290713412570245
000780 b4 80 f8 3a 53 f9 9b 3f 2b 25 ae ff 38 e1 93 bf
       0.02731828734806703 -0.019413843732342045
000790 b7 bc b6 7d 03 5d 87 3f 1c 57 58 27 04 96 6d 3f
       0.011407878183346971 0.003611572373084194
0007a0 48 81 5d bc 4a 2e 88 3f 0e 37 3a fe 31 15 79 3f
       0.011807044862223962 0.006123729024364767
0007b0 42 55 17 d4 fd 7d aa 3f 1a 52 6c d1 1e 8b 96 3f
       0.0517424889946292 0.0220150771447881
0007c0 5b 39 22 7c 63 30 94 3f c4 7a 7f 2b a2 36 82 3f
       0.01971583790923979 0.008893267586186034
0007d0 7e 81 b6 cd f1 e6 90 3f c1 8d 9a c2 75 92 99 bf
       0.016505983525008976 -0.024972763064068596
0007e0 b3 8c 2d 75 28 be 9e 3f df bb 6d b6 a0 64 98 bf
       0.030022270347569612 -0.023821364531098396
0007f0 59 42 99 78 d8 42 8a 3f 76 af c9 16 ac 01 8d 3f
       0.012822810345057766 0.014163345761708728
