hw4/besttheta_of_simga_4444400C_1learn10000.npy (npy, 15328 bytes, 1 tensors)

array f8 [1900]
000000 4d 32 1b ec 81 b6 c1 bf ec 25 28 92 72 90 97 3f
       -0.13838218716263598 0.02301196114607322
000010 e3 60 ef 73 ec 3d a1 3f c9 6c 00 5a 8e 05 7b bf
       0.03367556491110848 -0.0065970955475009386
000020 32 f7 40 08 ea c3 7d 3f d8 04 e6 6c 68 a7 a6 bf
       0.007266916454737248 -0.04424597100570232
000030 c1 3e 06 20 dd db 9b 3f 13 d5 56 53 4c f9 a9 3f
       0.027205901221860843 0.050730118916741195
000040 aa 76 80 9f 41 32 73 bf 32 ca da ac 1b 82 93 3f
       -0.00468660005574654 0.019051010537348208
000050 13 b8 52 73 2d 03 a3 3f 0b 98 27 c2 82 ca a9 3f
       0.03713361771347947 0.050373159599800564
000060 9b f3 e2 30 d8 45 95 bf 77 d8 0b ed 98 bb 92 3f
       -0.020774248107716536 0.018293752163082346
000070 dc e0 f2 b6 3b cd 74 3f 1a fa 59 7e 29 87 65 bf
       0.005078538189245498 -0.0026279268666364987
000080 59 c8 ee 0a 80 a7 78 bf bd 63 95 f3 b3 80 a0 3f
       -0.006019115607090419 0.03223192547256513
000090 4d a7 49 a5 ec cc 89 bf 76 62 92 5b 0f 2c 89 3f
       -0.012597893518620085 0.01229106901364328
0000a0 c4 c7 d7 ce e3 64 59 3f 20 cb fa e4 6d 1f b0 3f
       0.0015499329268746512 0.06297957268070009
0000b0 28 ff 30 d2 2c f3 97 bf 8f 88 f0 bc 78 3e b1 bf
       -0.023388576821388757 -0.06735949147017294
0000c0 bd fc 16 14 24 2f 75 bf 1f 18 f4 20 38 73 a6 3f
       -0.005171910220666817 0.04384780313743896
0000d0 b5 c4 89 06 9a 1a aa bf ef ea 03 8a 24 a3 9f 3f
       -0.050984204576601945 0.030895777629647844
0000e0 f3 ab d3 2d 47 ac 7f 3f c7 fb 5b d1 3f 2c 87 bf
       0.007732656519901393 -0.011314867569579235
0000f0 7d c4 8e 6a ed fd 93 bf d6 3a f6 65 47 3a 80 3f
       -0.019523343685879702 0.007923658179405473
000100 44 06 e8 5e 6f 1c a1 3f fe fb 58 74 c8 13 a0 3f
       0.0334200671532128 0.031400932505214016
000110 14 49 ec 9b 19 7f a3 3f e9 f8 23 63 46 71 3e 3f
       0.03807907131535351 0.0004645153850474497
000120 5d 19 51 28 a9 45 94 3f 24 9d 14 12 da 7e 77 3f
       0.019796984754316117 0.005736209715258487
000130 12 4e 7d 07 e8 73 9c 3f ba ab 92 6e e1 03 76 bf
       0.027785897690888524 -0.005374794572314318
000140 9f 4a 88 22 d5 9c a9 3f 63 d0 18 3b 04 c4 8f bf
       0.050024662461642715 -0.015510590604300661
000150 4b 2a 71 cb d7 eb a0 bf b8 12 04 d3 0f 29 60 bf
       -0.03304933889792901 -0.0019727047985063882
000160 4e cb 6e 29 fc dc 73 bf 6f 84 dd e9 af 06 7b bf
       -0.0048494196006910305 -0.006598174249888718
000170 ae 6a 53 3c 5e c9 91 bf de f5 23 72 f2 8c 77 3f
       -0.017369720870969267 0.005749651960511552
000180 74 3a 34 19 72 53 70 3f 68 b8 69 d5 3e 2e 7c 3f
       0.003985830018122461 0.006880040592120641
000190 03 a0 71 f9 c3 b7 73 3f e9 d5 e9 ea 62 8b 0d bf
       0.004813924336396272 -5.635161993648356e-05
0001a0 73 2b 30 35 52 a7 81 3f 70 a5 cf 95 12 f6 6a 3f
       0.008619920967267913 0.0032911646835500005
0001b0 b8 b5 37 16 aa ba a0 3f e4 4f 09 47 e8 97 99 bf
       0.03267413636408939 -0.024993542991367593
0001c0 d1 76 5b df 29 fb 75 bf 9f 97 d0 b9 b3 28 8c 3f
       -0.005366481365596435 0.01374950800716218
0001d0 c4 ec 02 10 71 61 a1 bf 4c 23 3c f6 48 c3 59 bf
       -0.033946545795936284 -0.0015724384801975742
0001e0 a1 2a b4 e0 68 bb 88 bf 79 30 a3 88 42 9e a0 3f
       -0.012076205594458602 0.03245742719590878
0001f0 6e 01 41 18 7f ee 62 bf 0f bc 01 25 70 a7 38 bf
       -0.0023109896010568487 -0.000376191023867046
000200 ca 20 74 39 48 be b0 3f fb 88 35 3a eb ec 99 3f
       0.06540347483326339 0.025317836215784855
000210 66 9f 99 14 21 45 78 bf 05 58 a4 00 f5 65 93 bf
       -0.005925301762182622 -0.018943622745688077
000220 a8 a0 6a 0c cf a0 8b bf 8b 33 dc f4 47 0a 88 3f
       -0.01349031216280168 0.011738359603919132
000230 d3 16 6c e9 7f 72 99 3f dd aa 64 83 9d 87 b1 bf
       0.02485084402271449 -0.06847557504503805
000240 91 cd 4e 4b 36 16 9f bf 2f 3d 69 1e 48 53 9f bf
       -0.030358169886040513 -0.030591132026811237
000250 43 b5 24 62 b0 4d 8e bf 22 55 af 3a b5 4c 9e 3f
       -0.014796617503260228 0.029589492518273926
000260 91 cd 26 e3 a4 d6 6d bf 75 8e 94 23 ef d8 aa bf
       -0.0036423893409051685 -0.052436326115892586
000270 e6 a1 5d f3 a5 3f 86 bf b5 9b 59 8b c0 69 70 3f
       -0.010863586892541254 0.004007103086769816
000280 07 c1 55 3e 98 c9 a7 bf 3f ce 13 dc 8f f3 a7 bf
       -0.04645992051053054 -0.04678010522357256
000290 1b 3e a4 ab 2c fc 66 bf 98 98 2d 21 c3 77 a1 3f
       -0.002805793044110561 0.03411683826452466
0002a0 21 c3 0f de d5 2f 84 bf 45 1c d9 4f c0 84 8b bf
       -0.009856863822251651 -0.013436796604891063
0002b0 da eb ee 13 31 1f 91 bf 57 be a3 94 55 18 81 bf
       -0.016720549432402844 -0.008347195242520629
0002c0 eb af ce 89 c6 36 9e bf 1f 20 67 f5 d6 0d a2 3f
       -0.0295058271037049 0.0352618383945471
0002d0 2f 1b f9 6d 2f 3d 93 bf 1e 95 e3 6f 7b db 55 3f
       -0.018788090789054464 0.0013340669097997092
0002e0 60 33 0d fb 5d b6 a3 3f be 22 7d 42 c8 71 9b bf
       0.03850072564691831 -0.02680123239341258
0002f0 50 8f 3c e2 52 89 89 bf e2 6c c6 42 b5 54 a2 bf
       -0.012468955544654797 -0.035802521134621804
000300 8c 0b cc c1 f8 b8 a6 bf 89 ff a0 67 d0 5e 77 bf
       -0.04437997213064823 -0.005705656129123223
000310 e9 c2 97 7c 18 80 a7 bf 02 2e ec c6 92 f9 88 bf
       -0.04589916726025029 -0.012194773383746419
000320 23 b0 42 28 73 24 87 bf 90 f7 ca fc 39 0d a5 3f
       -0.011299991289284666 0.04111653529024217
000330 20 4e c6 1d d1 e3 94 bf 74 24 32 5b d9 0b 97 3f
       -0.020400302355097932 0.022506138030199144
000340 4f 8d 14 ea 5c 55 90 bf 12 ca e2 11 4d f7 8c 3f
       -0.015950633799673593 0.014143564327558731
000350 71 4f 90 e9 ed 7a 92 bf bc 51 f8 81 1f 22 8b bf
       -0.018047063236806552 -0.013248678354138892
000360 ba a2 61 28 9e e8 82 3f 28 ec 38 85 ab 28 77 bf
       0.00923274574979992 -0.005654020310937681
000370 08 3e 82 9d 5f 52 92 bf 4f ff e7 18 10 df 81 bf
       -0.0178923549543111 -0.008726239929273709
000380 4f c7 9a 20 2f 38 8e bf 2d 2a 99 eb e6 cc 56 3f
       -0.014755600149644414 0.001391625888930502
000390 61 8c e4 a6 ef cd a5 bf c9 0f 89 59 69 d9 92 bf
       -0.04258679306283209 -0.018407484140212014
0003a0 95 cc 6f ab 2a 44 a4 bf ed 5c 8c 39 e9 a7 a0 bf
       -0.03958257048352568 -0.032531059527338126
0003b0 af 43 65 98 a7 d8 76 3f 10 f1 17 0b ea 16 8e bf
       0.005577711743470922 -0.01469214292864554
0003c0 f6 56 db af 69 15 ac 3f bf 2e c3 9a 5e 4b 84 3f
       0.05485086700143242 0.009909381006216631
0003d0 48 a8 1d 89 ad 23 77 bf f3 13 18 53 95 66 a1 3f
       -0.005649259446594064 0.03398577346164435
0003e0 d8 a3 ae a1 62 8a ae bf 8b ab ab 1d eb c2 68 3f
       -0.05964954589519039 0.0030226318461834037
0003f0 2a 3b c0 65 5c 75 74 3f c5 9f 64 24 44 dd 97 bf
       0.004994736602397501 -0.02330500099301937
000400 99 f1 ea f3 bf a6 a1 bf 0e bd a8 83 3d d0 91 3f
       -0.0344753251315268 0.017395936165653096
000410 f8 35 19 13 d3 37 82 3f 93 86 32 fb 07 57 97 3f
       0.008895539303149555 0.02279293509184883
000420 70 94 7d 36 9d 69 99 bf 49 a7 9f 3b 6e 78 a5 bf
       -0.024816948366965297 -0.04193443754031862
000430 52 08 3c a7 0c 3c a8 bf 1d a2 81 7f c9 2a b1 bf
       -0.04733314076840202 -0.06705912936161736
000440 fb 4a 4f d2 0b 31 8a 3f 7e 84 08 09 e8 22 87 bf
       0.012788860660213333 -0.011297047401116918
000450 cd 41 7c ba a4 55 83 3f c5 5a 39 6a 1c e3 a3 3f
       0.009440695706445812 0.03884209438972656
000460 de 25 75 af 83 0b 74 bf a6 05 99 24 f9 ea 66 3f
       -0.0048937934837538204 0.0027975908349453125
000470 e8 a2 2c 74 be 87 7b bf 77 0a 40 75 3b f5 8c 3f
       -0.006721252403431001 0.01413961841172305
000480 b9 35 90 0e 21 c5 88 bf 86 fc 7c 51 b3 e3 a3 3f
       -0.01209474397367215 0.03884659166077946
000490 56 29 18 79 42 eb 83 bf 51 f6 4e 2f c9 8d 3f 3f
       -0.00972606594134066 0.0004814735578369855
0004a0 c4 76 c1 71 98 67 8c 3f 87 bb b6 4b fe fb 78 bf
       0.013869467708157564 -0.006099694578934562
0004b0 43 6c 1a 42 19 0c 84 bf a0 b7 27 eb 0a 2c 93 bf
       -0.009788701371965419 -0.018722696879130418
0004c0 7a a1 6a eb fd 69 5b 3f bd 68 3d 44 ff bf a6 3f
       0.0016732196506073758 0.04443357189184514
0004d0 c3 a3 01 ab 02 f4 89 bf b6 d0 e0 46 a3 52 92 bf
       -0.012672444194508864 -0.017893363190709187
0004e0 35 45 ac 36 e8 1e c5 3f 47 c1 0b 9d f9 b3 81 bf
       0.16500570935799322 -0.00864405642047984
0004f0 36 dc 3a a9 0d d2 81 bf 86 41 c9 59 d3 9e 9a 3f
       -0.008701426245677362 0.02599649653922278
000500 fb 5e 03 d2 98 bc 9e 3f 2d ef a9 c6 19 88 99 3f
       0.030016315286814237 0.02493324542091029
000510 f3 4d 90 80 e9 54 a6 3f 5f b3 9b 23 f3 50 86 bf
       0.04361657804852461 -0.010896586918045235
000520 ad 4c 1f eb fb 9d 98 bf 77 c3 7b b3 be 9e 65 bf
       -0.02404016134807978 -0.002639172041988432
000530 6d 6c ff f4 1f c5 7a bf 6e ae 7c b2 2a 34 7a 3f
       -0.0065356491395177465 0.006397406373973886
000540 5c 48 80 1c 99 08 a2 bf f0 5c 26 6c d1 99 9b bf
       -0.035221848229540526 -0.026953956819480263
000550 0e 0f 81 2d 29 bf 66 bf 47 3c 42 84 db 2e 5f bf
       -0.00277669947175408 -0.0019032615391869777
000560 17 1e 68 81 8a 5d 51 bf bb 64 c1 99 ef f3 97 3f
       -0.0010598995774006076 0.02339147926281691
000570 30 64 54 3a 6d 4b c0 3f be 06 95 b3 d9 a9 a1 3f
       0.12730183933379768 0.03449898068585132
000580 a5 c1 56 30 ee 82 b5 3f 17 7d 62 13 c2 c2 90 bf
       0.08402908973835695 -0.016367943223142136
000590 b2 4b 92 5a 11 85 90 bf 5e a5 16 15 c6 df a6 bf
       -0.01613261332802169 -0.044676008295321465
0005a0 c9 27 7b bf f5 2e 95 3f 36 69 0e b0 9d 10 87 bf
       0.020686950504376776 -0.011262161193191216
0005b0 f2 5e a1 85 1e e8 9a 3f 78 c0 4a 14 f5 1a 88 bf
       0.026276089578771207 -0.01177016704727428
0005c0 e2 e4 04 f1 38 b2 80 bf 93 ca 01 ab a8 e7 86 bf
       -0.008152432303733585 -0.011184041708678627
0005d0 0b e5 34 bc 15 b7 ab bf 8e 6d db 35 1a 0a 79 3f
       -0.05413120195812312 0.006113150009436364
0005e0 09 9d 9e bf 70 e4 a4 3f f3 a5 f8 73 71 7c 97 bf
       0.04080536212068792 -0.022935650542569474
0005f0 f2 92 e1 ef 4a 89 94 bf 3d a7 1c 32 ea 4e 55 3f
       -0.02005498017423952 0.0013005530422085098
000600 81 2b 02 07 1f b7 58 3f c1 66 15 9a 0d 7d a3 3f
       0.0015085032464720873 0.03806345468428907
000610 a2 1f eb e3 3b 30 a6 bf e4 ce 5f bc 30 6b a3 3f
       -0.04333674580772075 0.03792717265596737
000620 76 c9 a8 f1 1c 94 78 bf 6c 04 8e c6 ee 54 93 3f
       -0.00600062662356248 0.018878680104084486
000630 ba e2 87 37 10 da a8 bf 18 f4 30 21 b1 14 89 bf
       -0.04853869130960704 -0.012246497941413678
000640 ec 74 df 7a 9e e6 6b 3f 21 b2 4c e6 2d d8 86 3f
       0.0034058661758381483 0.011154516783414671
000650 10 60 3d 89 c6 24 96 bf 43 0d dc f6 90 d9 6a 3f
       -0.021624662519883542 0.003277571805371389
000660 a9 54 db 53 f3 3c 8a 3f 53 6f f4 8a 71 f5 84 3f
       0.012811566349606745 0.010233771374764144
000670 9e 3a 89 b1 8b da 87 bf fb dc 8a 6e c5 f2 a8 3f
       -0.011647311549635216 0.04872719740290595
000680 cd 43 94 31 db 25 56 3f a5 c0 d3 c4 f6 47 80 bf
       0.0013517990649385303 -0.007949760324180774
000690 e7 b2 2d fc 01 62 a1 3f 8d 55 d0 fc 67 4b a0 bf
       0.03395086482382741 -0.0318253036604502
0006a0 2c 62 9d 21 d7 24 83 bf ba 8a ac f8 aa 98 a6 bf
       -0.009347611153928424 -0.044133513313018694
0006b0 bb 13 a3 e4 e6 fb 8c bf 0e 88 c5 b1 7f 5e 72 3f
       -0.01415233979458629 0.004484652334527451
0006c0 09 b8 58 be 99 46 99 bf 0c b7 ef c5 dc 2d a5 bf
       -0.024683382265884322 -0.041365527307659716
0006d0 d6 17 a8 ac 08 55 8d 3f f6 bc de f4 86 c9 6f 3f
       0.01432234551340265 0.0038802753324130813
0006e0 dd 76 ed 44 8c 84 94 bf b2 f4 d6 8a 35 86 8e 3f
       -0.020036880213743714 0.014904421138334765
0006f0 91 52 67 53 29 6e 60 3f a2 7a 9e a9 5b bf 91 bf
       0.002005654062694547 -0.01733153555653167
000700 0f c4 30 0a 83 67 b2 3f 50 6b 31 64 a5 11 c7 bf
       0.0718919658545618 -0.1802260150169226
000710 42 a9 38 79 60 76 70 3f de 80 c8 b9 85 5f af 3f
       0.004019142961207147 0.061275652817359236
000720 91 18 37 c7 16 25 85 bf f5 e5 e0 72 26 40 a0 3f
       -0.010324647860113141 0.03173942711186931
000730 80 67 3a f6 51 c1 5a 3f 17 9a 88 4b 0c 7d 7a bf
       0.001633005181167907 -0.006466911342192925
000740 ad c3 38 ec 5b 08 63 bf 22 e8 de 63 73 a6 7c bf
       -0.002323321854213542 -0.006994677298218151
000750 86 4b 4e 32 94 ce 79 3f c9 be 8d ff dc dc 73 3f
       0.0063005246091901775 0.004849303507270705
000760 3d 91 30 94 90 4b 9d bf 00 8b 65 dc 2e c7 78 3f
       -0.028608569187910538 0.006049330759511973
000770 cc fd 38 bc 8f ab 72 3f 59 0d 6e 57 64 05 95 bf
       0.004558145013617797 -0.02052838119153697
000780 5f 89 00 a1 39 a5 8e 3f ee 71 38 8c e7 5e 94 bf
       0.014963579393285796 -0.019893281873111172
000790 29 e7 65 6a 7c 40 74 bf 81 76 59 6f 27 cf 63 3f
       -0.004944311140542537 0.0024181146825828508
0007a0 e6 d1 97 2c 8c 9e 83 3f c6 05 cd bf 87 ec 53 3f
       0.00957974921309641 0.0012160611797330397
0007b0 29 fe 82 ae fc 7f a9 3f ad 2a fa 22 d3 fb 57 3f
       0.04980458860654508 0.0014638482934140982
0007c0 02 49 4c ca 39 f0 53 bf 65 8c 24 f9 8a b9 2f bf
       -0.0012169422490769248 -0.00024204083872189915
0007d0 c9 6c 2f 11 4a 84 85 3f b3 38 7e b4 9f 41 aa bf
       0.010506228112652132 -0.05128192022594771
0007e0 d4 b2 f2 3a 5e 56 a0 3f c7 46 17 1d 68 6d 8b bf
       0.03190893621044713 -0.013392270458015955
0007f0 99 94 60 83 e1 99 72 bf fe 31 cb 2c fc 9d 75 3f
       -0.004541283522518169 0.005277619417665578
