hw4/besttheta_of_simga_190.0C_0.03learn5000000.npy (npy, 25736 bytes, 1 tensors)

array f8 [3201]
-0.676722985600017 0.13498072626192845 0.04349932454210834 -0.02754056081287974 -0.06375206997290764 -0.05303925117812494 -0.008349571880856865 0.10470733630876965
-0.07144780297034327 -0.06020649121850555 -0.07517343128563586 0.12337146130663247 -0.046082228212343014 -0.09079308276366316 -0.04238950540235498 0.04992430850425685
-0.054362471662269735 -0.07302089613018053 -0.06845858046790224 0.13588040628550577 0.11140363153899846 -0.027370801758062575 0.06630479194360277 -0.06765045203459373
0.12119679199488088 0.1082374346660475 0.14740619811732725 0.12371832232981086 -0.06068021744576215 -0.07042426043533889 -0.06826896193822325 -0.06625931258033176
0.06607101986869789 -0.05290716783398912 -0.04686435062217064 -0.06946218063792348 -0.06321365314464389 -0.06207321532940855 -0.06364192746911715 0.12060801360622125
-0.06961977383371659 0.15959446515411804 0.12754163050591574 -0.06376053926981276 0.08131729210610825 -0.05259038253600286 0.13316800221657119 0.09390291095025721
0.06387634829048958 -0.0783369666139362 0.06075599941080365 -0.052998613266720146 -0.07979621082311067 0.12486979345222644 -0.06218646126678039 0.05001953705599532
0.10883105824180508 0.11206046323984745 -0.052949665109588116 -0.05698891449243125 -0.06728826634636682 -0.052349902999426316 0.11360148873385262 0.12616149264508114
-0.05698593425303071 -0.04641280247783642 -0.0524898628731135 0.09356310116959972 0.1469358067820834 -0.04928104761748838 -0.0714103314545734 0.12304207540028926
0.13493145672658352 -0.05802739920464045 0.13365396172658495 -0.026296145738187154 0.14066611141363147 -0.074043975284235 -0.03540041122620608 -0.013641332372894558
-0.053535410122292855 0.18489888740901358 0.1668940928934679 -0.069097733752926 0.0639632932483147 0.01813713778475009 -0.031190412497737297 0.08349152974913014
-0.0570672704473772 -0.06620043153681329 0.1256744673110621 -0.045320710183414624 -0.057452309272307385 -0.04952330439488344 0.07538389917822867 -0.10323583286052952
-0.05416263487249687 -0.06262235492354634 -0.03228165197347086 -0.08778127624951504 0.04486628484142279 0.1152540712619427 -0.040807742394559324 -0.05042629221600863
0.051662558182515035 -0.03176107196663049 -0.06496074759288323 -0.05783592935559197 0.0931098105142289 -0.09616957236960068 -0.06150163528815543 -0.058243310378879976
0.04043397896921612 0.11665710894976512 -0.07865498886956922 -0.04802737631670756 0.12282817367573103 0.10744689817002433 -0.049302988254782465 -0.05097294025717756
-0.03725341493040956 0.15765452817560333 -0.04797555600866893 -0.06531238851296502 -0.041470504805087925 0.10356346504018767 -0.0609314426205945 -0.034530288354740535
0.11484858157701143 -0.06906384776830031 -0.05960538965681357 -0.02720693995075243 -0.06358267488296339 0.12379085440052981 -0.06205037088620324 -0.06208787482315972
-0.04256614823382653 -0.04534176852008602 0.07034100452161829 -0.051109185004301866 0.0859162864340236 0.12335472304112666 -0.03782865527769741 0.11154831952001225
-0.04975500962981844 -0.041460429725455494 0.14423595883325724 0.1290474423286257 0.13432082342987645 -0.06110930947449724 -0.041615123211831626 0.08567742844066957
0.1138567138488801 0.18166610511706693 0.09390291095025721 -0.07355512308134059 0.13588040628550577 -0.06130536880680858 0.1484424402240402 0.019672790384015745
-0.06992397645824339 -0.05858721527088499 -0.017789544094074516 -0.0608985966097367 -0.052161387607076726 0.05786622544064548 -0.0737965392816419 -0.02750720910824156
0.07225774461476799 -0.06495344130802475 0.09235494733039712 -0.09862690568352142 -0.07539770793159402 -0.04235250126061136 0.027759759184591143 -0.03398622732119848
0.07739674691048695 -0.04653257683055031 -0.04666666800639667 0.1755063136650862 -0.045520061834643966 -0.05275100786305876 0.14954524244153636 -0.04832799921229537
0.07208425798991103 -0.05913864914959063 -0.05906772639478633 0.10472906212910024 0.042032975096824195 0.12081944881987577 -0.0671349222683845 -0.08985263998246769
-0.027458810153627694 -0.06931401486588504 -0.053535410122292855 -0.0469626612386566 -0.049475997535381365 0.11656528370578297 -0.019266492804548663 -0.06313030298200571
-0.04839642929290374 -0.044161485475529595 -0.04972048014163873 -0.058341897488621584 -0.06424719111217722 0.06739245493679835 -0.04798838196843716 -0.04114769112177609
-0.06394766069824677 0.1451173785919101 0.13020494281364056 -0.05625352548996682 0.015579897367602557 -0.061210173858785105 -0.03398867674827463 0.10455940726707127
-0.040067361251682476 -0.0465101670621519 -0.07701609527293246 0.11287035436527638 -0.06385826132745813 -0.046831693578562705 0.12198807682127775 0.11493322559211035
-0.04334525167130674 0.062037589035738125 0.12926854613182237 -0.06868201504028826 -0.04261088847087168 0.10341022029012367 -0.052814157791383445 -0.06371202306112432
-0.07297220008003669 -0.058901693209021395 -0.027317047801960613 -0.07425011001056897 0.025974265110320437 -0.05735210171145724 -0.029824398476158868 -0.06883328196484181
-0.051319747578633744 -0.03831305201063987 0.15994068875332831 0.09390291095025721 -0.05020559627969577 0.09034907061359888 -0.024324556591931203 0.007923292978491522
-0.052211814235814134 0.12329963404049823 -0.023599164279209005 -0.07736430644847254 0.14377277480400494 -0.07488144242065939 -0.04119569330124819 -0.030449687556584035
00000000: 4c50 73f6 b6a7 e5bf df51 7166 0c47 c13f
00000010: 6de6 9c20 8b45 a63f ecee 04c0 9733 9cbf
00000020: 4a00 963f 0e52 b0bf b4c2 6df2 f527 abbf
00000030: 13a1 4f91 9419 81bf c3f1 1899 19ce ba3f
00000040: e9f0 2039 674a b2bf 54ae 949d 62d3 aebf
00000050: 7460 e6e4 903e b3bf f95b 92a7 4595 bf3f
00000060: c598 32fe 1698 a7bf c046 2c29 373e b7bf
00000070: 3020 cbc6 13b4 a5bf 9b36 9ad0 ad8f a93f
00000080: 249e d6db 65d5 abbf ccc1 cd58 7fb1 b2bf
00000090: 5a7f 3d64 8086 b1bf 9beb 9476 8764 c13f
000000a0: 189a 1dca f284 bc3f 952a aa69 1707 9cbf
000000b0: 7b42 f7d0 59f9 b03f 9f56 0c3f 8a51 b1bf
000000c0: 5185 ffc1 c006 bf3f dff6 17d2 72b5 bb3f
000000d0: 8420 12d0 34de c23f f290 5204 01ac bf3f
000000e0: e32e e33a 7a11 afbf 302e 6a07 5307 b2bf
000000f0: 0d46 db1e 137a b1bf f584 96cc 5ef6 b0bf
00000100: 07a7 8cc5 07ea b03f b655 24f7 a516 abbf
00000110: ff7e 8aaa 9afe a7bf e412 2602 46c8 b1bf
00000120: 20bc ea1c c52e b0bf 9d41 987b 0fc8 afbf
00000130: 025f 225d d64a b0bf 9c01 13b2 2ae0 be3f
00000140: 844e c5fb 99d2 b1bf 7dd2 3a68 976d c43f
00000150: dd61 f3bd 4853 c03f 6a6d f056 9c52 b0bf
00000160: 6eec 31c6 35d1 b43f ca0b 276a 20ed aabf
00000170: fb68 322b a60b c13f 74d2 876b 050a b83f
00000180: 4e43 e54a 335a b03f 21b9 ac35 e40d b4bf
00000190: 2da9 020d 691b af3f 3c86 6d5d a222 abbf
000001a0: ac79 d443 866d b4bf ddb5 227f 77f7 bf3f
000001b0: 3e22 ca62 e7d6 afbf 2814 a227 299c a93f
000001c0: 2208 f02b 5adc bb3f 622d ca98 feaf bc3f
000001d0: b3ac f5ef 371c abbf 4e85 f5a7 a62d adbf
000001e0: 05b8 5cc7 cd39 b1bf 3fa1 a942 9bcd aabf
000001f0: 0489 e3b6 fc14 bd3f e86b 764e 0f26 c03f
00000200: 96c5 e5a7 422d adbf 911a 8439 6bc3 a7bf
00000210: 4db6 d288 f3df aabf d5c1 a25b c0f3 b73f
00000220: 30c6 5ee2 cace c23f 8bd2 a88f 5d3b a9bf
00000230: 46a4 318e f247 b2bf 334f e079 af7f bf3f
00000240: fed0 eb18 6f45 c13f 3834 b66b c4b5 adbf
00000250: b45a 4cb1 921b c13f fb50 d377 60ed 9abf
00000260: 3ba9 16de 5801 c23f 6fc6 4fc4 8bf4 b2bf
00000270: 0188 f6b0 0020 a2bf 82d6 52a3 fcef 8bbf
00000280: 996f 4e47 fe68 abbf 2787 3e49 c4aa c73f
00000290: 78bf 6f1f c95c c53f f44f b29a 63b0 b1bf
000002a0: 3e5e a5fc e55f b03f f6a1 83b6 8a92 923f
000002b0: 7091 8126 61f0 9fbf 73f9 c36d b35f b53f
000002c0: 69a8 7cd8 eb37 adbf e683 6ef0 82f2 b0bf
000002d0: a788 85d7 1916 c03f 0b76 23b0 4634 a7bf
000002e0: 41f8 ce9a 636a adbf 1721 8859 1e5b a9bf
000002f0: 5b8e 9df5 5b4c b33f b94a e9dd a96d babf
00000300: a497 e272 34bb abbf a427 65c6 0408 b0bf
00000310: 6d4c f97e 3887 a0bf e85b b16e d578 b6bf
00000320: 4782 2cb4 b6f8 a63f 9c07 cd72 4a81 bd3f
00000330: 1236 049e c0e4 a4bf 8743 da97 79d1 a9bf
00000340: a9a8 a4cb 8373 aa3f 93e1 c3ba fc42 a0bf
00000350: 9c65 6f7e 44a1 b0bf ca68 3bc2 ab9c adbf
00000360: 2c6a 1867 0bd6 b73f 199f 32b0 919e b8bf
00000370: 9e21 6d70 247d afbf 807d 9332 11d2 adbf
00000380: 86ce a332 c3b3 a43f 99ff c883 3ddd bd3f
00000390: e7ae dcbc bb22 b4bf 5896 2f55 0b97 a8bf
000003a0: cdf4 f6cc aa71 bf3f d367 b2d1 a381 bb3f
000003b0: 4879 4cc4 3d3e a9bf 6d65 c50e 2019 aabf
000003c0: dfb2 942d e112 a3bf b44e 4a09 062e c43f
000003d0: b819 2188 4090 a8bf 25d4 af0c 50b8 b0bf
000003e0: 8bde c53b 9f3b a5bf a975 689f 2283 ba3f
000003f0: 0505 b5f2 6732 afbf a8fd 6836 f4ad a1bf
00000400: 2b81 dd75 b766 bd3f 9f32 8017 2bae b1bf
00000410: 5a92 7bfe 9884 aebf 0739 40d5 22dc 9bbf
00000420: 55eb 3645 f446 b0bf 56b5 31e7 c1b0 bf3f
00000430: 4063 52f3 10c5 afbf 04ee af5f fbc9 afbf
00000440: 4f75 29ed 3acb a5bf 5686 df49 0937 a7bf
00000450: a8f6 fc39 de01 b23f f4c4 3cac fb2a aabf
00000460: d88a 6d18 9cfe b53f 8cce 44d5 2c94 bf3f
00000470: a0ea 890a 475e a3bf 4320 4340 6e8e bc3f
00000480: 392f 5816 7d79 a9bf c074 7f2b 4d3a a5bf
00000490: 1c4b 0ceb 5276 c23f d289 3768 a084 c03f
000004a0: 4ecc e6bb 6c31 c13f c324 592b b849 afbf
000004b0: c67a 6dd2 934e a5bf 5d76 28b9 f4ee b53f
000004c0: 5a35 69ae b625 bd3f 007f 22be d540 c73f
000004d0: 74d2 876b 050a b83f c76d 1630 82d4 b2bf
000004e0: 9beb 9476 8764 c13f 3e5d 30d4 6a63 afbf
000004f0: 55e3 0c71 2900 c33f cc19 489d 1a25 943f
00000500: 842c 18a8 89e6 b1bf 16b5 1abb 24ff adbf
00000510: 4013 6118 6c37 92bf 8b4a 9fd1 192e afbf
00000520: d8d2 c5bb e5b4 aabf 83fe 9e53 a4a0 ad3f
00000530: 2acb c57a 54e4 b2bf c0b5 188e d92a 9cbf
00000540: 59ce 00ca 7b7f b23f 3a3d 2eea c9a0 b0bf
00000550: 6469 68e6 92a4 b73f 4299 6ae6 9c3f b9bf
00000560: 4572 c2a1 434d b3bf 39e1 a21f 3aaf a5bf
00000570: d8e0 5ee7 0d6d 9c3f ceca b78d a466 a1bf
00000580: da1d ccf0 45d0 b33f eb23 5f2f 1ed3 a7bf
00000590: d630 cd89 b1e4 a7bf 9d6e b7aa fd76 c63f
000005a0: 108c c8d1 674e a7bf 31ac 341b 2e02 abbf
000005b0: 6d86 c76a 4c24 c33f e222 3290 72be a8bf
000005c0: 2083 9f2a 1d74 b23f 5ce1 0dc8 6b47 aebf
000005d0: c4b7 3a02 203e aebf 5605 c918 86cf ba3f
000005e0: 59f4 c99a 5885 a53f d4f0 66fd 05ee be3f
000005f0: 3aed 8f17 c12f b1bf 0d18 2f26 9500 b7bf
00000600: b83a 638e 291e 9cbf 0ee1 0033 90be b1bf
00000610: 996f 4e47 fe68 abbf 966a 4e6c 7d0b a8bf
00000620: e3ef b3fe ea54 a9bf 4584 5df1 38d7 bd3f
00000630: 6d41 0472 98ba 93bf b7bc b1ba 4e29 b0bf
00000640: fbc5 1cb2 6ac7 a8bf 5569 b88f 559c a6bf
00000650: cbac 4c78 f674 a9bf 7b82 663b fdde adbf
00000660: 26c9 af00 8172 b0bf 4061 f3c5 a140 b13f
00000670: d4e7 48e6 ee91 a8bf 620e 5967 4f11 a5bf
00000680: f1cb 5ab7 df5e b0bf ac16 91cd 3493 c23f
00000690: e3c0 9439 8eaa c03f 6939 8718 43cd acbf
000006a0: b9e2 596d 5ae8 8f3f 7cd9 cf9d f056 afbf
000006b0: 3ce5 22be f666 a1bf e282 b3c2 67c4 ba3f
000006c0: 880d 6d8c b583 a4bf da47 ed3c 2ed0 a7bf
000006d0: 547e 76aa 53b7 b3bf a9d1 af50 12e5 bc3f
000006e0: 4319 fbd7 0359 b0bf 0825 ace0 52fa a7bf
000006f0: df06 7350 9c3a bf3f d553 248d 436c bd3f
00000700: 2df5 ba4c 5931 a6bf 46f7 0f10 64c3 af3f
00000710: 88d1 0429 df8b c03f 10e2 6b00 2595 b1bf
00000720: ef2d df28 18d1 a5bf 5ede 379a 1779 ba3f
00000730: 22a5 f510 750a abbf bfd6 685f 6e4f b0bf
00000740: a865 dc5c 4eae b2bf 0107 06dc 5c28 aebf
00000750: f612 bb0b 00f9 9bbf 8c44 3822 0e02 b3bf
00000760: 66ef be6c ff98 9a3f 3447 6a32 415d adbf
00000770: 91d8 4f80 498a 9ebf de53 ead6 0e9f b1bf
00000780: 5b79 fafa 9446 aabf 0592 cab2 c49d a3bf
00000790: af64 bfbd ef78 c43f 74d2 876b 050a b83f
000007a0: eee7 3144 8cb4 a9bf 2968 82df 1d21 b73f
000007b0: 7a4b 355c 89e8 98bf d804 c161 163a 803f
000007c0: c31d 37c5 81bb aabf a60d d097 9090 bf3f
000007d0: 3325 2b1b 612a 98bf ddeb 12ae 25ce b3bf
000007e0: d74f eb72 2567 c23f 6e27 4622 6e2b b3bf
000007f0: 5308 ee16 9a17 a5bf f970 eaf0 332e 9fbf
