hw4/theta_of_simga_210.0C_0.03learn1000000.npy (npy, 25736 bytes, 1 tensors)

array f8 [3201]
0	0xbfb9ec9bcf25c46a	-0.10126661116898253
1	0x3f96bdcc794ed60a	0.022208399681138892
2	0xbf6fe9e2734a1efd	-0.003895704542006827
3	0xbf79ca99cf513bc1	-0.006296730823193764
4	0xbf8152d4b74b28d8	-0.008458768695522798
5	0xbf86353fa1f3a4ab	-0.010843751077532401
6	0xbf794a47f3694a5f	-0.0061743555621257265
7	0x3f90d3b5c3873ee5	0.016432609614468147
8	0xbf93e5bb5e37fde4	-0.019431045175222553
9	0xbf79d0420a3ecc67	-0.006302125901061029
10	0xbf72fdff4b4821e5	-0.004636761896570783
11	0x3f92e1d07667aab7	0.018439538218369047
12	0xbf8248e45a5739bd	-0.008928092963199736
13	0xbf91986e23fd9241	-0.017183037707029895
14	0xbf864ed62c3a051f	-0.010892556404771768
15	0x3f680213429335e0	0.002930677048971417
16	0xbf8e2bf391547921	-0.014732268211954893
17	0xbf8ef311303c046b	-0.01511205128145062
18	0xbf968bb5d7d56f25	-0.022017327593274367
19	0x3f8ff8f67c3d6cdf	0.015611577669622565
20	0x3f9c15c0052090ab	0.027426719963970097
21	0xbf6fdec5c9959bbc	-0.0038904059444350974
22	0x3f765d4db425e1f0	0.005460074930276879
23	0xbf501744c6470ac0	-0.000982110178583781
24	0x3f9543d07d740fc1	0.020766503960672148
25	0x3f986dcd90eaa3e9	0.023856365175252057
26	0x3f97e0aa53b7b93a	0.023317967757912707
27	0x3f97466323660010	0.022729443584012243
28	0xbf83bfd6800dcb20	-0.009643245489973362
29	0xbf91705bdedf5dcc	-0.017030177572307
30	0xbf8278e663719959	-0.00901966086366872
31	0xbf7b14457d3b0cb3	-0.006611129228704704
32	0x3f7ea0cbdd928e0e	0.007477566098859535
33	0xbf808fcec599a50c	-0.008086791425017135
34	0xbf8969a6a5c8e1b8	-0.012408544477794034
35	0xbf8838109c342b8d	-0.011825685278855658
36	0xbf91f945ceb87b96	-0.01755246233198767
37	0xbf9043d88f2cf8a8	-0.01588381170153555
38	0xbf9160a4647b33e5	-0.016970223076714936
39	0x3fa1e48c9b56de68	0.034946817362137506
40	0xbf9520ef48d12ba0	-0.02063344842853676
41	0x3f827a0d4aa49236	0.009021858063143911
42	0x3f87811bba6aa9da	0.011476723314747628
43	0xbf8a8a4d40170674	-0.0129591021712969
44	0x3f7bacf4d1ca96c3	0.006756740881120829
45	0xbf86d8e7ac8d7f91	-0.011155900910750723
46	0x3f9cc1895d05536a	0.028082033445872602
47	0x3f9b3a7765bf2bdc	0.026590219102029397
48	0x3f3bb59e3fbe6cb9	0.00042281259060823366
49	0xbf8b5ec8f7e92cbf	-0.013364381852758787
50	0xbf477f91a5269fed	-0.0007171116979423055
51	0xbf77fb3bdbf1dac1	-0.00585482962116285
52	0xbf9185f87694ecb1	-0.017112619626669715
53	0x3f95ecba48b7bc27	0.021410856903397637
54	0xbf8294032f02e37c	-0.00907137381760647
55	0x3f8323f4413d25ee	0.009345920792514808
56	0x3f9f0115f30429a1	0.030277579267058766
57	0x3f6fec6ddfeab304	0.0038969179143663064
58	0xbf827b53b4bdf4b8	-0.009024290040310454
59	0xbf8b3d90285ad78d	-0.013301016074688277
60	0xbf8558aa94d81d28	-0.01042302386032519
61	0xbf818a461d2d11e2	-0.008564517751104842
62	0x3f9e7dfea05a4a5c	0.029777506386901784
63	0x3f982d7cb8e76f88	0.02361101988377315
64	0xbf825a61444644af	-0.008961448570320078
65	0xbf7c7a6db67cb5aa	-0.006952694478781588
66	0xbf8229650650f710	-0.00886801648641325
67	0x3f9512a8e2153e96	0.020578993605623618
68	0x3f98fc9cf5379f25	0.024401142565607565
69	0xbf81f86a7dd7ecf0	-0.008774597135007473
70	0xbf9039f076d25d5a	-0.01584602093916252
71	0x3f9c8218fba4dc6f	0.02784003292000786
72	0x3f98db3187ef2b20	0.024273656770485208
73	0xbf9073c0977c761a	-0.016066560026152123
74	0x3f9b4ae0baf58e18	0.026652823840221357
75	0xbf8657ffdf5f797c	-0.010910033230115294
76	0x3f9287931263ea1d	0.018095300672010695
77	0xbf90010e157b530e	-0.015629024563923948
78	0xbf86e588821a8bd0	-0.01117998740239115
79	0xbf8010437024e5e6	-0.007843520030848827
80	0x3f53adab71e3e83d	0.0012010740534251906
81	0x3fa12584665cb939	0.03348935842074003
82	0x3f92a16b99784e86	0.01819389461714007
83	0xbf8ba839db579946	-0.013504459387104217
84	0x3f75fd313efaf4df	0.005368416182759377
85	0xbf744985d4f1ca2c	-0.004952929287457535
86	0xbf7a21999754b65a	-0.006379699674011608
87	0x3f934e4612de7543	0.01885327806632132
88	0xbf868efae5753746	-0.011014900329111687
89	0xbf90edae16ca15f3	-0.016531677380518372
90	0x3f966c16133d86b6	0.021896691250168764
91	0x3f337a3c9feb6821	0.00029720287413470726
92	0xbf8a461020f5b03f	-0.012828947072840545
93	0xbf9197099e0b477c	-0.017177725096935145
94	0x3f73690803105009	0.004738837525128056
95	0xbf64673e98b99378	-0.00249063707251412
96	0xbf84f2efc0f59a30	-0.010228989673760486
97	0xbf847e4dfc9f9f1b	-0.010006531974752477
98	0xbf86ccf40f23addb	-0.011133105003373103
99	0xbf8e71e6adc38635	-0.014865686586236307
100	0x3f69938c1e8570b2	0.003122113867148079
101	0x3f6d948a28b78614	0.0036108683031990194
102	0xbf671821f226291e	-0.002819124508453132
103	0xbf7fa5303f1efb66	-0.007725895369673141
104	0xbf6593185b3a853a	-0.002633616992014834
105	0xbf6410a00e65d2c4	-0.002449333772512526
106	0xbf87a89cfe872565	-0.011552073018622886
107	0xbf85c2d10e784453	-0.010625489477236771
108	0x3f86f14183df9385	0.011202346646266079
109	0xbf9109c8fd2821dd	-0.01663888974329263
110	0xbf84307ca04979ba	-0.009858106271335088
111	0xbf93abccf1f2e3d4	-0.01921005465257848
112	0xbf5633daffb0317e	-0.0013551367435438995
113	0x3f958df1154a6b40	0.02104927723358263
114	0xbf93229a98e059cc	-0.01868669088443102
115	0xbf7c5c0b8d456436	-0.0069237185710671525
116	0x3f92a9e76874e7ab	0.018226257086304248
117	0x3f88df065e642677	0.012144136195746598
118	0xbf771edfb795a057	-0.005644678015734503
119	0xbf8ebe0824c17616	-0.015010894414611047
120	0xbf796273e4c24465	-0.006197407445271618
121	0x3f95c90c064076a6	0.021274745828228213
122	0x3f56a53274ab77db	0.0013821594936227397
123	0xbf90453a52907ba6	-0.015889083184557194
124	0xbf83899a61f67c23	-0.009539800753200883
125	0x3f8ac108911ede6c	0.013063494614342384
126	0xbf83da6a2ce7cf6f	-0.009693936820418718
127	0xbf87405e581c5d6a	-0.011353241981437907
128	0x3f8f609d78a3f098	0.015320997471001171
129	0xbf8f2bc117183aaf	-0.01522017337540879
130	0xbf8c7cdc6452e68a	-0.01391002827800782
131	0xbf86b33679d2a7b4	-0.011084008782137868
132	0xbf838bd7de892b42	-0.009544073561433945
133	0x3f9a6b65d67af529	0.025800315109099223
134	0xbf8db0e35517f5b1	-0.014497543367719997
135	0xbf88a51c977d2982	-0.012033675549578463
136	0xbf43601568a9ec65	-0.0005912880454411849
137	0xbf9072d52e5d2cf9	-0.016063052134353637
138	0x3f5b80c1582c2952	0.0016786468629016072
139	0xbf8c892b88e28e60	-0.013933506121538375
140	0xbf59674cac162585	-0.001550507426460208
141	0x3f8d093d5a69b7b6	0.014177779504475168
142	0xbf8200b01bcfe284	-0.00879037461162225
143	0x3f9181bbf738f4b9	0.017096459354651403
144	0xbf822471e09c3d3a	-0.008858575503409061
145	0xbf81e7f3fd6573e2	-0.008743196650067678
146	0x3f9942d2ec1a7e34	0.02466897550641374
147	0x3f920713eeae9228	0.017605124896038188
148	0x3f95c7addcf3bff9	0.02126952801785362
149	0xbf7a34eb17d5f7cf	-0.006398123104529987
150	0x3f67e2075a07b00d	0.0029153960788246337
151	0x3f817e4e01113379	0.0085416883540803
152	0x3f8e1c60789ddbea	0.014702562027862204
153	0x3fa42f399d612493	0.03942279859672584
154	0x3f9b3a7765bf2bdc	0.026590219102029397
155	0xbf86006523815671	-0.010742941041978345
156	0x3f8ff8f67c3d6cdf	0.015611577669622565
157	0xbf86fa4204ec8458	-0.01121951653982671
158	0x3f949246a202c2ad	0.02008924831233354
159	0x3f76a890fb404088	0.0055318511331422585
160	0xbf90d0876c440604	-0.0164204749899053
161	0xbf848434090ea3bd	-0.010017782713321094
162	0xbf647abba0622f21	-0.0024999298648874656
163	0xbf82a2655b5d0f18	-0.009098808146184065
164	0xbf74e088f50e434d	-0.005096945752385573
165	0x3f839b91971e0ce4	0.00957406752036722
166	0xbf8d533506d59a83	-0.01431886126620197
167	0xbf7e70ffe28cd4fd	-0.007431983519201821
168	0x3f843b0cc99a4aad	0.009878253843713958
169	0xbf8750dfd5652265	-0.011384724330711646
170	0x3f89ed2d6b4e4b57	0.012659411275114314
171	0xbf95dad827a24a1d	-0.021342637461723258
172	0xbf8880ace3961729	-0.011964178748495495
173	0xbf8827383c35e2e3	-0.011793555581549103
174	0x3f669d1495c73230	0.002760448651520052
175	0xbf7e7e5d9c8c6ed3	-0.007444730443946407
176	0x3f81a181c9c18922	0.008608831376652196
177	0xbf88d6061265dcc6	-0.012126967846354818
178	0xbf6b19bf9fc482ee	-0.003308176294141033
179	0x3fa0e8bb94029d19	0.033025609796192686
180	0xbf8e9c25e31bd169	-0.014946266167932891
181	0xbf8e327747d517f9	-0.014744693641329564
182	0x3f9ba12b2fd68dc9	0.02698199729424092
183	0xbf77911ef0dd6af2	-0.005753632414633657
184	0xbf325333814d182a	-0.0002796173806028946
185	0xbf708804a3e55148	-0.004035966993189817
186	0xbf81b9969fa9ce41	-0.008654762980973564
187	0x3f908a4a932ddb01	0.01615253947553708
188	0x3f74a081f8d11c2f	0.005035884573835011
189	0x3f9982b511656cab	0.02491267126729883
190	0xbf87a45ac643bef5	-0.011543950248295224
191	0xbf7e205df4167029	-0.0073550863320655325
192	0xbf7cc32e389d1846	-0.007022076178890007
193	0xbf89f103db02e30e	-0.01266673099631668
194	0x3f53adab71e3e83d	0.0012010740534251906
195	0xbf8332684105be59	-0.00937348793442465
196	0xbf8a23cb5cb0e058	-0.012763584867670527
197	0x3f9735f34f29fe6a	0.022666742045201728
198	0xbf88f829532e17a6	-0.012192080355599998
199	0xbf863ec90753b34b	-0.0108619408951768
200	0xbf8f13f5f19073ae	-0.0151747907967151
201	0x3f3b5d72d057f026	0.00041755726883230466
202	0xbf810aad686ac095	-0.008321146725706089
203	0xbf8b3bc0eeba9df4	-0.013297564778738093
204	0xbf837a9f0ca13b65	-0.009511225293093959
205	0x3f798a4a351a1af0	0.006235399124881566
206	0xbf89450684e5269d	-0.012338686876904698
207	0xbf807da925c04e24	-0.008052178825926744
208	0xbf8c6af051c87404	-0.013875844474620543
209	0x3f9a166a0dd58186	0.025476128668175523
210	0x3f9516d81cf97308	0.02059495617719434
211	0xbf78bc16381deda2	-0.006038748544479418
212	0xbf6c54c8d739f3c4	-0.0034583971662968966
213	0xbf8a3faa2cb5b8c7	-0.01281674336379658
214	0xbf7dbd74b9e82498	-0.007260757409775519
215	0x3f8c7a28702aac3a	0.013904872820907344
216	0xbf8bc92753cb624a	-0.013567263836578598
217	0xbf7f11dbb2c0743e	-0.007585390278134927
218	0xbf8cec7a758c63a0	-0.014122921669285138
219	0x3f983eb6e0fecf35	0.023676736338259025
220	0xbf8753de2418b6a5	-0.011390433765963446
221	0xbf7f9057dbe8c3ea	-0.007706015776919076
222	0x3f96f9ca854104e8	0.02243725241010433
223	0x3f93fb69c3e4e47d	0.019513752538135243
224	0xbf751563447d8d7c	-0.005147350086051158
225	0x3f3fc98ce865c42e	0.0004850358021917825
226	0x3f953e75c4230279	0.020746078582990244
227	0xbf8e842a0f4b74cf	-0.014900520889052164
228	0xbf8bcf3f9197366f	-0.013578888540816096
229	0x3f8df807b2ef5eeb	0.014633236072696806
230	0xbf81bb3f02eaff7e	-0.008657924915837386
231	0xbf7ee5096ff14a41	-0.007542645325048059
232	0xbf91ee156a8672b0	-0.017509779574185813
233	0xbf8cb7e7be5ba707	-0.014022646424070041
234	0xbf6a9df4129556a6	-0.0032491461794659946
235	0xbf78d0989947aa67	-0.006058307732454616
236	0xbf666f13bb33579f	-0.002738512551881691
237	0xbf7954a056e97b3e	-0.00618422157876247
238	0xbf82ff427cc65722	-0.00927593177111025
239	0xbf9302230e5f4694	-0.018562839271743473
240	0xbf7ec2b61a281868	-0.0075099099508460845
241	0xbf4063bd95ab3c85	-0.0005001712518949575
242	0x3fa1adb6c4511761	0.03452845713085995
243	0x3f9b3a7765bf2bdc	0.026590219102029397
244	0xbf8980969eb161c8	-0.012452294080660745
245	0x3f98fb45707f833b	0.024396023742045286
246	0xbf8203f2f91fce63	-0.008796594836872623
247	0x3f5994374c06f25c	0.0015612163552837432
248	0xbf824950c94be071	-0.008928900855139173
249	0x3f9825f6c4481d21	0.023582320909580127
250	0xbf894a028d37b19d	-0.012348194059961065
251	0xbf8a534f49d46bf3	-0.012854213181119767
252	0x3f9798573aa3a44d	0.023042071298651035
253	0xbf8a74ad5e6f2aea	-0.012917856640247877
254	0xbf7603413d4155f3	-0.0053741978081993545
255	0xbf8123314e410a80	-0.00836790580809077
