hw4/theta_of_simga_200C_0.01learn5000000.npy (npy, 25736 bytes, 1 tensors)

array f8 [3201]
000000 ce b5 8f 0c 3e 88 c2 bf e6 f9 bc a0 8c 7b a0 3f
       -0.14478278745029488 0.03219260656486593
000010 99 e3 cd b2 91 d2 68 bf 0e e5 90 11 53 c4 82 bf
       -0.003030094687741469 -0.009163521741458538
000020 37 2e 45 e3 32 99 89 bf 88 97 e5 a3 90 51 90 bf
       -0.012499234734284588 -0.015936145785779426
000030 aa d5 63 95 af 9c 82 bf d6 d8 f7 03 0d c2 98 3f
       -0.009087917086143833 0.02417774521560364
000040 8b c2 cd af 1d 55 99 bf 41 70 9e d9 5f 7c 84 bf
       -0.0247387541343778 -0.010002850369169038
000050 bf 67 ac 66 a5 66 7c bf d3 0a c3 a1 11 53 9b 3f
       -0.006933828447268141 0.026684070108568058
000060 f8 c0 e3 78 38 52 85 bf a2 4c 3c 3a bc 78 98 bf
       -0.010410729588756315 -0.02389806847993426
000070 09 4c af 36 8b 5d 8f bf 56 6b b1 50 b7 9f 74 3f
       -0.015315139395090343 0.005035129618671549
000080 a4 04 1d 64 13 45 95 bf dc 32 cc 96 a3 15 93 bf
       -0.020771315560754858 -0.01863723380943126
000090 1d 5b bf 4f c2 c8 9c bf 6e 52 4b 68 a5 06 98 3f
       -0.028109584920311115 0.023462852945913708
0000a0 d2 ca 65 a9 06 94 a4 3f 6f b8 7f 43 29 52 71 bf
       0.04019184892503848 -0.004228745638085936
0000b0 7f 97 56 7a f2 26 81 3f 45 c6 84 3f 69 5e 62 bf
       0.008375067099062992 -0.0022422843577707707
0000c0 82 54 63 67 cd ca 9e 3f 06 67 54 84 fc c5 a1 3f
       0.030070504603675115 0.034713641313102214
0000d0 9e a2 43 bb 7c 82 a1 3f d3 ab b3 8b fc db a0 3f
       0.034198663577460695 0.03292836385102018
0000e0 84 91 e5 bf ab 4c 8c bf 70 76 6d df 60 26 97 bf
       -0.013818113130306349 -0.022607339512765667
0000f0 85 6c da 70 42 c5 88 bf 69 29 85 d0 8d e4 83 bf
       -0.012094992703444394 -0.00971327583888089
000100 1c 32 11 8a c4 8a 86 3f 81 22 cd 8c a5 b7 88 bf
       0.011006865943408654 -0.012069028243460568
000110 49 85 25 cc 9b a3 90 bf 93 98 b5 d1 a7 a8 91 bf
       -0.016249117217175955 -0.017244932341235652
000120 c1 c7 36 76 45 f3 97 bf 13 a4 8e 93 6d 90 96 bf
       -0.023388943996628834 -0.022035324221779073
000130 87 2d 0c 43 e1 a8 95 bf cf 96 85 eb 91 46 aa 3f
       -0.021152038304575817 0.05131965637228363
000140 60 34 d9 a2 a7 ea 9a bf 88 a5 78 d3 52 88 8e 3f
       -0.026285762133103296 0.014908454016295605
000150 53 12 1a b4 31 f5 91 3f 2f 54 c2 e2 86 13 92 bf
       0.01753690397028358 -0.01765261420276348
000160 9d 76 ed 75 7e 2c 86 3f f3 56 03 57 0b 6b 90 bf
       0.010827053045143581 -0.016033341585020854
000170 c9 05 85 19 c8 d6 a4 3f fd fb 5f ee 1e b9 a4 3f
       0.04070115386503976 0.040474859808448095
000180 22 1d ff 46 81 26 63 3f 6b 51 3a b1 65 d4 93 bf
       0.002337696547303773 -0.019364918653609047
000190 6a 51 da 52 7a 40 4b 3f 0d 34 77 0d 15 43 80 bf
       0.0008316609652916755 -0.007940449212492618
0001a0 a0 00 87 47 9f f0 97 bf e9 20 e5 80 b5 f3 9f 3f
       -0.023378838291819748 0.03120311354840136
0001b0 ec 29 12 e1 84 dc 86 bf 2b 0f 1f f3 ad dc 8a 3f
       -0.011162794226284377 0.013116225225423847
0001c0 a9 1b 06 76 73 80 a6 3f 30 0e 20 eb f9 af 7e 3f
       0.04394875350686018 0.007492042774177629
0001d0 f0 c5 fc a7 8c d7 88 bf c5 47 f6 20 a8 5d 92 bf
       -0.012129877926414928 -0.01793539715942651
0001e0 bf d5 19 ef 8c 94 8f bf 79 a1 b8 05 58 ba 89 bf
       -0.015420056387692392 -0.012562453913304893
0001f0 06 0d b3 21 ee 1d a6 3f b3 0a 64 6b bc 85 a1 3f
       0.04319709931726305 0.03422344981119831
000200 0d d3 b1 33 5a d2 85 bf ff 44 d7 f5 e0 f0 84 bf
       -0.010655121519655997 -0.010225064756840483
000210 8f bf 1a a4 73 5c 88 bf 99 ae e6 ab d6 e0 9e 3f
       -0.011895087667056518 0.03015456604195652
000220 63 46 72 32 44 29 a2 3f 42 12 41 98 1b 30 87 bf
       0.035471087606435935 -0.011322227081231099
000230 c1 84 48 6b 70 e0 95 bf 5a da 7a 32 53 c8 a4 3f
       -0.021363979862262242 0.04059085837564132
000240 1b ef 07 f2 b3 04 a2 3f 10 7c 51 33 0f d8 95 bf
       0.03519213036994825 -0.02133201361391107
000250 c4 cc 5b 88 b6 1b a4 3f 7b 64 2a 05 b9 7e 8e bf
       0.039273933549247825 -0.014890141935483428
000260 77 56 fb 85 63 25 9b 3f 3d a2 5f 41 44 91 93 bf
       0.026509814312552806 -0.01910883568771936
000270 ae 8a fb f5 ab 65 8f bf 1d 57 27 12 07 56 86 bf
       -0.01533064217023158 -0.010906272164827474
000280 be 22 7f 42 52 30 62 3f 0f 70 76 f6 f3 d6 a8 3f
       0.0022203070293226037 0.04851496108605612
000290 82 c9 e2 92 e5 3f 9b 3f 02 50 65 b4 f2 84 93 bf
       0.026610934343531685 -0.019061844120486178
0002a0 b7 f8 e7 78 b3 df 81 3f 47 49 b3 63 94 49 72 bf
       0.008727457167875803 -0.004464702268892679
0002b0 8f 96 f4 7c f5 53 7f bf 8b 42 27 81 97 e6 9b 3f
       -0.007648428857725555 0.027246825464148954
0002c0 83 67 10 f7 0c 45 8d bf 6a 71 5c 05 51 2e 96 bf
       -0.014291859903142306 -0.021661058380332866
0002d0 f7 72 18 84 d0 df 9f 3f e5 38 a8 4d 8a 52 3b bf
       0.031127222120733013 -0.00041690708681664377
0002e0 18 f3 5b dd d8 f7 91 bf 32 c2 72 64 f8 ca 96 bf
       -0.017547024260227223 -0.022258645182491495
0002f0 b0 c0 84 bc 17 d2 80 3f b6 45 9d 3d 08 13 78 bf
       0.008213220062856713 -0.005877525510940831
000300 ee 99 ef 06 c9 50 8b bf f0 7b 1e dd 61 6b 8d bf
       -0.013337679409187477 -0.014364971695441014
000310 0c 6c 60 81 26 13 8f bf 75 de 6a 99 77 ad 95 bf
       -0.015173245261442168 -0.021169537295206504
000320 20 b2 1d 6d d2 98 76 3f 51 a7 ee 75 1f 86 7e 3f
       0.005516836144903198 0.007452128308537657
000330 87 e3 e5 20 3e 01 72 bf 22 24 e1 f4 33 b3 83 bf
       -0.004395716371043862 -0.009619146261814097
000340 d7 85 c4 37 53 82 56 bf d5 1c 8b ee 26 ca 6e bf
       -0.0013738453554384877 -0.003758502997104433
000350 70 43 ab 79 97 b6 90 bf ba c8 ff 95 7c 90 8f bf
       -0.016321532059751787 -0.01541230519066904
000360 a8 14 78 35 2b 83 90 3f a6 07 ce c1 b3 61 98 bf
       0.016125369204037426 -0.02381020422354365
000370 65 bf 1b 24 0b 5a 8e bf 0e a9 a9 4a 82 0a 9a bf
       -0.014820181884232128 -0.02543071346955466
000380 6c 48 6e a1 d7 7e 57 bf 8e 50 36 d4 e6 de 9f 3f
       -0.0014340501563521414 0.031123739912417174
000390 31 34 e6 89 4c 70 99 bf d7 6a 42 af cf 3b 85 bf
       -0.024842449108792578 -0.010367987190240608
0003a0 78 d3 00 19 c0 06 9b 3f c4 f9 ec f7 73 8a 92 3f
       0.026392938161922314 0.018106281287367812
0003b0 7e 5d 8f 6f 97 e7 80 bf 2a f6 f2 56 f2 43 94 bf
       -0.00825422581867374 -0.019790445858907692
0003c0 31 4a 9c 14 c5 21 81 bf 9f a1 ad 8c d6 b7 9f 3f
       -0.00836519211910511 0.03097472413665658
0003d0 fc 17 e6 95 f7 c2 64 3f 67 1e ef 6f 6d 5f 95 bf
       0.0025343738227006068 -0.020871839482224177
0003e0 21 31 6f 10 22 a7 8c bf d6 85 13 61 49 ae 93 3f
       -0.013990656019722327 0.01921953825956798
0003f0 8f 22 30 7b 21 62 87 bf 6c fa 5b 85 98 33 8e bf
       -0.011417638370418785 -0.014746848649790333
000400 a2 5d 75 33 1c a3 96 3f 7f a6 9c f5 5b 2b 95 bf
       0.022106590882086892 -0.02067321478458561
000410 30 1e d9 01 cd be 92 bf 88 f6 2c 2c bc 83 8f bf
       -0.01830597232608805 -0.015387983415730902
000420 c2 89 32 7e ee 30 8b bf 03 42 96 45 78 43 a3 3f
       -0.013276923395385224 0.03762412881326684
000430 e0 0b 05 7b 73 09 94 bf 6e f6 33 c0 ac 5c 91 bf
       -0.019567303069617625 -0.016955088835848668
000440 7f 62 a9 89 20 c3 5c bf 82 24 c6 8a 82 20 95 bf
       -0.001755506301057391 -0.02063182804116482
000450 cb b6 17 19 d5 a3 6f 3f 85 28 5c b6 7c 65 92 bf
       0.0038623010702768293 -0.017965267782564815
000460 a2 82 4f 29 0d 3a 43 3f 2d 6e e7 44 39 bf 95 3f
       0.0005867542519092004 0.02123727305466454
000470 f2 2f 98 ef 45 f9 88 bf 53 9a 3b 74 a5 cd 99 3f
       -0.01219420087274867 0.02519854089669089
000480 8d c7 db 52 d5 57 85 bf 9c 16 5f c7 ad a6 89 bf
       -0.010421434966221966 -0.012524945875962694
000490 b8 67 d4 f0 fb 5e a2 3f 28 e8 55 69 65 23 9a 3f
       0.03588092150512473 0.025525650552914808
0004a0 73 ab be b1 3e b2 9f 3f a9 e8 1d 92 58 69 83 bf
       0.030953387831384526 -0.009478275260097329
0004b0 ff f6 f7 8d 8b 71 6a 3f 94 4c 1f d8 ca b0 8a 3f
       0.003227970664510304 0.013032517166641257
0004c0 8b fa 53 d3 24 67 96 3f 09 a8 fd 38 42 be ad 3f
       0.021877837561073348 0.05809218354882268
0004d0 fd fb 5f ee 1e b9 a4 3f de b0 d4 48 a8 c2 8d bf
       0.040474859808448095 -0.014531435701961855
0004e0 6e 52 4b 68 a5 06 98 3f b0 09 ef df c6 13 91 bf
       0.023462852945913708 -0.016677005212622553
0004f0 21 ea ae e4 39 90 9e 3f cb f8 52 93 f7 55 81 3f
       0.029847054083555705 0.008464750464892387
000500 52 ab fd ec 33 b6 96 bf 19 5b 44 56 54 55 8d bf
       -0.022179423656250315 -0.014322909243259784
000510 49 88 a0 ae ec e2 67 bf a6 72 f4 5e 9f 87 87 bf
       -0.002915823240088354 -0.011489148221295164
000520 73 61 55 f6 b0 e6 7e bf 2d 73 3c 57 a5 06 8d 3f
       -0.007544223078490442 0.014172832226500976
000530 10 3b 97 ee 4a 4f 94 bf 4b e0 78 f9 df e3 85 bf
       -0.0198337276577219 -0.010688543129717362
000540 e0 28 41 b0 97 7d 8d 3f 85 fe fd e2 06 b0 8b bf
       0.014399704996453655 -0.013519338419200064
000550 ea 2e d8 b6 15 20 93 3f b2 6b 21 cb aa 70 9d bf
       0.01867708137983374 -0.028750103614907103
000560 da 2f bf 26 9a 8a 91 bf ba 7c 2d 41 68 14 8f bf
       -0.01713028775684209 -0.015175642479958607
000570 55 62 d8 8a 8a ec 71 3f 35 95 97 93 eb c1 85 bf
       0.004375973874197377 -0.01062377971806914
000580 ac 5d 88 ad 4f 6a 8b 3f 02 a9 5c f5 82 9d 90 bf
       0.01338636635141096 -0.016225858903603736
000590 28 a4 91 e8 00 64 73 bf 6e 03 08 93 07 71 a8 3f
       -0.004734042690963704 0.047737347314984344
0005a0 6c d9 09 1d 91 6b 93 bf a0 2a 70 24 c6 c1 93 bf
       -0.018965022466056622 -0.01929387662316151
0005b0 f5 5e 2f fa 47 e9 a3 3f 84 45 04 8e 2c b3 81 bf
       0.038889169016043036 -0.008642528614049245
0005c0 8c 6d 9e f3 87 80 57 3f ab 35 ec e1 b2 33 78 bf
       0.0014344527867028193 -0.005908678779417735
0005d0 88 4d e6 f0 93 1c 87 bf ff 90 33 31 dd 91 98 3f
       -0.011284976758168211 0.02399392712403969
0005e0 c9 8a ad 85 30 ec 7c 3f a8 10 dd 7c ed 13 a3 3f
       0.0070611853978756545 0.03726141118252829
0005f0 ae 88 77 af c1 87 90 bf c1 a6 04 99 ce 95 85 bf
       -0.01614287026848931 -0.01053964046930689
000600 03 f7 88 35 03 89 85 bf 01 71 84 aa 0a 22 93 bf
       -0.010515236922511223 -0.018684546144059237
000610 be 22 7f 42 52 30 62 3f db 2b 08 8e e7 fb 8b bf
       0.0022203070293226037 -0.013664063474626722
000620 1f 2a 60 45 ab 22 91 bf cd 7b 98 b7 27 48 a1 3f
       -0.016733814343789285 0.033753625070168526
000630 b5 58 15 a9 d2 11 91 bf fd 0d 00 e1 42 67 8a bf
       -0.016669551439314662 -0.01289226769586715
000640 67 af c4 fa 87 9e 94 bf 78 c4 84 e3 24 13 1c 3f
       -0.020135998421366177 0.0001070967927077215
000650 88 ed fb c9 71 86 87 bf 5d 2b 8d 9a 21 21 91 bf
       -0.01148690126091513 -0.016727948244163005
000660 87 8c fb ba e1 43 8d bf 51 1c f1 16 8a 05 84 3f
       -0.014289630430943013 0.009776190590981811
000670 7c f0 cc ec 41 d1 90 bf b7 42 e4 d5 82 c2 85 bf
       -0.016423254087599023 -0.010624906685309339
000680 d0 6c 7c ac eb 88 93 bf 79 97 30 2c aa fe a2 3f
       -0.019076998141014212 0.03709918775011451
000690 72 1d c8 05 1f 93 9e 3f 1b 59 78 b9 51 ee 81 bf
       0.029858097770583077 -0.008755339119528352
0006a0 e8 47 69 5d 6e a9 66 bf 91 ec 0d f7 ac 48 90 bf
       -0.0027663379253590643 -0.01590223558330856
0006b0 26 21 27 07 f1 1b 85 bf 31 78 e5 32 d5 d1 94 3f
       -0.010307200461185117 0.020331698638408283
0006c0 66 17 05 83 3c 9f 91 bf 9c 05 33 89 f3 f3 85 bf
       -0.017209001061267236 -0.010719206451883782
0006d0 b9 80 fc bd a5 65 94 bf 35 70 87 6a da cd a1 3f
       -0.019919004174085517 0.03477366018680109
0006e0 34 1f 51 f8 04 d2 90 bf 80 25 20 b2 ae 10 87 bf
       -0.016426160484370914 -0.011262287913285318
0006f0 40 1a 10 88 fb b5 a0 3f 1e 41 c3 ad 10 a1 9d 3f
       0.03263841663288192 0.028934727292665767
000700 28 1f 2f cf 14 26 80 bf 84 b3 d5 b3 c4 01 67 3f
       -0.007885134289508836 0.0028084604115776197
000710 4b c4 74 2d 34 bf 9e 3f ba 74 9c d6 b2 f6 94 bf
       0.030026259684010886 -0.020472330426049658
000720 71 53 7e ac 1b 9c 92 bf 86 f6 6e 3a 9e df 95 3f
       -0.018173630145230605 0.021360847774977397
000730 51 2b d8 16 29 6b 8a bf ef bf 59 91 74 0d 88 bf
       -0.012899704942375275 -0.011744414029834586
000740 56 d4 6f 41 3d 8d 97 bf dd 3d a0 be e4 cd 92 bf
       -0.02299972259421098 -0.01836354650009563
000750 a1 b9 19 a0 cd 76 74 bf 23 9d 7e 0b 9a 8b 82 bf
       -0.004996112083615862 -0.009055331683909323
000760 96 b1 15 a7 b7 19 5d bf 62 77 59 da f0 f8 82 bf
       -0.0017761510356094404 -0.009263879455086946
000770 ec 84 f3 ae 91 2a 8b bf 79 b2 a0 8f a0 85 98 bf
       -0.01326478781851611 -0.023947247282352955
000780 8c 14 27 9b 15 ff 83 bf ff 5f 97 a8 fb 5b 57 bf
       -0.009763878629096355 -0.0014257390597460782
000790 52 a3 62 14 ec d5 a9 3f fd fb 5f ee 1e b9 a4 3f
       0.05046022175640154 0.040474859808448095
0007a0 db 6f 53 00 00 52 91 bf 51 d3 5a 88 ed ea a2 3f
       -0.016914367694752613 0.03694860734450479
0007b0 05 c3 39 82 17 57 8a bf c2 37 4e 42 ae a6 5f 3f
       -0.012861426984473132 0.0019318296192269856
0007c0 6f 86 8e 4f 9e f3 87 bf 42 58 01 e8 53 92 a2 3f
       -0.011695133974913589 0.03627264220328687
0007d0 9c 98 36 15 1f 5b 91 bf c4 a9 06 10 88 ec 91 bf
       -0.016949163121943486 -0.017503858545447462
0007e0 32 47 e7 fe 99 32 a1 3f da f8 69 24 04 77 92 bf
       0.03358918415655267 -0.018032135698825204
0007f0 30 37 a9 14 d3 e5 7c bf 44 35 ed ed a5 36 88 bf
       -0.007055115255367103 -0.011822983096545621
