hw4/theta_of_simga_220.0C_3learn100000.npy (npy, 25736 bytes, 1 tensors)

array f8 [3201]
0	0xbfbe76e17d407fec	-0.11900147731694205
1	0x3fc52a58d443eb1a	0.16535482754246617
2	0x3fa35366fb393da6	0.03774568382925318
3	0xbfa66e1cf4f60d08	-0.04380884638069388
4	0xbfb1f24b5dc00f81	-0.07010336912941108
5	0xbfb639d8666ca881	-0.08682014942738371
6	0xbfb5214c1cdb1aaa	-0.08253932671059752
7	0x3fc15cd4514df2c0	0.13564542741723606
8	0xbfb8532be480a846	-0.09501909569431274
9	0xbfb068a3abff3129	-0.06409666966573425
10	0xbfa04e300b136921	-0.031846524574307596
11	0x3fc021e84fad7686	0.1260347737360698
12	0xbf8995191064e1a6	-0.012491412937934165
13	0xbfc08356e443eb7a	-0.12900816102759532
14	0xbfb35eac6057fc4e	-0.07566335060254056
15	0x3fa5d2e2ffacf49a	0.04262456294098023
16	0xbfc14b333bbf7d0e	-0.13510742585547358
17	0xbfacd57c1e9a03b9	-0.056316260085629684
18	0xbfbf19adeee43bd0	-0.12148558695137912
19	0x3fc1bf8360c8f2f0	0.1386570189078138
20	0x3fc7bcec3f18c453	0.1854529674615458
21	0x3f8b749932d7ca4d	0.013405987609961612
22	0x3faf2cd7d153fa0d	0.060889000227678826
23	0xbf8a0e7e433e8e5a	-0.012722956111083029
24	0x3fc3e71db14bbe2a	0.15549060017609523
25	0x3fc8ef58a80a2279	0.19480426983888657
26	0x3fc8c9100d2fb343	0.19363594669212078
27	0x3fc384cb1787ce24	0.1524900307555167
28	0xbfb4cdcac017de05	-0.08126513662124786
29	0xbfbbd98cbb5c362a	-0.10878829550002736
30	0xbfae6d07478f31e3	-0.0594255709507683
31	0xbfac1b238c20a0d9	-0.05489455304661001
32	0x3fabd7e9cd860673	0.05438166269142366
33	0xbfb51cb39601fe73	-0.08246920025157482
34	0xbfb15133d08b4210	-0.06764530030637439
35	0xbfba8a6b6c985e20	-0.10367461587190308
36	0xbfc065a621fa8f95	-0.12810207995528047
37	0xbfc1799721de2e4f	-0.13652314332681434
38	0xbfb17298da2fb9f1	-0.06815486265961802
39	0x3fcdf96637331e02	0.23417356200501166
40	0xbfb86d7ad6de4250	-0.09542052980237625
41	0x3fbfb511869778db	0.123856635436343
42	0x3fbd869f7841c08a	0.11533543287237272
43	0xbfb515e46e472744	-0.08236530010540571
44	0x3fbb3618b4f67c21	0.10629419725454216
45	0xbfbb615a34f798c6	-0.1069542292894737
46	0x3fc9d04d5142e917	0.20166937320556919
47	0x3fc7d7ecd400cd00	0.1862770114108585
48	0x3fad5d82dcea9bc3	0.05735405871137502
49	0xbfbcb1b9d43e0e51	-0.11208688193988194
50	0x3faa18c460498b23	0.0509702079332526
51	0xbfa3197f8f84a6c2	-0.03730391146593838
52	0xbfbe806d3f2129d1	-0.11914713660477295
53	0x3fc3dec8d4e0c98c	0.15523634333073877
54	0xbf92ba12a90e683f	-0.018287936752678254
55	0x3fab43672367f066	0.05324861819460196
56	0x3fccfd98e605414d	0.22648917418929174
57	0x3fb3ad73b8a392a7	0.07686541803156875
58	0xbfaae428b531069a	-0.052521965139488105
59	0xbfb60d0de6264869	-0.08613669270406067
60	0xbfba09d57bc06cd7	-0.10171255370407849
61	0xbfb4300923e394af	-0.07885796667285903
62	0x3fcd942c40b023ca	0.23108437689395905
63	0x3fc87ee6cd213aec	0.1913727285013559
64	0xbf8920c85d0b6337	-0.012269559230320233
65	0xbfb095264c3755db	-0.06477584229227011
66	0xbfaae5728aa1cb79	-0.05253179495129862
67	0x3fc351a092ec6072	0.15092856573096786
68	0x3fc6cc50e493696b	0.17811022911957805
69	0xbfa1c3b48040eb09	-0.034696236282306066
70	0xbfbeb1516fafd36a	-0.11989315964440342
71	0x3fcbb9acfb81505f	0.21660387306713155
72	0x3fc74b03790cc342	0.18197673235547468
73	0xbfba3a46161cbaa3	-0.10245168723916236
74	0x3fc9397157b8a162	0.19706551345121698
75	0xbfb1cfde1a780cbf	-0.06957805772985902
76	0x3fc21dc89ffdbb77	0.14153392612521618
77	0xbfadbb71ebf10e80	-0.05807071690699406
78	0xbfb84359e014e091	-0.0947776958536244
79	0xbfb4e7fed2f2644b	-0.08166496896809965
80	0x3fa54fefc6e8a4fd	0.041625493079047594
81	0x3fce4dfb75472c95	0.23675482965913788
82	0x3fc478fd38769461	0.15994229561798348
83	0xbfbaf8471673a217	-0.10535091684472096
84	0x3fb0f23facc69fc6	0.06619642227326414
85	0x3f998bd5563bdb1d	0.02494748438672466
86	0xbf8575af79d33756	-0.010478373437219506
87	0x3fc394e38a3ba5b2	0.1529812264409834
88	0xbfab02d1647ac2bc	-0.052755874171798806
89	0xbfb6c3b8bceac932	-0.08892397510752373
90	0x3fc306e0b385b696	0.14864739194620274
91	0xbf8120fa88eb6f3a	-0.008363683036285974
92	0xbfb91f6b6dae5cff	-0.09813567569505109
93	0xbfb6b43e87f7ff71	-0.08868780917691567
94	0x3fb32406a232610b	0.07476846179850243
95	0xbf99502bc4fd9176	-0.02471989049753761
96	0xbfab1b1fef1b6687	-0.05294132036005999
97	0xbfb4cbbe9495f761	-0.08123389365752366
98	0xbfb7c09f6bb0af21	-0.09278293971209141
99	0xbfbf2f0db80aff30	-0.12181173079715957
100	0x3fa92db318c378e9	0.049176785252471884
101	0x3fb67bf43a056f6b	0.08782888809713334
102	0xbf9740568bc9c0ee	-0.022706367761601003
103	0xbf9eebd636349a5d	-0.03019652086109158
104	0x3fa9adb6d560d6fa	0.05015345911708198
105	0xbf9e517a95053a68	-0.029607692094311494
106	0xbfb545b1a3478fbb	-0.08309469448391742
107	0xbfb58e2e6534320b	-0.08420076342390119
108	0x3fb0df59696e3c6f	0.06590803932179921
109	0xbfc2064c788f30a6	-0.1408172215145715
110	0xbfb63f777f10dbe4	-0.08690592624849064
111	0xbfc11d2830cd0d40	-0.1337023008619358
112	0xbf821da195938bb7	-0.008845579507072416
113	0x3fc88f33e8e54a31	0.19187020179613648
114	0xbfc0792ab5a9fe34	-0.12869771833719457
115	0xbfb2fa4c07e3a0ac	-0.07413172905546855
116	0x3fc1728942eaa136	0.1363078667393524
117	0x3fb8edaa0a01e491	0.09737646812745228
118	0xbfa8076e6ef00326	-0.046931696932011754
119	0xbfbbf80881be9c0a	-0.10925343673316959
120	0xbfaa0d258851e915	-0.050881550684566935
121	0x3fc22f9897f853cb	0.14207751675044586
122	0x3fa617e9c7d2a2ee	0.04315119327777049
123	0xbfb5f106e2afc71e	-0.0857090285715256
124	0xbfb231a53d908f78	-0.07107002976459664
125	0x3fb91a6cdae5b89f	0.09805946678327125
126	0xbf9c5977bfe353c9	-0.027685042464174168
127	0xbfadc43a7ed3f751	-0.05813772962754505
128	0x3fb89e76dbd3ea70	0.09616797320260573
129	0xbfb9030945935fb4	-0.09770257900834062
130	0xbfb6437f33f92989	-0.08696742075804854
131	0xbfb0b9d5f0347229	-0.06533562769295344
132	0xbfb149da1a955623	-0.067533141603541
133	0x3fc87136b4c33554	0.1909550078038743
134	0xbfba9b7f81fd9ff8	-0.10393521236039749
135	0xbfbae5ee7abe4f6d	-0.10507097717919374
136	0xbf8d800f5721df4c	-0.014404411169593033
137	0xbfb7f328f6261c05	-0.0935540772389772
138	0x3fb0092f9823d25e	0.06264016594270447
139	0xbfb09009bcbfe0ad	-0.06469784601347568
140	0x3fae7cafb94e7554	0.059545031900806095
141	0x3fbb1113e4181348	0.10572933500959636
142	0xbfb5c12ea9922214	-0.08497897758400824
143	0x3fc3259434985539	0.1495843178569574
144	0xbf8990ce7ec6416b	-0.01248322796234965
145	0xbfb45b61d614a9df	-0.07951938129978185
146	0x3fc97dc69205d5c7	0.19915086870211793
147	0x3fbf4ac8d6982b2b	0.12223487128373438
148	0x3fc5578d735ba7c9	0.16673439152446992
149	0xbfa8347f9aba86e6	-0.047275531423350434
150	0x3f7e2dddca8f954a	0.007367960331042875
151	0x3fb5636ba9a809ed	0.08354828731538762
152	0x3fbf6d1d9a23b2a7	0.12275872243089712
153	0x3fd1f45b9d28a682	0.2805394205812278
154	0x3fc7d7ecd400cd00	0.1862770114108585
155	0xbfacc6ff2b8b4cdd	-0.05620572477860162
156	0x3fc1bf8360c8f2f0	0.1386570189078138
157	0xbfb6e1da95b96de6	-0.0893837562120364
158	0x3fc234f06fc40e09	0.14224057633701673
159	0x3fb0d8508f8caf56	0.06580070023181625
160	0xbfbd4c1343dea24d	-0.11444206625913829
161	0xbfb2f7df1566bde7	-0.07409471771710906
162	0xbf41eb6949ed8bcc	-0.0005468620400786938
163	0xbf9a4918cd7f6ded	-0.025669467489803855
164	0xbfa8ace6a7e841d5	-0.04819412994050124
165	0x3fb31c8563ad98a6	0.07465394671962375
166	0xbfbbcc76b413bf2c	-0.10858861824430893
167	0xbfb43cf0df1b49fd	-0.07905488440454884
168	0x3fb23771225ed7c5	0.07115847672579807
169	0xbfa1e013daf322b6	-0.03491270110823079
170	0x3fb89cece5720f71	0.09614449121187164
171	0xbfc222a6799b7bd1	-0.14168244302615432
172	0xbfb848ae73616532	-0.09485903088479544
173	0xbfafd7364ed52fe6	-0.06218881332696906
174	0x3f9a10981c81d102	0.02545392679208281
175	0xbfa9866b0e5fc2ae	-0.04985365438904431
176	0x3fbbd2a3ce500c9c	0.10868285929614036
177	0xbfb59f88cf759502	-0.08446555199551045
178	0xbf96e1514e7c75f5	-0.02234389344731898
179	0x3fcd0d463c136877	0.22696760114087386
180	0xbfb239f5c70cb940	-0.07119690045940263
181	0xbfb5b0859ecc55da	-0.08472476126583875
182	0x3fc9904489fb5a9f	0.19971520173449606
183	0xbfaa5dbcdb737f88	-0.0514964120754931
184	0x3fa9cafb58bfcf94	0.05037675341000561
185	0xbfa15130c9e89317	-0.033822559973748216
186	0xbfa6f15d9b4606c2	-0.04481022377423251
187	0x3fc11b4acb1f7cfb	0.1336453906833198
188	0x3f9d7987c63436c8	0.028783914062890742
189	0x3fc67a5443a23e3e	0.17560818960599706
190	0xbfb5cd69acf01011	-0.08516560051072043
191	0xbfa343d4c70bf862	-0.03762688569803242
192	0xbfb6316bd66390a8	-0.0866916082773651
193	0xbfb891c52d937328	-0.09597427714056705
194	0x3fa54fefc6e8a4fd	0.041625493079047594
195	0xbfb35924a86c5d05	-0.07557896720787845
196	0xbfb12e5c2ca65061	-0.06711364832000434
197	0x3fc401690d482f56	0.15629304073842815
198	0xbfb0cdb9a541f6ce	-0.06563911709414613
199	0xbf9c0f04d17309eb	-0.027401042255187063
200	0xbfba7ffb210e8fcc	-0.10351533467343116
201	0xbf7b46628a930a8d	-0.006658921172120314
202	0xbfb05c7b2cbee3fc	-0.06391115038321965
203	0xbfa9bb8deed7355e	-0.05025905170951249
204	0xbfb4be81211031e0	-0.08103186661919137
205	0x3fb108c70a4c0b30	0.06654018403427808
206	0xbfb3ebffba155ac0	-0.07781980794002674
207	0xbfa84b8450130dfe	-0.04745114781828973
208	0xbfbe4b70ff74698f	-0.11833864437759288
209	0x3fc92ed60c6995d2	0.19674182516170774
210	0x3fc76e4dfdde118d	0.18305373092529145
211	0xbfa94dfb659e69f4	-0.04942308059181136
212	0x3f986fa359adc12e	0.023863365505748017
213	0xbfa4bf5d6d27f90c	-0.04052249867889843
214	0xbfb225cc4b46bfb6	-0.07088925206949068
215	0x3fbd657c6848b047	0.11482980295176147
216	0xbfaef1fc38c2d23c	-0.06043995087512541
217	0xbfae6aa84b47df18	-0.059407481374306126
218	0xbfbe06edb5021340	-0.11729322117942065
219	0x3fc8112770c3912f	0.18802350050021618
220	0xbfba12afe54faab9	-0.1018476424066347
221	0xbfb169a07f4c1d98	-0.06801798923344504
222	0x3fc654288eeabb2e	0.17444331148495834
223	0x3fc349282c2393c2	0.15067007212851818
224	0xbfab69d0eddf92c2	-0.05354168800093852
225	0x3fb06218e4f37696	0.06399684514641488
226	0x3fc2e3dcd5a6a8b0	0.1475788157670812
227	0xbfbea24913df8e20	-0.11966377959429808
228	0xbfb91c1e811b13c2	-0.09808531429287284
229	0x3fbc1c5cfc5846a1	0.109807788474678
230	0xbfb1accbc75ec96f	-0.06904290788114563
231	0xbfb5572a7366a463	-0.08336129491239457
232	0xbfb95ae578fa1055	-0.0990432186463875
233	0xbfb27f19ac25b402	-0.07225189640821841
234	0xbfa691adac86b2f7	-0.044080188093493726
235	0xbfa85cdeae1ea200	-0.04758354068264126
236	0x3fa3cb64f607f590	0.03866115096387113
237	0xbfaae3687786e10d	-0.05251623591488128
238	0xbfadcec2db186384	-0.058218087430026905
239	0xbfbac31a73f11959	-0.10453954058275396
240	0xbfa3570b20f28fc4	-0.03777346398535955
241	0xbf987ebe190bfe76	-0.02392098453401422
242	0x3fcef436e88607f4	0.2418278346413555
243	0x3fc7d7ecd400cd00	0.1862770114108585
244	0xbfb5e158eddf0c81	-0.08546977813152702
245	0x3fc607e96f47769f	0.17211645062973432
246	0xbfb898830b577ca1	-0.09607714678667147
247	0x3f6d452d5a2c4dc4	0.0035730253015431052
248	0xbfa8027422c132d2	-0.04689371990443693
249	0x3fc66f9a50e50923	0.1752808470719823
250	0xbfb1dedef27550e0	-0.0698069898547291
251	0xbfb83b22c8dc78f8	-0.0946523418792572
252	0x3fc3bcea6f1a8b56	0.15420275139794154
253	0xbfb9c5c40c3bb357	-0.10067391680395353
254	0xbf9f2c8dbf1c6495	-0.030443396367534865
255	0xbfb4ecb4d195acb0	-0.08173685185254231
