hw4/theta_of_simga_220.0C_50learn10000.npy (npy, 25736 bytes, 1 tensors)

array f8 [3201]
-0.17844909897657113 0.2440049500691516 0.053969208381831994 -0.0587206553915903 -0.10347588541273077 -0.12066415353341721 -0.11158588118854378 0.1983856789685303
-0.13931387342244936 -0.09620488627565481 -0.05165710927160466 0.18866486482615383 -0.017283731430340024 -0.18842337557980993 -0.1117494628073745 0.05995459837876657
-0.19026555086416785 -0.08142288276987715 -0.17441634698440237 0.20357108529590506 0.27766630539133763 0.018633824012925924 0.08649371366033476 -0.023620041123673927
0.22888038662644863 0.286265063350468 0.2840264200475263 0.22681008738971245 -0.11782894524610359 -0.15796434456994574 -0.08811342380088868 -0.08352244511451785
0.08020245520498072 -0.11772970182183497 -0.09985335132872644 -0.14984579971560338 -0.18255653127884752 -0.19384429470257994 -0.1008710203439597 0.34532294992634216
-0.1391303689228705 0.17485152460886205 0.17055544719654248 -0.12332885494054859 0.15251749325093344 -0.15222315514425497 0.2963867886564932 0.2824470850759618
0.07963330132018755 -0.16331206692550743 0.06966942426761287 -0.05582867266797337 -0.17515370842084352 0.22987847500680442 -0.02686502623616516 0.07921671095755625
0.33415758643128474 0.1131898817868478 -0.07965326421237316 -0.1259957669676954 -0.14631417428985466 -0.11441425687099704 0.3393910622867177 0.2797717799867761
-0.01770954234549823 -0.0946311097255964 -0.07886836803662671 0.22423216312874547 0.2631563943037966 -0.05376836880738654 -0.171247623686539 0.31969097720176975
0.2680580148534879 -0.14800874308609743 0.2924645160666987 -0.10229112044701694 0.20919042044530764 -0.08070543445118154 -0.13305229188607104 -0.11265455188439384
0.06062931987539546 0.3498327095041456 0.23264379637868743 -0.15460823919039887 0.09643720528826344 0.03331138265182361 -0.014899106125383928 0.2251669623962754
-0.0799704697257099 -0.1312828140495868 0.21807863134905642 -0.015590190455295309 -0.1410070285268795 -0.13022429778343064 0.10938925380329352 -0.04976388577224693
-0.0785499243780838 -0.11912114900894623 -0.1300686779856313 -0.17769858965067456 0.07029891345573143 0.12845321673206989 -0.03563359067435183 -0.044560561256607886
0.06918105150727966 -0.042373600042588354 -0.1246643787543593 -0.12151908060463802 0.10137083879105567 -0.20477796351189287 -0.12549011689481013 -0.19051211539445043
-0.008165096650667798 0.28128298481902075 -0.18552438449072686 -0.10438674461563949 0.2001091275901972 0.14503012548354033 -0.07043784245859232 -0.15475719564196072
-0.07239908743547332 0.21530402436209253 0.06291696074976245 -0.1267774680586681 -0.09807693286702292 0.14513151342576672 -0.04366921655661525 -0.0859536883817802
0.14747383580513748 -0.14441969712842698 -0.126377763964488 -0.08603920812540801 -0.1013121337929853 0.28077223667264606 -0.14993873892079376 -0.1497318229348516
-0.025161990363663067 -0.1335740106103464 0.0867031186349521 -0.09659765863042345 0.07759263597075827 0.15933012332926114 -0.11767476719251317 0.21809890332971338
-0.01697700914929732 -0.11339023875469899 0.29208839775213896 0.18230103753523794 0.24478868311999796 -0.07391925706131805 0.007576220763198461 0.12321224283540534
0.18129698416823395 0.41614527369130844 0.2824470850759618 -0.08696331705091315 0.20357108529590506 -0.1263216090815437 0.21236810566779762 0.09550075366328725
-0.16628369714057645 -0.11012070573227015 -0.0030922479704014764 -0.03997379671551347 -0.07079161321111825 0.10990251931461152 -0.15763993580379904 -0.10893162806604308
0.10446996756311303 -0.05287172880827582 0.14580533912069077 -0.20731228830508291 -0.13994667071561137 -0.09122125150294207 0.04593161986340005 -0.06626544261261963
0.1571003158469595 -0.12107237429506752 -0.03474059400746736 0.3376308012834471 -0.1023197823700677 -0.12349337104444641 0.2938967433031725 -0.07777795272102861
0.07183609950370312 -0.05054184521774056 -0.06586161782574361 0.19657870083023532 0.047287325977039454 0.2632009484389534 -0.1259890174113443 -0.06343130986809058
-0.11991349540828024 -0.13432172131891806 0.06062931987539546 -0.10667539414985062 -0.09934264738384241 0.23426340895223158 -0.08430915044144449 -0.03900112206740164
-0.14785706313577218 -0.011836336551811832 -0.09350293023878224 -0.07528574296066896 -0.11571675855163215 0.09599902251874447 -0.11309855169923144 -0.07017195701765194
-0.16796574239227155 0.2898802563732512 0.2673202568467728 -0.0736488710969102 0.03630132861211711 -0.06063848211150299 -0.09931044544002944 0.16972299422578357
-0.08703175693678303 -0.0881289521200881 -0.16967663021082943 0.2759958759769352 -0.1466481240013121 -0.09942557264419913 0.25715932976196393 0.22276750239733076
-0.07537720432336899 0.08939843813191312 0.21845949219953123 -0.17127393692385498 -0.13902764910143534 0.16379855230097778 -0.09856889072548199 -0.11994288438371523
-0.14495197750917382 -0.10743007797843887 -0.059914960827014786 -0.07425852233910041 0.051914643156367096 -0.07792445504566692 -0.0768464974866287 -0.15105029560814254
-0.05754858836402014 -0.03408857828855107 0.35793650858374076 0.2824470850759618 -0.12450573400817805 0.26049869578300705 -0.1284791310361011 0.012365609987969503
-0.06968921813602934 0.26667290326576504 -0.09111367483952472 -0.13716283692550404 0.23359037611630928 -0.14664248734091304 -0.04587457105932372 -0.11392432265442831
00000000: f471 0d8a 6bd7 c6bf 9df7 4de0 8d3b cf3f
00000010: 6761 fb21 daa1 ab3f ac5c 033d a210 aebf
00000020: e7b6 c547 657d babf a1bd 3991 d8e3 bebf
00000030: 636f 666e e490 bcbf 5f11 95b1 b364 c93f
00000040: 9b3f 1d79 09d5 c1bf 3ff3 4428 e2a0 b8bf
00000050: 78d9 daf5 cc72 aabf 5b92 2a98 2b26 c83f
00000060: c410 fc94 d3b2 91bf 1867 f5d5 411e c8bf
00000070: 0e6e 1ae0 9c9b bcbf 1c30 907e 5eb2 ae3f
00000080: e42d 421f 9f5a c8bf a585 a44a 21d8 b4bf
00000090: 2dc8 175d 4653 c6bf ece9 e008 9e0e ca3f
000000a0: 2ad8 36e5 48c5 d13f 2693 f0c2 be14 933f
000000b0: e010 7bb7 7324 b63f 6c1b a020 da2f 98bf
000000c0: c9d2 a0d7 f34b cd3f dcf7 44b3 2a52 d23f
000000d0: 1e76 5326 7d2d d23f 95f0 dee9 1c08 cd3f
000000e0: 2bac 5aaa 092a bebf c255 eef6 2c38 c4bf
000000f0: 4e3b 90f1 998e b6bf f5b1 3f1a ba61 b5bf
00000100: 610f 2aea 2588 b43f 79b5 17a3 8823 bebf
00000110: 3a56 5a3e fd8f b9bf 8b59 9cac 252e c3bf
00000120: e0c5 c12d 035e c7bf 1dc3 21cd e3cf c8bf
00000130: 2ad0 7de5 aed2 b9bf 0c7b 1f6e c519 d63f
00000140: faba 3320 06cf c1bf 12e7 ece5 8861 c63f
00000150: 2891 eec9 c2d4 c53f c96e 9fd6 7a92 bfbf
00000160: 1053 ca76 b185 c33f dfed 8460 0c7c c3bf
00000170: 23c0 0f4b 00f8 d23f 411d 50f0 9c13 d23f
00000180: 71bc d718 d962 b43f 265d 3ee9 68e7 c4bf
00000190: 25b3 c2fa dad5 b13f 4879 9366 9395 acbf
000001a0: fb66 b8cc 6f6b c6bf b2b2 1a6a a86c cd3f
000001b0: 01af 5c64 8182 9bbf ea00 dcde 8b47 b43f
000001c0: b9b0 5b80 d662 d53f e43a 8318 03fa bc3f
000001d0: 77d1 cf04 2864 b4bf a7c4 4719 a120 c0bf
000001e0: da11 c240 6cba c2bf e802 75b3 404a bdbf
000001f0: abdf 444a 95b8 d53f 25c3 58e5 c7e7 d13f
00000200: f6dd cd44 7322 92bf c7a3 7491 be39 b8bf
00000210: f3fc 67a5 b730 b4bf d3b5 acb7 a3b3 cc3f
00000220: 5728 d1ea 8dd7 d03f 2e8a 2c13 8787 abbf
00000230: e02d a02f 71eb c5bf c01a fa24 d175 d43f
00000240: 8c7d cecd dc27 d13f 5fd6 8953 f3f1 c2bf
00000250: d3cd ef16 bdb7 d23f 00bb fd38 c02f babf
00000260: a77b 396f c0c6 ca3f b3c9 9381 1ca9 b4bf
00000270: a07d 2785 db07 c1bf 25c9 16c0 edd6 bcbf
00000280: b34b 1664 ce0a af3f 440c 99bb a863 d63f
00000290: d228 889c 45c7 cd3f 87e8 81e9 33ca c3bf
000002a0: b4aa d4d2 1bb0 b83f 9af3 2586 300e a13f
000002b0: 44a0 622c 6c83 8ebf 63da d061 45d2 cc3f
000002c0: 6a20 1ed8 f178 b4bf 6a56 6f10 e0cd c0bf
000002d0: b2e1 cc26 00ea cb3f 82b7 26f1 bfed 8fbf
000002e0: 1bb9 03b0 840c c2bf 56ec 0f96 30ab c0bf
000002f0: 1576 9e23 ef00 bc3f e6cd d3eb a67a a9bf
00000300: eda0 4e0c d91b b4bf b95f 413f b97e bebf
00000310: b153 1727 17a6 c0bf 0528 8ccf d3be c6bf
00000320: 6d98 3c0e 1cff b13f 1c12 77ae 2771 c03f
00000330: 76b8 2be5 903e a2bf eeba 9352 a4d0 a6bf
00000340: 3c06 ba71 d9b5 b13f 6b1c cb14 feb1 a5bf
00000350: afe3 b935 01ea bfbf d172 09dd df1b bfbf
00000360: 0f2c 6075 70f3 b93f cece 1c10 2a36 cabf
00000370: 1768 0466 0f10 c0bf 5f33 8e74 b362 c8bf
00000380: ca97 aab8 dcb8 80bf 6b03 2e59 8a00 d23f
00000390: 11c5 ff55 43bf c7bf 5294 42f6 16b9 babf
000003a0: 39c4 5007 2d9d c93f 847b f1de 5890 c23f
000003b0: 21ad c2e5 3608 b2bf aa2b 0d73 15cf c3bf
000003c0: 9aac cb20 bf88 b2bf 418b aa0f 158f cb3f
000003d0: a5b0 c870 531b b03f c540 977b 3e3a c0bf
000003e0: d9e5 27e3 911b b9bf f92d e45f ab93 c23f
000003f0: bebb e7c1 cf5b a6bf 9100 9298 0f01 b6bf
00000400: 173d e632 6ce0 c23f fd4b 083a 587c c2bf
00000410: 85a4 9585 252d c0bf 8186 1261 aa06 b6bf
00000420: 672f 548d 97ef b9bf f68f 881d 2cf8 d13f
00000430: c7bd 084e 3131 c3bf b67b 5691 692a c3bf
00000440: 4057 db96 10c4 99bf 1660 9503 f418 c1bf
00000450: 6392 fff2 2c32 b63f 5716 b0c8 9fba b8bf
00000460: 98a3 e769 1cdd b33f ddc0 7bf2 ed64 c43f
00000470: 8300 a8fc ee1f bebf 581b 8c34 aaea cb3f
00000480: 3a0c 52cc 6b62 91bf 9f16 2387 2407 bdbf
00000490: 09bc f888 93b1 d23f c3cf 1ef1 a355 c73f
000004a0: ca34 374e 3c55 cf3f 7e7b 9f57 5fec b2bf
000004b0: 34c1 7b46 3e08 7f3f 69e3 7169 d68a bf3f
000004c0: e9d8 ee54 bd34 c73f a7e7 38c9 1fa2 da3f
000004d0: 411d 50f0 9c13 d23f 2c73 af5a 3a43 b6bf
000004e0: ece9 e008 9e0e ca3f 0d44 e475 4e2b c0bf
000004f0: bc40 47ca e02e cb3f e027 bac5 bc72 b83f
00000500: c4d2 89c0 c848 c5bf be87 bbdd de30 bcbf
00000510: 868a edfc e954 69bf 4d1f 2e0b 7277 a4bf
00000520: 47a5 922f 661f b2bf b34a 344e 9222 bc3f
00000530: d211 69a0 8b2d c4bf 512f 0b74 f1e2 bbbf
00000540: 3a06 1936 8bbe ba3f 1da3 3ad4 0012 abbf
00000550: de82 8dd5 bfa9 c23f 0225 2a85 3589 cabf
00000560: 472d f4c2 c5e9 c1bf 83c3 e7a3 465a b7bf
00000570: 78ca 546a 5984 a73f 6c4c e0a4 c5f6 b0bf
00000580: d081 60f7 dc1b c43f f5df 0b60 99fe bebf
00000590: 761c 36e6 84c9 a1bf 999e 6838 be9b d53f
000005a0: 3266 0317 a131 babf f49f e8f5 429d bfbf
000005b0: 88d5 3849 34cf d23f 0862 4983 41e9 b3bf
000005c0: 3465 0ac2 d963 b23f 3552 94e8 9ee0 a9bf
000005d0: 4f8b 9f96 4edc b0bf c0f8 93a9 7d29 c93f
000005e0: c260 2c5d 0b36 a83f 3f93 74ca 48d8 d03f
000005f0: 49ec b77a 6820 c0bf 3307 6dc9 083d b0bf
00000600: 09ab 209d a6b2 bebf d884 1a44 7431 c1bf
00000610: b34b 1664 ce0a af3f 4159 2921 144f bbbf
00000620: f495 9c0d 856e b9bf 22b6 0ce8 57fc cd3f
00000630: c848 e6d3 4895 b5bf a8d6 927f f4f7 a3bf
00000640: bc4b 53f1 faec c2bf c6e5 2733 a63d 88bf
00000650: 53ab 74db ceef b7bf bb02 df2b ed45 b3bf
00000660: 4311 940d 9d9f bdbf 577d 2a56 6493 b83f
00000670: 18ee c5d4 06f4 bcbf bcb4 7c14 caf6 b1bf
00000680: 572a 36c5 e67f c5bf f844 38eb 658d d23f
00000690: fdc5 2d6c c61b d13f e8a0 bf04 a7da b2bf
000006a0: 117b 6176 1696 a23f ab91 18d3 010c afbf
000006b0: 29ed 50cb 686c b9bf 9e1a caaa 7bb9 c53f
000006c0: 7ac4 c195 b647 b6bf 51c0 2f77 9e8f b6bf
000006d0: e753 d3bc f6b7 c5bf 3cb7 499b eaa9 d13f
000006e0: 5c7d 4da0 5dc5 c2bf 9695 e44e f473 b9bf
000006f0: 2d17 cc67 4c75 d03f d73d b440 a583 cc3f
00000700: a5ca 6ea3 eb4b b3bf 440d 17e8 d0e2 b63f
00000710: 65b6 3f0b 7bf6 cb3f 3960 dfea 4dec c5bf
00000720: e2b1 1073 a8cb c1bf 72e6 a1d8 59f7 c43f
00000730: 3da6 1192 cf3b b9bf 26e3 d0ad 93b4 bebf
00000740: 1e3b 7251 c98d c2bf 0a2d 869f 8980 bbbf
00000750: b517 967a 2cad aebf 044e e544 9b02 b3bf
00000760: e488 145d 8e94 aa3f a8d1 fa69 dbf2 b3bf
00000770: 4c68 8449 36ac b3bf d013 d8b7 9d55 c3bf
00000780: 65ab e831 0277 adbf 933a d5e1 0e74 a1bf
00000790: 7d57 9a87 6ee8 d63f 411d 50f0 9c13 d23f
000007a0: 0cc7 ba97 9bdf bfbf 8b79 c2b8 02ac d03f
000007b0: f05f 0211 0172 c0bf 2b86 f213 2453 893f
000007c0: af2e c710 27d7 b1bf 8f5f 9039 2b11 d13f
000007d0: 8175 a7cd 3953 b7bf e12a 6945 8d8e c1bf
000007e0: c439 0a19 4ae6 cd3f 15aa aa57 2ec5 c2bf
000007f0: f5ec d52c df7c a7bf 780c 05f8 242a bdbf
