hw4/theta_of_simga_210.0C_30learn1000.npy (npy, 25736 bytes, 1 tensors)

array f8 [3201]
00000000: da94 61f6 9bfa eabf 53e7 ba53 0911 eb3f
00000010: 02dd c846 5494 f23f 0eb0 65b7 1946 c6bf
00000020: 6f96 b7f3 3597 e0bf 31f3 e0a6 7d87 ddbf
00000030: 36d3 a4f4 8b57 6c3f 7a9b d673 512f db3f
00000040: 6d8a f055 2c98 ddbf ffff 7c13 4cb0 c7bf
00000050: b04c 7c6f ed5b dcbf 5d94 873d a04b ef3f
00000060: 0afd 887c e9a4 e5bf b98c 199d 000f dbbf
00000070: 79ae 8014 a77e c6bf de71 343a c637 fd3f
00000080: 0dac 5005 a194 bdbf 2abb e0fd 5583 c7bf
00000090: 92cb 2573 e9bf d3bf 2e03 81cf c1ca e03f
000000a0: 86a0 53c2 1d21 f03f 198c 1dfb 04ad e7bf
000000b0: fad3 8e97 8e38 f03f 5d0a f2cb ce9f e0bf
000000c0: 1df6 360f 4576 db3f 00a0 9ea5 6be4 e13f
000000d0: 560e bd48 9438 f23f dfa8 7d69 4f95 d23f
000000e0: 44b2 8efa ab34 d0bf 2fd6 72ef 782c e2bf
000000f0: 15eb 60ae 63a7 ebbf 9d40 7a6f 6aba d2bf
00000100: f77f 6df9 db66 e93f 246d 828a 9bb9 dcbf
00000110: ff01 717b b1ec dfbf 1215 2643 040f d8bf
00000120: c581 608f 4f66 d3bf 4803 736c 2f58 dabf
00000130: e6ad a43a 2379 d8bf ef7b 8d92 0dfd df3f
00000140: 1d8d dba1 846e cfbf 65aa a5a5 22c7 e53f
00000150: 76cb 2e89 8e80 e83f 3654 4bac bdf8 cbbf
00000160: d3ed bd69 9a9b d93f 58a8 2978 9127 d4bf
00000170: 7abb b467 e9bf e43f 4904 527b 9db9 d33f
00000180: ffe3 bf1c 5c8d ed3f c849 d3a1 6648 d1bf
00000190: 325f b7fa 3a3f f03f dd90 46ec a80d dabf
000001a0: 1d92 9688 3690 e2bf 2f41 fa56 85dc dd3f
000001b0: bed4 e8b2 411b e9bf ec22 8de5 ccd0 e83f
000001c0: b6a9 b5ca 6956 dd3f b88e 029a aea0 ee3f
000001d0: fac5 2a8d ff70 c9bf 7d50 f86b c7f4 e3bf
000001e0: b083 3ee8 d841 d9bf 2c1b 2cf7 4aec d9bf
000001f0: 698d 778b 65b1 e33f f45c a1b4 5da9 da3f
00000200: 5e29 bf38 c898 e9bf 1c9c 5c5a a59d d1bf
00000210: ff1e 37b1 f709 cbbf 869b f88c 3fcc d33f
00000220: 2afc 7dd3 2e61 ed3f bce1 e9af 2f3e 8dbf
00000230: 9083 2852 3a5d e0bf c5f4 94e9 93c4 e33f
00000240: baf5 37ab 8601 ea3f 6ef1 ceb0 4f8d dfbf
00000250: a194 18cb 7749 f03f f7c5 59cc f7ec a43f
00000260: b4d0 1bb1 cf76 e63f 6fb6 0569 d4c5 87bf
00000270: 1b99 66e8 a1d9 b23f d8cf d335 973a 92bf
00000280: a6b6 a7e6 ed0b fdbf 0d16 819b cf27 f13f
00000290: 49f0 d077 d419 ef3f aa59 7e1c 22bb e1bf
000002a0: 80b3 29cb 2deb da3f 4366 cea5 5e12 f93f
000002b0: 9257 af01 f944 d0bf 16cb f2a0 4ac1 f0bf
000002c0: 5560 3653 50a6 d4bf f951 4b83 b9bb d2bf
000002d0: 6a9a 148c f0e7 e33f 6a5d 09c6 b9ff a8bf
000002e0: 63ba ca8f 03ef dbbf 3d44 3a06 0801 c3bf
000002f0: 1a33 7cd7 2eba d93f cca2 58e1 47a5 f2bf
00000300: 119d 5de9 8fd7 cfbf 834f 1dd7 d05c e1bf
00000310: 1701 e350 db5e c7bf c8c2 168c 6ff8 e5bf
00000320: a32c 482e 357e f33f c128 5370 8ee0 ea3f
00000330: 5106 1545 514a d73f 4488 3e9a dec5 e0bf
00000340: f494 4d52 0d95 f03f de33 f805 2e99 cfbf
00000350: c3e4 061b 6586 d7bf 1c87 6283 d4a2 dbbf
00000360: d06c fbce 8585 ed3f bc2c 8a73 a574 e5bf
00000370: 5b79 aadd 7c30 dabf 0a09 9024 e786 cdbf
00000380: 47dc e4ba c033 0740 20d7 f558 da1c e73f
00000390: 512f f89a 1529 e4bf 1bf4 be70 449f d3bf
000003a0: 8aed e5b8 c8ca e33f f809 e1e4 1a21 e03f
000003b0: b2c5 256e 1637 dbbf 08f2 5c0f 6251 ddbf
000003c0: fb19 ca1c acb7 dcbf ea43 9298 2ad1 ef3f
000003d0: 1b35 d040 05f0 fbbf 6d57 c6b8 2c20 d2bf
000003e0: ddbc 7171 0b26 c8bf 49db bbca 83c9 e93f
000003f0: 4adb b089 e050 dfbf f294 c473 bfb4 bcbf
00000400: 3fc1 b80f 182d ea3f 5d0f d863 a39a e0bf
00000410: 8ec8 e8e9 f952 e3bf 62ed 6c55 bf21 cfbf
00000420: 9fb4 3418 03d1 d9bf cecf 0da8 206c d43f
00000430: 236f 6076 6106 e1bf d5de 3e54 0119 dfbf
00000440: 462a 3b24 fb7a c1bf 0d20 267a 0092 d4bf
00000450: 0172 6c1c 427b ee3f 3ec2 f3de af8c c0bf
00000460: d7c5 ff85 b306 f23f 71a5 e121 3577 e53f
00000470: 6848 b64b ed80 96bf d931 c13c a4fa e83f
00000480: 8314 3df0 78a0 e4bf 5548 4b95 9226 c3bf
00000490: ed0f d397 65f2 ed3f bf02 d82a 5278 e63f
000004a0: b304 dbf2 6fbc f03f 817e 82ea a354 d6bf
000004b0: 7b19 cc4a 7ee0 d6bf 7715 714d bb5e e13f
000004c0: ffde 95e6 07d7 e33f a207 2b09 df93 f73f
000004d0: 4904 527b 9db9 d33f 7fd4 7dd0 7110 d7bf
000004e0: 2e03 81cf c1ca e03f 928a 5265 576b dbbf
000004f0: 3118 4f4b eece e73f 7163 d62e dc71 f9bf
00000500: d0c5 b0db 4048 dfbf a21f dba2 2095 d8bf
00000510: 9edb ccba e059 b0bf 6ec8 4afc e388 ddbf
00000520: dc1a a63a dcb9 cebf b888 ee3b b661 f03f
00000530: 9d00 c154 c618 d2bf 27ed 27d0 5d83 b4bf
00000540: 538e 2635 4724 e23f fbd2 3c6f fb84 dcbf
00000550: 1957 493b 6a76 e23f 8324 7afe 3fce e5bf
00000560: 1019 5585 4957 dcbf fe50 f71a 3a54 e0bf
00000570: 76ce 9d2b dcd4 c8bf 1ce8 de27 91b2 d2bf
00000580: b42f e8f7 9cc2 8b3f 2f57 1702 6de5 dfbf
00000590: 1b2f 5517 330c d0bf 8bf5 e727 cdbd ed3f
000005a0: 9690 df57 419a d3bf 8990 45a3 3e3b d9bf
000005b0: b7b2 729b 2d31 f33f 1018 0aa7 04df c5bf
000005c0: 8353 3162 cf86 f43f bd9f d395 495a c2bf
000005d0: f8df 75e1 1620 e0bf 8944 b394 7ab5 b53f
000005e0: 94e4 ce1c e256 fb3f 84d1 1a2e 67a7 f73f
000005f0: dd70 2af0 51c3 d5bf cdef 7c57 b093 f0bf
00000600: dbb1 4ad3 4836 d13f 2e40 2df1 4165 debf
00000610: a6b6 a7e6 ed0b fdbf 73bc a851 769a e3bf
00000620: 2c2c 22f1 53ba 883f 9f12 a53d 359c f23f
00000630: 6e73 6d1c d877 d4bf f76c 7cfe 6cc7 e4bf
00000640: 4fab 0987 0800 cebf 0685 2607 377b d7bf
00000650: 5449 3350 3c48 d8bf a1f9 ecd0 1fa5 d4bf
00000660: dbf6 090b 7b7b ddbf 2289 b035 af4e e13f
00000670: e4b3 665f c450 d9bf fcfd 1738 6b3b cfbf
00000680: 205d e091 53d2 e2bf cabf 6715 5b35 f23f
00000690: 8d06 eeac b6a6 f03f 06ed 4c69 a293 d7bf
000006a0: 276e 5ea5 ab06 f33f b820 cc92 b9ac a8bf
000006b0: 2a21 e898 79da 9fbf bcda fa50 e35b e83f
000006c0: 968e 7b09 118c c7bf efeb f9b5 0c20 c8bf
000006d0: 4b2f cf0f 5242 e2bf 7dda d6f5 1767 e53f
000006e0: c74f 54f5 afdf d1bf c876 8874 373b b5bf
000006f0: ce08 cbe4 49d9 e03f 502b e2e1 5476 ee3f
00000700: 0ef2 19c9 396d c6bf d831 c2da 51ef de3f
00000710: 0c09 5f4c bfcd e93f 092f f040 0d10 e5bf
00000720: 622b 4145 d514 bdbf 28d3 34ba dbe9 e53f
00000730: a4d7 ff9b c78e cdbf 9eb5 6a39 57e1 e1bf
00000740: 1c4b 4a70 1093 dabf babb eb97 b71b d2bf
00000750: 0b9d 9da0 92ac a2bf 940d 3d21 1b0b e4bf
00000760: b1f7 f8d4 1916 ee3f 2f3d 5492 319d dcbf
00000770: 3c66 288a 12dd cebf 5f89 9380 f940 e6bf
00000780: 7a7f 41d0 e496 abbf a65c f25c a081 d4bf
00000790: 591a 86e0 b968 ef3f 4904 527b 9db9 d33f
000007a0: 865a f472 6ca0 dbbf 9e57 18a9 f7a6 cc3f
000007b0: 10af 6795 7cef d03f 6587 087a 5246 bb3f
000007c0: 97f8 b00a 2db2 cbbf dc0e c420 5f54 e73f
000007d0: 8351 cc53 71ef d0bf eb8b 9695 d08f f0bf
000007e0: 7cf6 f559 2240 ea3f a7d2 e8b3 e970 e0bf
000007f0: b17d ae79 8647 d2bf d5ec 9b4a c7fa c2bf
-0.8430919468052267 0.845829642806374 1.161213184835845 -0.17401429610197322 -0.5184583435154319 -0.4613947038340483 0.0034597142704576823 0.4247630721314902
-0.4624129142049814 -0.18506766273094397 -0.443110808251002 0.9779816819906376 -0.6763808662725819 -0.4227906736543435 -0.17574013234240107 1.826116778719658
-0.11554914836658288 -0.183695553745076 -0.30858837361227487 0.524750619202768 1.0080850211034273 -0.7398705391500499 1.0138078613501862 -0.5195077880201314
0.42909361348924496 0.5591333613165261 1.1388132897708565 0.2903631715950165 -0.2532148310517963 -0.5679287602167217 -0.8641832738715914 -0.2926279152534422
0.793806063808005 -0.44882858778301427 -0.4988216119272976 -0.3759165435552215 -0.3031195545354673 -0.41163240042447 -0.38239365317232765 0.49982013046059043
-0.2455602445907993 0.6805585131927044 0.765692966399327 -0.21852847016148907 0.40012226415975966 -0.3149150536979781 0.6484267259128125 0.3082040504742208
0.9235058366313068 -0.2700440006566649 1.015437106476338 -0.4070837314013838 -0.5801041286218297 0.46658452505018294 -0.7845772260976884 0.7754883273529152
0.45839924617635164 0.9571145065314886 -0.19876093285488122 -0.6236302479542385 -0.3946439998635993 -0.40504717004698665 0.6154048656430123 0.4165872825592054
-0.7999001606306526 -0.27524694275274597 -0.21124168541995655 0.3093413235350727 0.9181131487565655 -0.01427876716228204 -0.5113803486493556 0.6177463113923741
0.8126862854111814 -0.4929999567646267 1.0179365094602775 0.040870422072554584 0.702003332057322 -0.01160779901030226 0.07363330768439307 -0.017801630649912997
-1.8154124269453091 1.0722194742569429 0.9719030704650403 -0.5540934139742622 0.4206041797650002 1.5669847943121489 -0.2542097584204096 -1.0471903121039694
-0.32265098692142163 -0.2927078039331544 0.6220629440256975 -0.04882603208960286 -0.4364632515161359 -0.14846897415239538 0.4019887070033278 -1.1653517534816045
-0.24876593489464274 -0.542580051560876 -0.18258229684398294 -0.6865766273604885 1.2183124359023985 0.8399116700977843 0.3639109778051522 -0.5241539967139563
1.0363896574938822 -0.24686217586022868 -0.36757781638477754 -0.43181336241296875 0.9225491564387998 -0.6704890495906493 -0.40920945784627855 -0.23067940984044127
2.900269947156207 0.7222720849519852 -0.6300151850459575 -0.3065959073099422 0.6185039149562936 0.5040411443990811 -0.4252372813853881 -0.4580922269849741
-0.4487104684016285 0.9942830066594273 -1.7460987598199782 -0.2832137875023964 -0.18866103209754828 0.8058489761013813 -0.489311346496312 -0.11213299347271624
0.8180046374382427 -0.5188767385557004 -0.6038789337674346 -0.24321738883177618 -0.4033820854554708 0.3190995827819706 -0.5320288955731239 -0.4859011957846467
-0.13656558293435433 -0.32141124657255277 0.9525461726330492 -0.12929342638337177 1.1266360506382307 0.6708017026659673 -0.02197619223222383 0.7805958925833308
-0.6445889179382366 -0.14961464204549438 0.9358394589730757 0.7021876179497538 1.0460052000565099 -0.348916033757611 -0.3574519854013471 0.5428139221700538
0.6199988845464474 1.4736013754013375 0.3082040504742208 -0.3603786979723011 0.524750619202768 -0.42842659849899534 0.7440101118925267 -1.5902978734577256
-0.4887849946418017 -0.3841020193472052 -0.06387142715980906 -0.46148013723280357 -0.24004700530732392 1.023855432613841 -0.282762129561897 -0.08012949306423832
0.5669284856889568 -0.4456165872864372 0.5769549520434537 -0.6814269991165393 -0.4428275873255112 -0.5102816130334131 -0.19399597291668486 -0.2921488656389799
0.013554788890381399 -0.4983780403539297 -0.250744602952851 0.9294191150108174 -0.30628999310852956 -0.39424100822930846 1.1995063850583116 -0.17086847454282905
1.2829126201297363 -0.1433803540778608 -0.5039171603702917 0.0848003972089534 1.7087117314643239 1.478369884583203 -0.34004639104547413 -1.036056844473012
0.26893826135599647 -0.4749302726022532 -1.8154124269453091 -0.612605247011642 0.012074142261800778 1.1631367118836022 -0.31981470848204807 -0.6493439646177696
-0.23437601655617832 -0.3668954438999922 -0.37940891105713104 -0.3225783863344081 -0.46066165998477765 0.5408550308823445 -0.39555463139077873 -0.24400081862403045
-0.5881746148251388 1.1380263172286385 1.0407015566892455 -0.3683858898472895 1.1891285381051462 -0.04819278637848029 -0.031106853444755313 0.7612167913092303
-0.18396199191112278 -0.18847807775077238 -0.5705957707191173 0.668834667353465 -0.2792777915758475 -0.08293482394261809 0.5265244930854125 0.9519447719370451
-0.17520830459024278 0.4833569179834547 0.8063656322122212 -0.6582094448399128 -0.11359913769517285 0.6847971569864955 -0.23091979138524465 -0.5587574120924506
-0.4152260872444218 -0.2829417213060271 -0.036472875696569394 -0.6263557099522807 0.940197864496204 -0.44709433832118156 -0.24112159486758056 -0.6954314719444418
-0.053885603353363856 -0.3204117686922906 0.9815339455825082 0.3082040504742208 -0.4316664812662697 0.2238454414043049 0.2646171053918218 0.10654178122834208
-0.21637499830280113 0.7290492668111841 -0.2646144216862682 -1.0351110308918077 0.8203288800284123 -0.5137833131653523 -0.28561555750817563 -0.14827815192243202
