hw4/theta_of_simga_200C_10learn10000.npy (npy, 25736 bytes, 1 tensors)

array f8 [3201]
00000000: b355 1ba1 6897 ccbf 8b4c 58a2 0f0b b33f
00000010: 6976 2388 5922 593f b0ed 89f8 fa4d 95bf
00000020: 679e 3e91 45fd 9ebf e81b 7989 7419 a3bf
00000030: 1767 5415 7b1b 99bf 49b5 e0b7 c2fb ad3f
00000040: 2600 c1d1 f200 a8bf 8dca ecf6 094f 9cbf
00000050: 40c3 db5c 33a2 91bf 67eb b063 09bd ae3f
00000060: 9e27 6ebc 0056 8fbf 8c9a 4a9f f846 abbf
00000070: 527d 31ea 9dd0 a0bf 6c84 183d 325f 8c3f
00000080: 81cc 8226 7ef8 a8bf aced 9cbc 3c79 a1bf
00000090: e27e b700 e23e abbf f791 0c43 4072 ae3f
000000a0: 5a02 36cf d43d b73f 1a68 cd80 8d17 67bf
000000b0: 2373 a926 ccd4 953f 752c 6948 4281 81bf
000000c0: b11b 90bb a4cf b13f 35d1 5efd e8b0 b53f
000000d0: 96f9 a195 b69c b53f 6a82 8332 067c b23f
000000e0: b9ed 130f 6fec a0bf 57f2 da40 697e a7bf
000000f0: 47c4 9cc7 fac7 99bf c6f7 c45a aa30 98bf
00000100: ac6d b665 d1bc 993f 74c5 3f6d a7df 9ebf
00000110: 863e 1c2a 0014 a0bf 4359 9865 1f14 a5bf
00000120: 9b7c 68a7 7dfa a8bf 3cf0 f172 ff9f a9bf
00000130: 10c3 cf5a 35ec a3bf 391b 7886 741a bd3f
00000140: aee7 177b 0b50 a8bf b1f3 8eb6 9384 a63f
00000150: 6244 aacd b901 a83f 5b02 8f29 b42c a3bf
00000160: c4f9 702e 1a2c a13f 4b46 8f41 dd98 a3bf
00000170: fe75 5e64 3738 b83f ceee 2ba1 0376 b73f
00000180: 07e0 9a06 75f5 8b3f 7fbd eb77 2dcf a7bf
00000190: 4c22 6fa8 609a 853f b753 cfc6 2fe6 90bf
000001a0: e48a 6cff 1de8 a9bf 9f14 f95d bd99 b23f
000001b0: 94d0 907a fe20 91bf 86a5 ed1c bc9c 9b3f
000001c0: 4d0d 73a4 b570 ba3f 17e2 2f01 ebe0 9a3f
000001d0: b481 c20e 8ae8 98bf 797f d256 0f5e a3bf
000001e0: 98db 967d a9ec a3bf c357 dd9d 8b65 9fbf
000001f0: fa4c d439 0166 ba3f 8dac 604b c416 b53f
00000200: 8776 c98c ffec 90bf 3196 3221 ca4c 9abf
00000210: 6123 9e16 8487 98bf 4ed5 5e86 bf68 b13f
00000220: d14b def9 ed38 b53f c81a 82c5 c3f8 94bf
00000230: 87da 4c72 2273 a7bf a18e 1da5 8e0d b93f
00000240: da64 9efa c838 b53f e4d5 e5c6 1426 a6bf
00000250: 516e c04f edbc b73f c208 f6f3 5bef 9fbf
00000260: 9a33 99bb 9d4b b03f e714 2b22 68fc a1bf
00000270: a056 03d4 e38a a1bf 36ad 6fdc 2114 9abf
00000280: 150e 5eb8 7ed4 863f 8ade 98ab 21b1 bc3f
00000290: c7fa b6d0 d3b3 b03f 5de5 0662 e695 a6bf
000002a0: 3ae6 3cdd 5feb 993f 87a8 f9e8 39d2 5abf
000002b0: 0cca 98fb 3327 84bf bb65 0f19 f1b1 b03f
000002c0: 919b dda6 2a96 9bbf f339 c467 efe2 a5bf
000002d0: 7548 4f89 8455 b13f b415 d1d2 bde3 74bf
000002e0: 1f9a c8de 93b5 a3bf e2c5 2bfe 66d3 a5bf
000002f0: 3c31 201c eb8f 9b3f e9f2 23a6 38ce 93bf
00000300: ff62 0528 ff67 9abf a96e b70f d039 a1bf
00000310: a1b7 b5cf adc2 a0bf c2da e0a2 0a17 a9bf
00000320: 0b45 0923 4cfa 913f c0a9 ba0c 6ab0 9b3f
00000330: 183b 6765 ff6a 89bf fbc9 3211 c62f 90bf
00000340: dbd8 1f81 c98b 753f 1c4c ef61 1c20 86bf
00000350: cd52 d53d b9d9 a2bf 3a07 fb93 f16e a2bf
00000360: e572 0c79 420d a23f 2f24 7ebe 3e89 acbf
00000370: 7831 c852 12a8 a2bf e9e2 e4d8 c7c6 aabf
00000380: 4a87 dfd8 a737 6ebf f95d d5e5 886f b43f
00000390: d561 67c1 bb88 aabf 4c6e 798b f71f 9cbf
000003a0: 7930 eee5 65c1 af3f c810 8b22 4e95 a63f
000003b0: 305a 06e6 2d5c 94bf a3b8 50a9 91fd a4bf
000003c0: 6e13 7fa0 8b6b 92bf e9e5 3d60 1a16 b23f
000003d0: 9fcf 353f 066a 883f bf23 91a8 ed0d a5bf
000003e0: 7fdc 50f3 0087 a0bf 6cee e115 5781 a63f
000003f0: 8d49 b14b ec6c 94bf d119 d5c0 09c6 9cbf
00000400: 8485 0a0d 24fc a83f fd96 f6cd e64b a6bf
00000410: 681e a283 fcc4 a2bf 2942 0726 f80c a0bf
00000420: f511 3cbe 1319 9ebf 97e1 7b41 285e b63f
00000430: 5b31 e69f 022e a5bf 639e bbd4 c244 a4bf
00000440: 8a9c 78ef ccc8 80bf 02bb e3fb a059 a4bf
00000450: a666 66c8 51e0 903f 2856 742f c6f7 a0bf
00000460: 1109 9d19 5b32 883f 9eba 43c3 c36a aa3f
00000470: a9cf ef53 07aa 9dbf 84ca 1d21 e017 b03f
00000480: 2a82 18cd fbad 8fbf de5b 46e8 57b2 9dbf
00000490: 072c 9d61 b935 b63f ef48 3d31 a5ba ac3f
000004a0: 0829 9fa2 fdb6 b23f 6a19 e526 7214 97bf
000004b0: 963f 5255 5035 693f 3389 05cc 055d a13f
000004c0: 6ba6 39a8 1a72 ab3f 5640 ebd6 14a1 c03f
000004d0: ceee 2ba1 0376 b73f 810b cd0a 2ce7 9dbf
000004e0: f791 0c43 4072 ae3f 06bb 5fb3 d223 a4bf
000004f0: bd4c 3ca9 a8a9 b13f 39bc ecd9 fe43 983f
00000500: 2ae4 5469 aae5 a7bf 0fa0 7ffa 26a1 a0bf
00000510: 8062 a4cc ff10 68bf dbab 9be1 0181 93bf
00000520: 074a b991 985e 93bf efd5 3ced ed75 9f3f
00000530: cae6 166b 531d a7bf 3dda 3767 f495 9abf
00000540: 981b f735 113e a03f 1cbb e9ac 21e8 97bf
00000550: e123 c6d5 1a08 a63f 1502 8c1e c34e afbf
00000560: 5529 f8d8 597c a4bf 4a01 2ea8 7540 9dbf
00000570: e53e 6feb c2cf 813f c2b2 4040 6cce 97bf
00000580: b71b 1616 ccb6 a33f de77 d925 3b3e a1bf
00000590: 9ebc 126b 6c06 87bf ecad 7f84 c57c bb3f
000005a0: 58d3 241a 54eb a0bf 4428 b861 8289 a3bf
000005b0: 5bb1 4be1 d3f3 b63f e1f9 b73e 9154 96bf
000005c0: c251 1f57 ebbc 873f facb 23b9 51fe 8dbf
000005d0: 096e 14a5 07e7 95bf 2820 af38 ec3f ae3f
000005e0: b0f2 5751 892e 8a3f 1086 820d 0857 b63f
000005f0: 67c3 be64 af47 a2bf 058e 4fdf 1a4f 97bf
00000600: 1760 4b7e 090a 9dbf de12 f831 452b a6bf
00000610: 150e 5eb8 7ed4 863f c1b7 b98e 1b46 a0bf
00000620: e3b5 9388 7bdc a0bf 1c37 26ac 6305 b43f
00000630: 436d b500 ea8e a0bf 594a f7be 89ca 95bf
00000640: 80f3 1ecc 661e a5bf d812 dbd6 143b 64bf
00000650: f09c 3bd0 b8bf 99bf 0da8 efd5 cd55 9dbf
00000660: 0365 6a3f c6d2 a1bf 2b27 d927 2e52 9b3f
00000670: 06fc b19e 3f13 a1bf 10ef 4b2e 57b8 95bf
00000680: ddeb ba5e fce9 a5bf 28fd 8428 4e99 b63f
00000690: 28d0 528e 340c b33f 5abe 1a84 a7cb 95bf
000006a0: c4d4 f883 eff6 43bf 3607 a166 65a8 9cbf
000006b0: 0a34 4428 d5ec 98bf 5d4e 32ff b933 a93f
000006c0: beb7 c42e ba0a 9ebf 4093 e2e1 7b4b 99bf
000006d0: 1c32 6c18 7f64 a7bf ad21 b9ec 009a b53f
000006e0: ff68 9c49 7018 a4bf c61e 25b3 b944 9cbf
000006f0: 3748 9406 11ed b33f a10f 7c9e 359c b13f
00000700: 6865 15ca 65be 95bf 8c4b 9939 73a0 8e3f
00000710: d25a ba75 29aa b13f 6ed0 e2c6 694a a7bf
00000720: 0fd4 7a86 fd78 a3bf c7b7 ff96 166c a93f
00000730: 54bc 5588 687b 9fbf c83a fa4d baee 9fbf
00000740: 8a90 64a6 b06e a7bf 2d3f 4476 ed23 a2bf
00000750: 7c1b d2de 76e6 8dbf bc2a bd8d 5956 96bf
00000760: 9dcd 8263 fd5e 703f d6f9 a83f 4428 97bf
00000770: 27ac 2a4f 9300 9dbf 0c46 11b2 5bd0 a7bf
00000780: afe9 c11f e3fb 92bf f4d2 37f1 1c6a 7fbf
00000790: e337 24d3 cb79 bd3f ceee 2ba1 0376 b73f
000007a0: 8b19 be0f 049d a2bf c52e 1c6e 0261 b53f
000007b0: c066 649d b011 a1bf 20f0 1d1f 42ad 533f
000007c0: 6429 ee22 e1d2 96bf 2e3a 28c6 fd40 b53f
000007d0: 3bc2 6dbc 3143 a1bf 58bd b70b 7764 a3bf
000007e0: fc0a 4665 dbdd b23f 9663 7652 b2b7 a4bf
000007f0: 0c3e bdfc 1848 8cbf ed80 ec7f 2479 9cbf
-0.22337062708417718 0.07438752854823087 0.0015340685209176647 -0.020805283946612796 -0.03026303004267419 -0.037303582936651314 -0.02451889341055055 0.05856140608407629
-0.046882236580586586 -0.027645259567359793 -0.017220308821325192 0.06003598539287829 -0.015300756216465147 -0.05327584213710165 -0.03284162029080541 0.013853447427267983
-0.04877084941963351 -0.03412809183506779 -0.053214132869241274 0.05946541613073813 0.09078722056256919 -0.002818848012265296 0.021319570407615573 -0.008547323069384863
0.06957463816807664 0.08473068414497649 0.08442250397818038 0.07220495923275796 -0.03305384692245234 -0.04588631550493421 -0.02517692416512698 -0.023623143949627744
0.025134345849080184 -0.030150047343288702 -0.031402592792912506 -0.04116914858984668 -0.048786093411984775 -0.050048811704045154 -0.038911502204319715 0.11368492396296127
-0.047485693718001584 0.04398023227211157 0.04688816676674247 -0.037450437615466035 0.03353959862623726 -0.038275636914147336 0.0946077938119387 0.09164450344899963
0.013651766075199146 -0.046502514733101734 0.010548358097268416 -0.016503092297927426 -0.05059903853386574 0.07265838188421235 -0.016727424841704933 0.026965083375591024
0.10328231110456905 0.026248619029475586 -0.024324566985002696 -0.03782699522821437 -0.03891496332237593 -0.030660802374164364 0.10311896955345282 0.08237864341997377
-0.01652907654567184 -0.025683553959103548 -0.023954452400661966 0.06800457983520866 0.08289992666531922 -0.020480212144799365 -0.0458002819563506 0.09786311656130887
0.08289772146817445 -0.043259286193386065 0.09272654721319752 -0.03118652035255632 0.06365381078758361 -0.03512883584111553 -0.03426277125406085 -0.025467423514709618
0.011147489549109083 0.11207781257041396 0.06524394841742796 -0.044112395731142874 0.025311944845475255 -0.0016370358970570224 -0.009840398898721701 0.0652151762182233
-0.026940027651473356 -0.04274700299912473 0.06771114685332853 -0.00510000371747792 -0.03849470228697193 -0.042628496672374686 0.02691619261899912 -0.019341359272391143
-0.025787340943995037 -0.033644201200983055 -0.03273528252144265 -0.04900391805897676 0.0175563713440328 0.02704015448277075 -0.012411113054353204 -0.01580724220247907
0.005260264517337822 -0.010803434122783222 -0.036817349241265875 -0.036002682985339665 0.03525741317409884 -0.055734596971042875 -0.03643853436014671 -0.052297826029137635
-0.0036886480584009994 0.07982688532990058 -0.05182444320570637 -0.0274656943205243 0.06202238494651708 0.044107858387663124 -0.019882886089897578 -0.04099707786404962
-0.01798837821094728 0.07064976548817693 0.01192097549822063 -0.041121889903088064 -0.03227999658741342 0.043955537244042414 -0.019946758384614283 -0.028099205393368912
0.048798681823664786 -0.04354783310126995 -0.03665913683749694 -0.03134894813741013 -0.02939253662681725 0.08737422560432716 -0.04136665536779801 -0.039587105244035546
-0.00819549661453169 -0.0397463138086689 0.01648071084637217 -0.033140366833475376 0.011814796179923566 0.05159580000496543 -0.02896892022904721 0.06286431129937325
-0.015468566128277923 -0.0290006385344802 0.08675726540711547 0.056111490498226384 0.07310471744782288 -0.022538932441670857 0.003077179814290741 0.03391283145426129
0.053604920420934864 0.12991581434335114 0.09164450344899963 -0.029202163848150334 0.05946541613073813 -0.03933580817817099 0.06899503833510585 0.023696882296629893
-0.04667408500467503 -0.032479494169649674 -0.0029377933580117532 -0.019046811480546082 -0.018915542501710927 0.030723302464329135 -0.04514561350101827 -0.025962656783997885
0.03172353538280176 -0.023346449068806327 0.04303058490319934 -0.06114778278243108 -0.04001122258712778 -0.028566206350207048 0.008697054681675318 -0.023248378202128668
0.03850400704964534 -0.033677910204218384 -0.011242720620741328 0.10737261280853944 -0.03304541415346901 -0.038158487728722906 0.08965801477797213 -0.021806973889391904
0.011590803715002877 -0.014645231688040983 -0.021389121485396987 0.059081441802448176 0.01278407363405995 0.08726549463110467 -0.03570316414641788 -0.022762699012572458
-0.02835860093441064 -0.04329887614225013 0.011147489549109083 -0.03178487889532234 -0.03293214838218341 0.07820723488677256 -0.03234034784937958 -0.021280433922422713
-0.04124757043562166 -0.002469578458518345 -0.02514542361214195 -0.028647628958346206 -0.03481120609394319 0.02668068044866982 -0.03334997951696299 -0.021211015892716623
-0.042800795139065186 0.08827675332303342 0.0744049880475478 -0.02128469222833327 -0.000609271002707822 -0.027986130131700558 -0.024340944845835856 0.04922276725951911
-0.029337796310919144 -0.02470201078598966 -0.04568860219123769 0.08438115863203306 -0.03924895189830301 -0.027605916556494824 0.07783609781861932 0.06878981703999766
-0.021234121760561747 0.014954471774364618 0.06900271534173477 -0.04548960259254008 -0.03803245798682308 0.04965277283905283 -0.03074420292017195 -0.031184111604086323
-0.045766372977852646 -0.03543035572704265 -0.014599732088994115 -0.02181377341848177 0.003996839332262606 -0.022614542375089496 -0.028322507578803304 -0.0465115218036197
-0.01853899842579104 -0.0076695566708522185 0.11513971237965807 0.09164450344899963 -0.036354185983373 0.08351149738535486 -0.03333808823863427 0.0012009759634272824
-0.022288816220262034 0.0830229386121821 -0.033715776683383734 -0.03787586229361278 0.07369776937961697 -0.04046399361249724 -0.013809390271176468 -0.027805872257091236
