hw4/theta_of_simga_220.0C_50learn1000.npy (npy, 25736 bytes, 1 tensors)

array f8 [3201]
000000 61 cd b6 14 8f 99 ba bf 72 40 72 ce fd 25 a4 3f
       -0.10390562301363594 0.03935235161873231
000010 23 c9 f2 8e a0 fd 5d bf 64 a6 b0 ba 2d a0 87 bf
       -0.0018304889634178166 -0.011535985240772102
000020 3c 7f 22 f0 8b b5 8f bf 16 7e 1e 59 03 59 94 bf
       -0.0154829914720832 -0.019870807947539225
000030 20 40 ff f5 7e 9d 8d bf de b7 0c e8 85 11 a0 3f
       -0.014460555917963858 0.03138369043004706
000040 76 23 2d 9d c6 e2 9c bf 16 6a 5c ce 48 97 8b bf
       -0.028208831160813706 -0.01347214584125304
000050 92 e6 98 40 33 ce 7f bf 96 9f c7 65 fc dc 9f 3f
       -0.00776500721399888 0.031116431915421204
000060 7a 66 8c 52 5a b7 84 bf 31 b4 14 9c 76 28 9e bf
       -0.010115342754534174 -0.029451230312748492
000070 28 63 e4 00 9b 77 92 bf 72 b5 99 9f 09 f5 7a 3f
       -0.018034383706523688 0.006581342307624071
000080 c4 e8 77 83 71 9e 9c bf bd 5d 3f 83 3a 19 96 bf
       -0.02794816365165144 -0.021580614338601246
000090 55 72 53 a3 3f 2e a1 bf b7 5a 1f a5 27 d2 9f 3f
       -0.03355597370839251 0.031075114682461016
0000a0 9d 60 69 49 a3 9e a7 3f 12 95 25 a0 8e 5a 5c bf
       0.04613218566072528 -0.0017305748775354218
0000b0 1b 60 e6 fb 28 03 87 3f 79 42 b3 a8 a8 8c 65 bf
       0.011236496150374411 -0.0026305479164892534
0000c0 15 bb 7f 75 75 ec a2 3f 19 00 23 9e 7a c9 a7 3f
       0.03696028765977225 0.04645903759364973
0000d0 e9 72 42 ec d6 11 a7 3f ab a5 9a 58 72 ea a2 3f
       0.045057979908255615 0.036944936099938396
0000e0 10 14 9d 6b 27 25 92 bf f7 5a e0 5b 32 62 9b bf
       -0.01771985620804989 -0.026741778238000582
0000f0 13 0a d0 fa 61 83 8c bf c0 9b 8f 58 13 58 88 bf
       -0.01392246767682529 -0.011886740818182306
000100 4f d7 8b bc 62 f9 89 3f ec 6d dd 26 1c 9b 90 bf
       0.012682696703887024 -0.01621669757092363
000110 de f8 56 97 9b 8e 92 bf 5c cb e3 98 1f 3c 96 bf
       -0.01812213050083577 -0.021713727671293412
000120 a5 7f b4 64 09 b7 9d bf a8 31 9b 5b 4c 6d 9d bf
       -0.029018542071866844 -0.028737252322388024
000130 48 32 64 1b 09 d0 98 bf 2e 3d 76 9a 0e 93 ae 3f
       -0.024231092736089616 0.0597157062103356
000140 51 78 09 60 1e 04 9e bf df 5a 0a 15 2b c8 96 3f
       -0.02931258641398699 0.02224795642777166
000150 f3 5e b4 84 01 15 99 3f 2f b5 ff 89 a5 0e 95 bf
       0.024494193768162153 -0.02056368498590649
000160 a6 c4 a8 e0 7e 06 93 3f 45 30 e7 18 22 ef 95 bf
       0.018579466306793656 -0.02142003323551502
000170 f4 4c 2a 1c 4f 8f a9 3f 1a ed 92 c9 1a f7 a5 3f
       0.049921486080302474 0.04290088377589481
000180 b6 2c d5 67 52 98 79 3f a1 0e 60 96 5f 7a 99 bf
       0.0062487811058630684 -0.02488087992970967
000190 b5 9d 36 74 06 0e 72 3f 06 2b ff 09 40 03 82 bf
       0.004407906733298207 -0.008795261674000365
0001a0 b2 a8 89 cd eb fd 9c bf 48 1c fc 43 18 78 a3 3f
       -0.02831238214495419 0.03802562551396044
0001b0 3a 45 81 22 b9 8b 83 bf 4f 3d 56 69 cb 20 8d 3f
       -0.009543844571597949 0.014222706939817668
0001c0 10 04 03 a2 5d c0 ac 3f 64 ec 69 5c 1a 71 89 3f
       0.05615513422663565 0.012422758050197831
0001d0 ac 4c 46 14 93 fc 8a bf 97 d8 19 ab 3d b0 95 bf
       -0.013177060180885235 -0.021180118148969553
0001e0 62 60 73 a9 e7 36 95 bf 7b b8 cd 73 d0 94 90 bf
       -0.0207172581839078 -0.01619268137749728
0001f0 0e 2b a2 4b 36 fa ac 3f 2d cf 8e 44 ef e7 a6 3f
       0.056596466763116124 0.044738270872953435
000200 7f bf 2c 08 ab 39 85 bf b7 0e 3e a3 1b a3 8b bf
       -0.010363899409270292 -0.013494697493804038
000210 d0 a4 bb a0 99 38 8b bf 8e cb 1f 33 be da a1 3f
       -0.013291549890214333 0.03487200140070633
000220 5d f9 5d 13 0f 3f a6 3f 5a 8b 5e d8 bd 6f 87 bf
       0.04344985114493014 -0.011443598905150832
000230 5f 70 c3 3d ef 6e 9b bf 98 51 49 b2 8f 2b ab 3f
       -0.026790369171849068 0.05306672145221397
000240 00 3f e6 4f 0a 79 a6 3f 8a 39 28 a1 7b e2 99 bf
       0.04389221406301935 -0.025278026305437552
000250 99 99 0d 10 1f 76 a8 3f 5c 7a 33 40 6f e0 91 bf
       0.04777619429551123 -0.01745771245338755
000260 5f 59 f0 b1 f9 29 a1 3f da f0 6a 6b 3d 32 97 bf
       0.03352337166886587 -0.02265258758664932
000270 b6 ac 19 2c 34 b3 94 bf 45 eb d0 f1 e5 3a 8f bf
       -0.020214858237903775 -0.015249058191434304
000280 de 54 8d 5e 6d 28 7f 3f d6 84 c1 82 c3 14 ae 3f
       0.00760691378021258 0.05875216456548464
000290 8d c7 80 b0 a9 f1 a1 3f ed a5 26 55 15 37 98 bf
       0.035046866222173546 -0.023647626230433195
0002a0 88 aa 51 9a e7 b0 8a 3f 9b 60 fb 31 9a e8 6b bf
       0.013032731434767145 -0.003406811869222604
0002b0 1c 72 98 25 6a 6f 78 bf a2 67 4f 10 84 61 a2 3f
       -0.005965628276979131 0.035900237074840705
0002c0 5b 83 ca 85 9a 7b 8f bf b9 e2 06 d6 45 61 99 bf
       -0.01537247391508039 -0.024785128772893048
0002d0 7a fb a0 69 5c 8e a2 3f 9b 2e 3d 99 a8 76 59 bf
       0.03624237813391225 -0.0015541693182567265
0002e0 ae 57 e9 94 48 43 96 bf e3 d6 f4 2e 2d e5 99 bf
       -0.02174104126819259 -0.025288301459304285
0002f0 e4 61 44 f1 81 04 8c 3f c0 5a 1a 74 b3 92 72 bf
       0.01368047254122557 -0.004534436216678983
000300 2c 35 f1 df 16 40 8e bf b2 53 cf 79 96 0e 92 bf
       -0.014770678242849465 -0.017633773026165485
000310 b5 74 b4 d2 4d 20 94 bf ff 6e 18 cf 4c 10 9b bf
       -0.019654479966551636 -0.026429367199042094
000320 ae 68 f6 4c b2 37 82 3f ef 27 b0 40 3d 17 8a 3f
       0.008895295118055504 0.012739637886642867
000330 26 9e e9 4c 77 31 78 bf fa f9 89 03 f3 e4 82 bf
       -0.005906549470274613 -0.009225748582363903
000340 fa 73 e7 81 59 95 43 3f 99 39 e7 3c 2b 80 77 bf
       0.0005976378486668426 -0.005737465761241367
000350 89 5f dc eb 64 f5 93 bf 6b 83 57 04 e5 69 93 bf
       -0.019490792175104885 -0.018958643331532892
000360 8b 94 c7 71 39 f1 91 3f 28 d6 b9 0d b3 e8 9e bf
       0.01752176053004865 -0.03018455287243263
000370 54 04 f3 54 68 e4 92 bf ff 1a 42 69 95 22 a0 bf
       -0.018449430642025824 -0.03151385221376834
000380 24 93 9b c6 f8 c8 6a bf 14 68 ac 08 46 32 a6 3f
       -0.0032696589376989427 0.04335230689885364
000390 a2 96 48 fd c0 46 9f bf d0 dc cd 75 7f fa 8d bf
       -0.030543342074585873 -0.01463794306049096
0003a0 a0 66 e1 e9 75 e3 a0 3f e6 1a 92 e1 13 71 97 3f
       0.03298538665758355 0.02289229454302246
0003b0 4e 14 12 b4 bd ee 84 bf 5c 53 c8 fa c4 63 99 bf
       -0.010220987375087056 -0.02479465275435487
0003c0 1e c5 78 d6 01 31 85 bf a9 53 de 9e f5 6c a2 3f
       -0.010347380025538085 0.035987544673083356
0003d0 48 f9 7c ca ce 28 80 3f 95 c7 a8 ec 94 62 98 bf
       0.00789033465809709 -0.023813559479271957
0003e0 a9 88 7a 96 83 d4 91 bf 8f e1 5e c5 22 f6 96 3f
       -0.017412239131438998 0.022423308655307003
0003f0 00 6e f0 6b a6 57 8b bf 4d c5 ae 38 7d c0 90 bf
       -0.013350773018877327 -0.0163592878195165
000400 45 2e aa da e9 19 99 3f 59 d8 9b c4 3f f7 98 bf
       0.02451291463016349 -0.0243806804419012
000410 78 49 1c 24 bb c3 95 bf 47 4e b7 74 bc 70 92 bf
       -0.021254467085847634 -0.018008179305822016
000420 e2 4c 01 d1 8c f4 8f bf 9b 2e 8a 7d 76 de a7 3f
       -0.015603160980538214 0.0466191318747324
000430 3c 78 d0 db 69 59 98 bf ac d7 31 e5 48 b3 96 bf
       -0.023778585473444233 -0.022168292035040046
000440 9f 0a 10 3b 5c 08 68 bf 3b 1d f1 a7 0a e7 98 bf
       -0.00293367399035678 -0.024318853855473704
000450 b8 a0 d4 09 f3 a7 80 3f e7 ca 29 42 0b 0c 94 bf
       0.008132837998872197 -0.019577194131168787
000460 d1 c2 ae 9e 31 7d 6b 3f 3d e3 59 83 9e 72 9a 3f
       0.0033555955064560124 0.025827862517391543
000470 ff 9a 83 1d 7a 66 91 bf cb d2 40 b9 8d 5a a1 3f
       -0.01699248128070518 0.03389399420158198
000480 08 e5 d2 dc b1 a1 84 bf 44 b5 b1 7a 63 a1 90 bf
       -0.010074033309467115 -0.016240648616464584
000490 5d 7d ad 44 6d cd a7 3f 42 10 d4 49 3a 5b 9d 3f
       0.046489157327182375 0.028668318515898024
0004a0 9d ab 21 ee 0b e0 a3 3f 49 04 c2 43 19 66 86 bf
       0.03881871492270437 -0.010936925297075588
0004b0 a6 b5 4d e8 0f be 69 3f e6 7e 50 90 b1 11 92 3f
       0.0031423865024666374 0.01764562075925271
0004c0 20 41 5c 0d ad de 9c 3f 44 8a 31 81 8e e8 b1 3f
       0.0281931914715311 0.0699547830022676
0004d0 1a ed 92 c9 1a f7 a5 3f be 4a 4e ec 88 04 90 bf
       0.04290088377589481 -0.01564229910179437
0004e0 b7 5a 1f a5 27 d2 9f 3f 2d c4 e4 99 15 cc 94 bf
       0.031075114682461016 -0.020309770124360128
0004f0 0b 10 8e d3 97 a0 a1 3f 1e 7e 8c 97 0f 77 8b 3f
       0.03442835290391607 0.013410684406664205
000500 19 73 f8 38 b5 85 9b bf 33 22 9a fc d6 56 91 bf
       -0.02687724266262412 -0.016932830016715705
000510 73 f0 ef fc 20 cd 56 bf ca 18 4b 9f e5 17 86 bf
       -0.0013916799687186093 -0.010787767337557947
000520 24 c8 e6 fb ac dd 83 bf cc 01 85 f9 a0 13 8f 3f
       -0.009700156629012531 0.015174157728893876
000530 77 7b b5 65 6b c8 99 bf 8b 3a 24 fd 91 ef 8e bf
       -0.025178602297610788 -0.015105381524816571
000540 8e 92 41 69 30 a5 90 3f 05 5f 70 4a 50 ea 8f bf
       0.01625514643127928 -0.015583636542984456
000550 92 be 56 1e 00 05 96 3f 22 66 29 a9 de ed a1 bf
       0.02150345025228135 -0.03501792731249177
000560 3a db 19 fe b2 c8 95 bf 1c 87 33 a2 0b 43 91 bf
       -0.02127341915044243 -0.016857320570927134
000570 60 46 eb 96 c7 4a 62 3f ea 47 a3 07 42 5e 8a bf
       0.0022329233391722852 -0.012875095232093476
000580 41 2c 0c ce 69 a9 95 3f e6 c4 1d b9 aa de 93 bf
       0.021154072953361917 -0.01940409426555769
000590 c2 63 10 1a 7b 7f 77 bf 06 d2 5f 38 92 9f ac 3f
       -0.005736809603171746 0.05590493143236945
0005a0 45 8a e9 b1 96 44 95 bf 67 5c 31 5a f5 e2 96 bf
       -0.020769457444098433 -0.022350152616436605
0005b0 4b ca d5 0c 9b 86 a8 3f d1 84 c5 11 33 8b 86 bf
       0.047901959721361985 -0.011007689456791788
0005c0 3b e4 59 f3 9b d4 72 3f 13 6e be 08 bd 23 7f bf
       0.004597291166299529 -0.007602442183180641
0005d0 81 72 8c bc 7b 42 88 bf e4 45 2c c8 5c 0b a0 3f
       -0.01184555691866618 0.03133668845670082
0005e0 23 b7 19 53 3d 94 78 3f db af 02 00 6d 18 a6 3f
       0.006000747250807045 0.043155103923112136
0005f0 82 f0 f6 37 9c d9 93 bf 97 b2 11 4a 72 86 84 bf
       -0.019384804645355753 -0.010022061238680364
000600 48 38 1b 43 d2 72 90 bf 0f 08 44 ce ca 00 97 bf
       -0.016063008638234316 -0.022463959540807873
000610 de 54 8d 5e 6d 28 7f 3f c6 e0 59 d2 3b 53 91 bf
       0.00760691378021258 -0.016919073785602
000620 ae d8 da fb ea 5e 93 bf 4a 09 b4 6b f4 ed a3 3f
       -0.01891677057457091 0.03892482580887931
000630 c5 7b cd d3 a3 61 93 bf 57 36 c4 24 21 93 8c bf
       -0.018927154352578208 -0.013952502188227784
000640 71 b4 be 0e c7 32 99 bf 38 23 7f 48 20 e0 31 bf
       -0.02460776355262734 -0.00027275837100808635
000650 e0 45 66 48 f0 50 8c bf d1 25 d9 55 23 b4 91 bf
       -0.013826253137071143 -0.017288734545479138
000660 d2 ba 1a aa d5 50 92 bf f5 53 fa 32 1c 0e 8c 3f
       -0.01788648462996429 0.013698787980766606
000670 a1 0c b8 a8 68 8e 93 bf 63 c5 71 9a 6e 6b 88 bf
       -0.019097934053217917 -0.01192366036250076
000680 94 c1 26 a7 d7 5c 99 bf 8f 09 26 d0 6f f7 a7 3f
       -0.02476822812758568 0.0468096677386881
000690 36 a3 51 37 34 ff a4 3f b2 6b c3 39 0b b0 86 bf
       0.04100955176620007 -0.011077964496896662
0006a0 c9 ad b2 e0 57 d7 65 bf d6 f6 a2 54 df ab 91 bf
       -0.002666160236534519 -0.01725720361786539
0006b0 57 c1 bd 98 b2 8a 8c bf 7a e4 75 fe 5a f1 9a 3f
       -0.01393641976002928 0.02631132295707459
0006c0 58 f2 e2 7c 28 eb 92 bf d3 89 80 df 13 38 8b bf
       -0.018475182173221277 -0.013290553339236155
0006d0 89 f0 33 66 d7 b4 99 bf be 6c 5a df 5e ec a6 3f
       -0.025103917706460286 0.04477211452941664
0006e0 1a 2b 41 7b df dc 95 bf 14 1d d1 ee 77 ba 8d bf
       -0.02135037603174359 -0.01451581666527927
0006f0 f6 af 1a 6e b6 52 a5 3f 6e d0 d9 f2 35 5a a2 3f
       0.04164667219205846 0.03584450330245735
000700 6a 8e 03 af 1e 01 87 bf a8 98 11 33 9d ab 7a 3f
       -0.011232604709625355 0.0065113201718302385
000710 ff 8a 1c a8 d1 98 a2 3f cd 12 e4 1a 1d 72 9a bf
       0.03632216622488293 -0.025825934187212952
000720 91 13 25 f9 86 44 97 bf 4a b7 1d 04 9e a6 9a 3f
       -0.022722348171800247 0.02602621936914965
000730 3e ad 1b de 7f 28 90 bf 03 10 8b d9 48 77 90 bf
       -0.0157794932664903 -0.016080034520896912
000740 2b ae 7c c5 83 37 9b bf 09 9b ee 78 7f cf 94 bf
       -0.026578959396983997 -0.020322791820627937
000750 52 ba c5 59 98 6b 80 bf 13 fe 0f a9 61 ae 85 bf
       -0.00801772140468163 -0.010586512538792758
000760 c1 88 9c b6 8f 79 42 3f 35 ff 43 c4 27 01 87 bf
       0.0005638076520180433 -0.011232672383357215
000770 89 70 fa df 57 02 90 bf ed 4c 05 19 cb 8f 9c bf
       -0.01563393883280687 -0.02789227810110344
000780 61 6f b3 fb 1f 17 85 bf 53 aa 6a 17 bc ea 6d bf
       -0.010298013562014043 -0.0036519693051862228
000790 8e ac 01 56 5b d1 ae 3f 1a ed 92 c9 1a f7 a5 3f
       0.06019101548084747 0.04290088377589481
0007a0 0e c2 59 ae 01 ea 94 bf 36 f6 d2 22 76 38 a4 3f
       -0.020423914209859055 0.03949326682184699
0007b0 af 1d e3 dc 6f f5 93 bf d5 35 44 cd 9e d8 39 bf
       -0.01949095521629623 -0.00039438130376442715
0007c0 50 d0 bd 0a 0b 19 8a bf ee 7e 4c 2f 35 62 a3 3f
       -0.012743078484824505 0.037858640693455445
0007d0 48 6e 4e 6c da 01 94 bf 2e 52 6c 65 2b 83 95 bf
       -0.01953831945466636 -0.02100818449533131
0007e0 de e5 67 92 91 e2 a2 3f 2a 96 24 9c fd 0d 97 bf
       0.036884831544693006 -0.022514307646949096
0007f0 5a 40 68 2e a1 f4 7e bf bf 8a db 60 01 7b 90 bf
       -0.007557515730255282 -0.016094228302686583
