hw4/theta_of_simga_200C_3learn1000.npy (npy, 25736 bytes, 1 tensors)

array f8 [3201]
000000 3c fa 5c e6 a4 b7 a1 bf 47 e6 57 4d 4f 60 56 3f
       -0.034604218597895614 0.00136573547695064
000010 f4 c6 f7 78 d6 7b 62 bf 2c 32 3f 48 f7 91 5e 3f
       -0.002256316081678084 0.0018658556809781996
000020 61 cb 2c 08 b4 a4 52 bf 7f e5 48 83 2e 33 57 3f
       -0.001137901127276485 0.0014160112597337569
000030 7e 98 dd 39 1f e3 58 bf 58 bf 92 6f 81 57 39 bf
       -0.0015189938489697237 -0.00038668546728625386
000040 38 d4 60 8c 6c 8e 74 bf 68 cd 82 c7 b2 16 55 bf
       -0.005018638627054144 -0.001287149991225112
000050 3d 8b 0f 6e 9b 1b 5c bf 83 9b 67 d0 8e 50 57 3f
       -0.0017155664320333685 0.001423015086055663
000060 cf a4 b2 e6 1b 63 69 bf 8f 5f 7c c9 4b 47 6c bf
       -0.0030990166611287516 -0.0034519653526209958
000070 16 01 fa cb 7e 36 6e bf 72 4b 27 e1 2f 3e 50 bf
       -0.0036880947589567155 -0.0009913890431689468
000080 1d 6d 9d eb 46 8a 6c bf 26 9e 18 09 01 2c 6e bf
       -0.003483904377316839 -0.0036830921387893843
000090 5f 22 d4 d3 c3 22 77 bf cd 50 52 82 ab 74 50 bf
       -0.0056483888158785625 -0.0010043787854430608
0000a0 6c f2 7a a2 78 67 68 3f c6 92 8b bc 3b b8 66 bf
       0.002979026426912326 -0.002773396180020124
0000b0 6a a9 eb c5 95 05 52 bf 49 59 7e 02 b4 38 43 bf
       -0.0010999643924899057 -0.0005865935281573
0000c0 db a9 d8 64 8c 0c 4f 3f d0 a6 93 62 cb df e9 3e
       0.0009475408093682596 1.2337778644472454e-05
0000d0 82 40 0c 9a 3d 47 35 bf 89 de 5f 0b fc 54 68 3f
       -0.0003246808428665275 0.0029702112906269712
0000e0 3c a5 72 e5 6b b1 61 bf 9c b0 c6 38 23 f3 74 bf
       -0.002159796461985634 -0.00511468657024863
0000f0 49 5c 1c 90 e6 2d 6c bf 21 cf c5 38 8f 82 63 bf
       -0.0034398558790474138 -0.0023815915393984454
000100 0d 11 b6 1b d0 5c 17 3f 3c 51 3b f2 b8 a0 60 bf
       8.912105743347585e-05 -0.002029763434487601
000110 64 14 4f 39 98 4e 72 bf 2c c6 ac ae b6 57 57 bf
       -0.0044694849247593794 -0.0014247211463039961
000120 3e ae 59 e8 b1 e1 75 bf b7 67 09 6b 54 42 70 bf
       -0.005342192603716321 -0.003969506986857433
000130 8c 80 89 88 1d 6c 72 bf bc 5c a6 0f d2 30 67 3f
       -0.004497638096467093 0.002830896640442752
000140 29 99 eb a0 5a 4e 75 bf f2 cd cd 39 11 e9 5b bf
       -0.005201677339505197 -0.001703516790453882
000150 73 e4 4e 5e 3a 4a 5b bf 53 14 26 8e 8d 50 71 bf
       -0.0016656465534039793 -0.004227211904781108
000160 e0 56 d2 8a d7 f9 5b bf 6f f0 24 39 9f 7e 6a bf
       -0.0017075161843300088 -0.0032342061832917805
000170 4a 0f 22 93 1c 97 51 3f 44 72 c3 3c a0 f0 71 3f
       0.0010736254739933276 0.004379869391610006
000180 38 8a 3a 8d f9 ed 63 bf b5 f7 0f a3 06 85 61 bf
       -0.0024328111702101272 -0.0021386270168468288
000190 2c cf de ef a3 a8 66 bf c5 04 cc 63 ac 98 65 bf
       -0.0027659608740239396 -0.0026362769116309048
0001a0 d0 2f 38 95 74 c1 70 bf 7d 96 4c e8 30 28 3f 3f
       -0.004090743448170245 0.0004754180338742765
0001b0 c3 54 7f 17 db 00 70 bf 3b ca ef 07 2b ac 44 3f
       -0.0039070661805073485 0.0006308755981748246
0001c0 10 fa 55 40 cb f5 54 3f 09 fd c6 11 31 40 66 bf
       0.0012793049694149773 -0.0027161558520841828
0001d0 d5 88 60 9a 46 07 69 bf 4d f5 41 0d 35 55 70 bf
       -0.003055227181009016 -0.003987509950204538
0001e0 26 3a bf 26 81 67 61 bf bd 2d 8f 82 ac 7d 63 bf
       -0.0021245501029405643 -0.0023792619071849306
0001f0 e2 db f6 53 19 f8 48 3f d3 51 7a b2 94 94 38 3f
       0.000761997573070935 0.0003750670461866421
000200 e2 d6 97 f1 31 62 68 bf 5f 18 76 f4 0d 55 59 bf
       -0.0029765105689375385 -0.0015461574820121655
000210 b1 96 67 5b cc 08 6e bf 14 78 9a ab 44 12 65 3f
       -0.003666304716932377 0.0025721875397968306
000220 be 92 fe 0b 22 79 3a 3f 4f 1f 03 44 90 e2 6e bf
       0.00040394860479357395 -0.0037701432885092544
000230 b1 19 8d ad 96 81 72 bf c0 dc c3 d5 c5 70 31 3f
       -0.004518116555863137 0.00026612119633235773
000240 d5 89 06 b9 f7 f2 45 3f 10 61 dc a2 ea cc 72 bf
       0.0006698331435937519 -0.0045899548984140864
000250 a1 5e 69 a4 fd ca 52 3f 57 0c 49 95 7e 0b 70 bf
       0.0011470295882158104 -0.0039172119764457536
000260 6c 40 05 33 f0 c9 41 bf 7a 6c 23 37 6a 55 6d bf
       -0.0005428717468394357 -0.003580768062517556
000270 34 6f da 5d 9b 79 6c bf a7 2a 61 45 12 d3 69 bf
       -0.0034759554390130457 -0.003152404485296262
000280 06 ae 7a 26 c4 30 62 bf b5 d3 1e a7 16 12 5e 3f
       -0.0022205191670161576 0.0018353673190010082
000290 f2 e6 40 c5 68 5e 38 bf 31 fd 30 58 ac bd 62 bf
       -0.00037183816789686166 -0.0022877088645426803
0002a0 93 35 78 12 ea 52 5d bf da 2d b0 ad 05 d3 63 bf
       -0.0017897878514106832 -0.002419959154854584
0002b0 e8 53 ad ae a2 fc 6e bf 84 1f 56 76 21 17 33 3f
       -0.003782575358324259 0.0002912956900549201
0002c0 7d 33 40 50 fd e8 70 bf 4a fa f6 85 24 44 72 bf
       -0.004128446107654391 -0.004459517163410151
0002d0 67 d3 2a 4f c8 e4 5a 3f a0 04 70 d8 d7 85 32 bf
       0.0016414600510589962 -0.00028263587631733623
0002e0 3c aa 94 de 03 1e 6d bf 40 21 03 25 de f5 73 bf
       -0.0035543513846694446 -0.0048731496355645665
0002f0 58 1e b3 20 47 fc 64 bf 0f c7 5e 90 43 e1 3c bf
       -0.0025617016995942814 -0.00044067286978154233
000300 df 72 a3 63 0e 73 6e bf b6 60 a9 55 52 2d 58 bf
       -0.0037169724501907443 -0.0014756492661458904
000310 3b 4b 44 d2 bf 3c 70 bf 80 7b e9 ba f9 49 6d bf
       -0.003964185049215636 -0.0035753133336550724
000320 05 09 4c a9 8c fe 5f bf ca 33 94 70 96 4f 62 bf
       -0.001952779163901187 -0.002235215976389847
000330 86 3c 25 95 84 0b 47 bf 4a e0 b0 35 6c f3 6c bf
       -0.000703277337643985 -0.003534041735772352
000340 2c fc fa 6b 9b 0b 61 bf 85 54 76 cd a3 79 3e bf
       -0.002080730016899254 -0.00046501397215454487
000350 29 b9 a7 ec 38 bd 6d bf 48 a6 eb 3b 28 88 3c bf
       -0.003630267315421727 -0.000435361693162582
000360 54 ef c5 bd c2 f2 30 3f 00 d5 b3 3e 67 43 6e bf
       0.00025861029077821796 -0.003694249773270486
000370 bf b9 b5 44 8e cc 3a 3f 28 ff 77 2f 4a ad 76 bf
       0.0004089209876018372 -0.005536355768981406
000380 67 83 1c 6f 2d 28 59 bf 34 9f 09 0a d4 79 48 bf
       -0.001535457963150766 -0.0007469449374868154
000390 f0 1b 2e a2 50 87 73 bf 41 a5 8c b2 84 bf 43 bf
       -0.004767718290969988 -0.0006026647507485842
0003a0 6f 7b fd 93 d2 c9 1c bf d9 13 3e 74 27 c9 49 bf
       -0.00010981891409532288 -0.0007869188925587702
0003b0 cb 6e c0 4e 7e 78 5a bf 80 2c 46 29 06 c8 72 bf
       -0.0016156419251335704 -0.0045852890656404854
0003c0 0e 5c 63 ef 3f 30 65 bf 9a c7 1e ef ee 04 44 3f
       -0.0025864838345159907 0.0006109396620017527
0003d0 fe 09 6e 5a d0 09 62 bf 69 01 8a 06 b9 26 72 bf
       -0.002201945247578551 -0.004431460147884849
0003e0 f9 a5 e7 4c 78 79 57 3f 3a 3c a1 5f 62 8e 48 3f
       0.001432769280308553 0.0007493954028720059
0003f0 82 b9 44 b6 d2 6f 63 bf 3b c2 7c 9a 3a 2b 70 bf
       -0.002372657343719443 -0.0039474763105294365
000400 44 77 37 15 40 01 50 3f 0d fc 2d 7a d8 6c 72 bf
       0.0009768606004096495 -0.004498334516823921
000410 c0 d5 22 5d 13 a6 72 bf 37 d6 ff c1 23 0a 65 3f
       -0.004552913322347363 0.0025683115381933924
000420 b1 50 94 eb a8 71 67 bf 13 7f 4b 72 da 29 49 3f
       -0.002861814424827435 0.0007679287560584412
000430 36 c6 63 40 84 d3 71 bf 8e 65 1f 33 7a 4f 65 bf
       -0.0043521085810752005 -0.002601374312672439
000440 f5 d9 d2 c2 26 81 46 bf df 7c 56 c9 69 23 74 bf
       -0.000686782766613102 -0.004916585186406779
000450 b3 f0 d2 53 a3 57 64 bf d8 5c f9 0b be 17 72 bf
       -0.0024831953038227605 -0.004417173738679746
000460 6f cd 8d a9 53 23 68 bf 5e af 77 fb 69 18 53 bf
       -0.002946532633751601 -0.0011654887183522793
000470 f0 bb 9b f8 77 74 61 bf 17 3e f1 c6 08 e8 43 bf
       -0.0021307318864880395 -0.000607494626715113
000480 9a 65 a2 17 98 06 6a bf c7 4a eb 86 10 19 68 bf
       -0.003176972441974524 -0.00294163921294319
000490 6f 88 9f 08 7b f0 27 3f 78 78 d9 7d ad 98 64 3f
       0.00018264295459774783 0.0025142086513332794
0004a0 2e 79 34 83 e7 24 4c 3f 18 fc 82 33 e7 bc 62 bf
       0.0008588915283416537 -0.0022873416565683084
0004b0 66 44 15 44 d6 01 03 3f ce 2d 63 f5 17 38 50 bf
       3.6253310563901656e-05 -0.0009899362535631287
0004c0 c2 87 2d 63 9b 1b 3f bf 1f 7a 8e 59 9a 9e 63 3f
       -0.0004746679652979335 0.002394963707458744
0004d0 44 72 c3 3c a0 f0 71 3f 52 83 4e ce 34 0d 6f bf
       0.004379869391610006 -0.003790476929183142
0004e0 cd 50 52 82 ab 74 50 bf 57 36 f2 6e 3e 19 56 3f
       -0.0010043787854430608 0.0013487920475968773
0004f0 66 61 2c 61 60 92 45 3f 2e 82 89 e4 8f b7 59 bf
       0.0006583185771403099 -0.0015696435167670375
000500 6b 20 35 33 df f8 72 bf a7 b9 b9 0a ad 81 60 bf
       -0.004631873965372883 -0.002014959309057224
000510 68 fb 3b 1c a1 a8 61 bf 59 12 ed bd 8f 8a 6c bf
       -0.002155604046378757 -0.0034840400179823425
000520 22 dd d5 dc 81 dd 5a bf 3c 42 cc 09 1e fb 55 3f
       -0.0016397255124880957 0.001341609319926231
000530 7a f3 22 b7 b0 75 69 bf 72 c3 e2 b1 43 51 5d bf
       -0.003107876918049643 -0.0017893944819144772
000540 24 f1 a8 76 bd ff 42 3f 42 37 93 ae 5b fb 67 bf
       0.0005798030009099048 -0.0029274740851183154
000550 dd 6e 3e db 26 8f 5d 3f cc dc 52 d9 0b d5 74 bf
       0.0018041495759239447 -0.005085989270063606
000560 f5 9c a9 e7 7d d6 64 bf 47 59 a7 bf 2c b6 71 bf
       -0.002543683918066026 -0.004324126052287553
000570 79 f0 25 4b 51 21 70 3f 86 4c c2 d6 44 f7 61 3f
       0.003938024094505826 0.0021931023130235565
000580 d3 7f 75 5e 46 09 5b bf 91 30 92 01 35 42 70 bf
       -0.0016501605221819107 -0.003969389968130469
000590 c4 e9 88 01 43 59 53 bf 0e f9 3a 31 62 36 6b 3f
       -0.00118094962648617 0.0033218305414656263
0005a0 cd 7e 9c 82 12 78 72 bf 20 b4 d1 06 64 94 72 bf
       -0.004509041123838831 -0.004536047677089733
0005b0 25 4f 0c 1f d0 03 59 3f db 58 8a a9 ec 6a 62 bf
       0.0015267879900350914 -0.0022482511815936474
0005c0 21 d2 75 0c 9a 23 66 bf 3b ac 8a 69 6a 05 47 bf
       -0.0027025231135502513 -0.0007025498953984252
0005d0 f5 8a 1b bf 65 d3 65 bf 6c 03 42 d9 6e f6 46 bf
       -0.0026642787205316495 -0.0007007638219108498
0005e0 71 b3 58 ed 84 f6 60 3f a9 44 60 0e 5d 6b 49 3f
       0.0020706745370006542 0.0007757381797565316
0005f0 ea f4 51 bc 25 87 6a bf 72 93 9a 3a a7 61 68 bf
       -0.0032382714294373243 -0.0029762521924844793
000600 98 8d 39 8c 1d 83 57 bf 43 50 8a b4 75 ee 5e 3f
       -0.0014350689461018803 0.0018879079308691405
000610 06 ae 7a 26 c4 30 62 bf dc 39 f3 20 5e ba 3c 3f
       -0.0022205191670161576 0.00043835447372666896
000620 e6 be d1 8c 83 bd 6e bf 7c 17 79 90 a8 05 4c 3f
       -0.003752476629010337 0.0008551667278389042
000630 62 4a 6f 5d 93 df 68 3f 26 9a ea 50 5f 7e 69 bf
       0.00303629667494336 -0.0031120168344671737
000640 e2 1c 3c 3a e8 1b 74 bf 5c 47 03 95 e3 3c 2b bf
       -0.0049094268213203136 -0.00020780828572824594
000650 61 e8 1e a7 8b f4 64 bf 32 9d bf 29 9f 95 71 bf
       -0.0025580146402406777 -0.004293081026822508
000660 ef 99 5d d7 e3 56 4a 3f 34 ea e2 0a de 8a 5e bf
       0.0008038151270113851 -0.0018641632446320224
000670 9d 42 f5 da 27 94 70 bf cd 22 ec f0 e2 c0 68 bf
       -0.0040475422714087135 -0.0030216629451199407
000680 71 51 dc 48 16 fb 70 bf 8b 76 53 5d 98 a1 4a 3f
       -0.004145705270066067 0.0008127206771424018
000690 81 37 e7 83 a8 6a 33 bf 66 a4 0d 6d a3 93 57 bf
       -0.0002962743200470783 -0.001439008327191149
0006a0 5c 66 c7 a7 47 83 57 bf cd 00 ec a1 9e 66 6e bf
       -0.0014351081618912053 -0.0037110422412070855
0006b0 d2 6e 3e c7 15 72 63 bf 72 84 3a 04 8a fd 35 bf
       -0.002373735938773305 -0.0003355466799153723
0006c0 63 ae 7a 73 7d b0 71 bf bf c1 02 9e 6f 67 62 bf
       -0.004318704646418678 -0.002246587755586143
0006d0 33 6c 25 d0 51 92 6e bf 2e 63 7c cd 4c 79 36 3f
       -0.0037318799888175435 0.0003429234034100667
0006e0 26 cc 90 2e ec 67 65 bf 2e 34 37 fc e9 e1 56 bf
       -0.002613030712859582 -0.00139663553351289
0006f0 a6 71 43 78 1e e3 2f 3f 5f 44 51 4c d3 1d 2c 3f
       0.00024327990479989825 0.00021451191256230664
000700 24 48 85 ca 69 d6 3c 3f 20 a7 84 eb 84 28 60 bf
       0.0004400261191409591 -0.001972446069108083
000710 04 e0 30 b3 4d 07 46 3f 66 8a 27 21 a7 d7 70 bf
       0.0006722573656423596 -0.004111912583968013
000720 74 83 12 12 0d 15 72 bf 33 2a e7 ac 25 34 43 3f
       -0.004414607102405255 0.0005860504114079734
000730 7c 14 2d 65 6f 85 4e 3f d7 b8 35 3f d8 c9 52 bf
       0.0009314340517013876 -0.0011467563425316318
000740 6f 19 10 19 04 0d 74 bf 58 26 31 14 df 7d 72 bf
       -0.004895225531987498 -0.004514571573119484
000750 e7 04 5e ee 21 a6 1f 3f 61 a7 2b 94 cc f9 60 bf
       0.00012073118304380439 -0.0020722385100854644
000760 53 b0 d3 2b 83 a3 61 bf 18 c0 ad 6a 34 c7 30 bf
       -0.0021531640946843927 -0.0002560141535274964
000770 03 1c 43 bf 1b 24 65 3f fc 77 54 bf 3b 80 74 bf
       0.0025806943832296105 -0.005005105388844907
000780 14 eb 2a c2 06 24 6a bf e4 f2 e8 6c e9 30 fd be
       -0.0031910068513217957 -2.783876589716989e-05
000790 42 ac 22 c2 80 b0 62 3f 44 72 c3 3c a0 f0 71 3f
       0.0022814287959440913 0.004379869391610006
0007a0 0c ab 31 27 bf fc 6d bf 8b c2 93 59 68 9e 70 3f
       -0.0036605580767646913 0.004057319275702863
0007b0 2e ab 2f 2c c6 39 03 3f 98 1f 72 48 39 7f 67 3f
       3.6670074699282594e-05 0.0028682822044778337
0007c0 ec b0 ce 2e 62 14 6d bf 29 c3 49 da 3e 56 74 3f
       -0.003549758685457252 0.004965062635719866
0007d0 82 65 79 91 77 d2 66 3f e7 23 f2 e3 dc ab 6d bf
       0.0027859053914595653 -0.0036219896570099832
0007e0 54 bf 04 dc 34 9c 6f 3f bd 16 c6 de 96 8b 6c bf
       0.003858664742573051 -0.0034845301326552323
0007f0 ff a0 a4 cf 1a 7f 62 bf 88 a1 6e c9 c7 07 68 bf
       -0.0022578738836679375 -0.002933397492103921
