hw4/theta_of_simga_220.0C_0.03learn5000000.npy (npy, 25736 bytes, 1 tensors)

array f8 [3201]
000000 3e 1c a2 d6 67 c1 bf bf 60 36 ce 3d 14 90 b7 3f
       -0.12404488554067059 0.09204222210811386
000010 f8 72 8a ed fe c4 85 3f 10 f5 35 1c bb 74 98 bf
       0.010629645942850527 -0.02388279304203872
000020 f4 bc 48 44 a4 97 a2 bf 7b b8 b6 b0 cc 88 a7 bf
       -0.036313184104409674 -0.04596557290220545
000030 04 5e f9 d9 72 54 a5 bf e4 9f 6d f7 73 0d b3 3f
       -0.04165991698090113 0.07442402640083362
000040 2d 7d cb d3 10 dd ab bf 34 1f 58 0d b7 f1 a1 bf
       -0.05442097268473343 -0.03504726446050058
000050 9c 6b d7 e4 21 22 93 bf c8 ab 89 af ea 43 b2 3f
       -0.018684892265678252 0.07134882722463864
000060 87 ae 71 21 d2 54 85 bf f0 a3 b7 1c e9 64 b1 bf
       -0.010415689130432127 -0.06794602347476064
000070 a3 f4 36 73 bb 3e a4 bf 33 fb 69 00 d7 0f 94 3f
       -0.03954110890797693 0.019591674232738398
000080 0e 5f 96 ca f0 0e b2 bf eb f7 d7 17 5c 81 a2 bf
       -0.07054047533017302 -0.03614318648395439
000090 ce e2 24 8c 0d 97 b1 bf dd b4 68 d6 9f e0 b3 3f
       -0.06871113463865727 0.07764624580950703
0000a0 9b fa 44 b9 8e 6d ba 3f 3c f1 55 c9 ee 27 77 3f
       0.10323421500377565 0.005653317222251094
0000b0 cd 89 d6 65 ff 4c 9f 3f e4 02 aa 74 46 a4 81 bf
       0.03056716021604604 -0.008614111361795414
0000c0 5c 0d 87 b5 59 09 b6 3f 8a bf d1 7f 8c 7e bb 3f
       0.08608017618012326 0.10739973183240017
0000d0 51 92 58 76 26 dc bb 3f 4e 36 35 fe d4 3d b5 3f
       0.10882797612482277 0.08297473150488452
0000e0 01 5d fe 4b f3 a7 a5 bf 81 15 56 90 fe e2 ad bf
       -0.04229698469787913 -0.05837245475690179
0000f0 cd 24 55 f1 a7 8f a0 bf c1 97 e8 94 cb 7f 9e bf
       -0.03234600850061895 -0.02978437515607602
000100 c2 e9 e8 08 9b 24 9f 3f f7 f4 80 4c 29 1f a5 bf
       0.030413076800167145 -0.04125336703189391
000110 17 7a 4f 10 01 ec a2 bf 5e 5a 42 2c ad c3 aa bf
       -0.03695681881048445 -0.05227414288781483
000120 b1 22 ef fc 94 56 b1 bf 4d 59 d3 0b 6b 3b b2 bf
       -0.06772738623761644 -0.07121914900503619
000130 0f a4 a8 e9 b7 c9 a5 bf 48 42 98 7f 02 91 c0 3f
       -0.042554614327237165 0.12942534666264494
000140 eb 88 ae c1 89 c2 ac bf 7f 54 54 70 12 37 b1 3f
       -0.05617170800475598 0.06724658243577329
000150 e2 22 48 2a 68 81 b0 3f 6c 56 ce 9a b5 fc a6 bf
       0.06447459251661372 -0.044896769664018205
000160 d1 ab 1f 23 8c 51 ac 3f 28 3f 92 07 f7 87 ac bf
       0.055309657371104166 -0.055724830316761065
000170 e1 e9 77 1b 21 55 bd 3f 49 1a 44 d0 85 0d b9 3f
       0.11458022041907824 0.09786259016628053
000180 72 88 ce a8 1f 14 9b 3f 04 c3 b8 0a 41 77 ae bf
       0.026443953207156708 -0.0595035863483471
000190 2d 63 68 cd 80 34 97 3f a6 5c 1c 1b a5 61 94 bf
       0.022661221062750748 -0.019903735904418206
0001a0 89 dc d2 35 fc 25 b0 bf 01 b6 d6 5a 07 9d b6 3f
       -0.0630796080975974 0.08833356826536233
0001b0 fc af e5 31 c1 18 89 bf 12 ce fc 84 27 b0 9f 3f
       -0.012254247031442837 0.030945413104928994
0001c0 35 6c 25 dd 10 cf bf 3f 0f 81 25 8c 6f ba a4 3f
       0.12425332449986189 0.040484891755797496
0001d0 e1 8e 89 04 e0 a1 9c bf 56 2a d2 f3 5b 28 a8 bf
       -0.027961254383980786 -0.04718291617708263
0001e0 da 79 d9 f6 57 b6 aa bf a7 ce 8f f3 f9 bf a4 bf
       -0.052172421343801026 -0.04052716348806245
0001f0 45 79 95 a3 89 3b c0 3f c7 cf 31 89 2a 20 bb 3f
       0.12681694495672438 0.10595956658818216
000200 44 cc b3 2e cd f0 85 bf f5 b3 df 71 31 ab a0 bf
       -0.010713198650114227 -0.03255610003530044
000210 b1 5d 26 3e 1b 2a 9d bf 96 d1 aa 9d da 66 b4 3f
       -0.028480935734106875 0.07969442700670579
000220 8f 82 b0 cf 8b d1 b9 3f b2 63 ab 86 d9 17 95 bf
       0.10085367031616442 -0.020598791927884448
000230 ae 34 ee 00 9a 44 b0 bf 83 3d fe aa 32 b0 be 3f
       -0.0635467769881923 0.11987606691967838
000240 f1 d2 22 6d fe 3c ba 3f c8 da 01 f7 9b 00 ac bf
       0.10249319233373534 -0.054692148115397965
000250 f8 e3 bd 1c 9d 79 bc 3f 77 46 07 03 11 43 a3 bf
       0.11123067809775466 -0.03762105142562871
000260 f6 50 2f 52 85 86 b4 3f cb b5 87 cd 47 2c a3 bf
       0.08017762428727679 -0.03744720825111932
000270 28 5a 04 82 81 51 a9 bf 96 4c 0b 69 2e b5 a4 bf
       -0.04944996559259024 -0.04044480354573314
000280 62 2b 02 46 0e 32 98 3f df 8e fd d2 9c 30 c1 3f
       0.023628447554567507 0.13429603864925974
000290 1d 5b 5c 71 f9 52 b6 3f 44 65 cc 34 0e 3f ac bf
       0.08720358865353402 -0.055168575234527256
0002a0 ed 93 44 e9 7c a9 a2 3f cd c0 13 77 6f 01 78 3f
       0.0364493403197129 0.005860743914340283
0002b0 a0 7e d2 dc 47 fa 7c bf 66 9c c6 4d c4 84 b5 3f
       -0.007074623788099338 0.08405711077522113
0002c0 7d d8 ec 21 a7 d9 9e bf c9 7a 3c 35 9d bb a9 bf
       -0.030127154775265275 -0.050259506939473626
0002d0 21 0b 4e c1 22 bf b4 3f f2 59 54 f3 4d 6e 79 bf
       0.08104150027615421 -0.006208710188067889
0002e0 dc 8e 37 a0 d7 e0 a9 bf 08 a0 5b ba 67 6f a9 bf
       -0.05054353552602972 -0.049678079127090824
0002f0 60 6a ef 46 50 bc a4 3f 01 4f f5 00 0e 18 95 bf
       0.04049921861561212 -0.020599573906408434
000300 70 2e 08 85 82 51 9e bf 11 d2 ef 58 6a 49 a5 bf
       -0.02960781037294996 -0.041575740200560436
000310 52 d8 5c 71 73 89 a8 bf b4 8c 0a 45 6a 49 b0 bf
       -0.04792366751500822 -0.06362022576881793
000320 3e a6 6c 35 53 89 9a 3f 19 52 1d 5d fe 13 a7 3f
       0.025914478431479752 0.04507441412593866
000330 0e 50 bf 8e f9 e3 8c bf 58 22 97 e9 44 df 91 bf
       -0.014106702488710734 -0.017453266865944478
000340 b6 38 86 cb ad 38 91 3f 96 4e 5d 53 21 fb 8d bf
       0.016817775294435143 -0.014639149052221339
000350 6b 3f 52 5d 74 de a6 bf 81 ed eb 5d b7 74 a6 bf
       -0.04466594351936134 -0.0438592245245344
000360 fc fc b0 cc 1e b4 a2 3f ce 66 89 8e 62 e9 b2 bf
       0.03653045891450721 -0.0738736722936679
000370 26 c6 67 c5 ef 8c a6 bf a3 90 a2 74 07 3d b2 bf
       -0.04404401097043502 -0.07124373052153259
000380 21 9e 3b 6b 94 be 78 bf b4 f5 87 45 e3 38 bb 3f
       -0.006041126023525163 0.10633678863083312
000390 8f 07 0e e0 7e 96 b1 bf 2a 3d fb 60 23 51 a3 bf
       -0.06870263071144066 -0.03772841032843595
0003a0 91 d8 1c 46 fc c5 b3 3f ee ab 55 38 9c af ac 3f
       0.0772397681401762 0.056027299763478186
0003b0 cd 28 88 13 ed a8 98 bf e0 92 5b 9a 68 84 ad bf
       -0.024081901852732557 -0.05765082248925579
0003c0 54 25 df 3d 9f a5 98 bf 07 c6 48 a4 78 97 b4 3f
       -0.024069297934862746 0.08043626795622326
0003d0 84 9e 65 52 e6 f7 98 3f 9e 64 df 1c ee 9a a8 bf
       0.024383162287817686 -0.048057023071757174
0003e0 b1 d7 85 2c b4 b5 a3 bf 81 6b 4f a7 f8 c2 ab 3f
       -0.03849566501132474 0.0542218879924894
0003f0 1c ab e4 87 c9 dd 95 bf ef 02 c3 65 9e 42 a0 bf
       -0.021353863639130485 -0.031758260652628205
000400 d0 19 e8 b8 42 eb aa 3f 38 39 66 34 8a 77 ab bf
       0.05257614619408779 -0.05364639176979086
000410 0c e7 d9 ec 87 fc a7 bf 70 db bc 2c 07 32 a3 bf
       -0.04684853330850389 -0.037491058550975676
000420 cd 4a 08 57 09 5f a2 bf 83 4e 07 15 39 3b bb 3f
       -0.03588132083327409 0.1063724209155286
000430 70 11 b0 c6 fe bf ab bf 4d b8 ee 23 c4 8d ab bf
       -0.054199182275655455 -0.053815965067187756
000440 21 8b 5b 75 83 16 82 bf 85 1f fd e6 be f1 a9 bf
       -0.008832003611535523 -0.050672498413916
000450 fd 07 45 3f 7e a6 9e 3f ad f6 40 24 69 e8 a2 bf
       0.02993199597518269 -0.03692940299559431
000460 1e d6 1c bb 0f 8e 97 3f c8 ce 3d b3 fe 12 af 3f
       0.023002858920525886 0.06069179475789849
000470 36 93 69 d1 ad 9d a6 bf f9 ee 3f 01 f1 24 b5 3f
       -0.044171745121991554 0.08259493141661868
000480 b7 f2 d1 fc fc 79 84 bf e7 fd 0f 07 02 24 a5 bf
       -0.009998299088914349 -0.04129034362994926
000490 38 31 32 9c be 7d bc 3f 1d f9 01 c7 0c 3e b1 3f
       0.11129370988254983 0.06735305651270491
0004a0 fe a4 50 ea d2 8c b7 3f 7d 1e 21 c6 30 a0 9a bf
       0.0919925519998692 -0.026001703350884576
0004b0 37 8e 89 34 a5 d7 6b 3f 0c fb f0 33 26 95 a7 3f
       0.003398726145222654 0.04605979332017371
0004c0 49 b2 c4 78 25 c0 b1 3f a5 1f 18 8c 97 9c c3 3f
       0.06933817099042829 0.15321630802668298
0004d0 49 1a 44 d0 85 0d b9 3f ee 06 2a 47 3c 8e a0 bf
       0.09786259016628053 -0.03233517044738031
0004e0 dd b4 68 d6 9f e0 b3 3f 6f 2f 04 e4 77 df a7 bf
       0.07764624580950703 -0.04662680300142951
0004f0 c9 b5 c1 c5 54 90 b4 3f 32 bb d8 fd de 6f a2 3f
       0.08032731845897624 0.036009758460173194
000500 ad 97 91 05 6e 0d af bf 97 70 f9 72 3c d9 a3 bf
       -0.0606493360326533 -0.03876675513740329
000510 08 6d 5e 00 65 58 47 3f 04 e6 d0 16 c5 8e 91 bf
       0.0007124417468164232 -0.017146186368540497
000520 6a c1 17 3d 7e 6c 99 bf 14 e6 40 53 83 9a a2 3f
       -0.02482793090706662 0.03633509055402953
000530 21 7c df b4 d8 ae ad bf 1b 91 c5 0e be e5 a4 bf
       -0.05797459800646033 -0.040815295508567405
000540 d1 d6 42 6c 94 f3 a3 3f 8f 95 ee b8 15 2d 9a bf
       0.0389677412180568 -0.025562610065795573
000550 96 e3 4f 4f 94 66 aa 3f 0a a5 10 ed 50 d1 b3 bf
       0.05156386821904062 -0.07741266048164533
000560 4f e0 da d8 b5 7f a9 bf d5 0e c5 a2 28 8e a1 bf
       -0.04980247757106381 -0.03428771006522672
000570 a8 af 20 c4 3e 05 81 3f 55 50 42 40 c0 13 9c bf
       0.008310785637227827 -0.027419094011364404
000580 c6 c9 22 5b 2a f3 ad 3f 8b 41 00 6f c4 65 a6 bf
       0.05849583017824815 -0.04374517302506139
000590 be 56 78 d8 6b 37 89 bf 4c 5b c8 a7 d0 39 c0 3f
       -0.012312738937036879 0.12676437561523313
0005a0 bc b4 77 7e d2 16 a5 bf 2f 67 80 8e 4d ae a7 bf
       -0.04118974489015545 -0.046251701016628004
0005b0 cf b5 76 e5 ad 4b bc 3f 8c 5c cc 15 e0 0a 9c bf
       0.11052977420941733 -0.02738523610159098
0005c0 2c d9 f2 96 8a 7f 96 3f 5a ac 2f 86 2b 9b 92 bf
       0.02197090669934558 -0.018170051636769415
0005d0 41 fe 49 08 83 05 9a bf 58 9c e2 53 15 10 b3 3f
       -0.025411651020929907 0.07446416185358495
0005e0 bb 62 c7 a0 7e d7 8a 3f 20 5b 40 d3 cd 87 b9 3f
       0.013106335908490299 0.09972845466141367
0005f0 80 2a a5 21 ca 0f a7 bf 17 55 35 ad 48 58 99 bf
       -0.04504233990390549 -0.024750838825032675
000600 b7 dd 59 35 60 49 a7 bf 6b 03 70 7c ae 30 aa bf
       -0.045481688034608884 -0.05115266102803314
000610 62 2b 02 46 0e 32 98 3f ee 47 16 11 0c cb a3 bf
       0.023628447554567507 -0.03865850170690509
000620 57 6d be d5 50 64 a3 bf 57 8e 3d 23 72 db b6 3f
       -0.03787472352197579 0.08928597793924929
000630 a2 16 2e 45 eb a7 a3 bf 84 56 75 d1 dd 11 94 bf
       -0.03839049548609565 -0.019599405202220158
000640 55 2e 8f 43 a1 6a ac bf 5c 3e ae df 98 f2 6a bf
       -0.055501021859154655 -0.003289507466838688
000650 b7 31 e1 fa e9 80 a0 bf 0a ad b3 7b 2a 5c 9f bf
       -0.032233535647353255 -0.03062502269760351
000660 eb a2 b7 fb 99 32 a5 bf bd e8 d2 5d 0e d7 a2 3f
       -0.04140168378564176 0.03679699797926748
000670 1f 03 60 18 4d 28 a5 bf 87 86 78 f4 32 bd 99 bf
       -0.041323098397702866 -0.025135799571336406
000680 d5 ba eb 13 99 d1 af bf 97 3a a8 1e ce 39 bc 3f
       -0.06214598053144519 0.1102570366713088
000690 70 25 3e 95 2b e8 b9 3f 13 d1 b1 2a d5 18 9b bf
       0.10119888681051292 -0.026461916666861884
0006a0 e8 7b 1b c9 53 bf 75 3f f4 ca d6 af 00 c4 9b bf
       0.005309417045025612 -0.027114878399241385
0006b0 7c 3e f8 07 be 7a a2 bf f0 2e 1d 5d 7e 69 b0 3f
       -0.03609269950186175 0.06410970471659616
0006c0 ca e6 cf ed 46 e2 a1 bf 4f bb 7b f8 32 b5 9f bf
       -0.03492948201160358 -0.03096465722677105
0006d0 4b 4d 21 30 f1 f4 ae bf f2 58 4d 47 83 f6 ba 3f
       -0.060462510228399845 0.10532398691916336
0006e0 fa 89 7e e0 99 92 aa bf 6f 11 12 92 dd d3 a1 bf
       -0.05189972749146317 -0.03481953056419484
0006f0 de 07 f4 f7 b6 18 b9 3f 59 f8 77 4c df 74 b5 3f
       0.09803336671396276 0.08381457917127601
000700 5a 30 73 7d 26 24 9c bf fd 9b 56 66 db 34 9e 3f
       -0.027481652647836398 0.029498508568988047
000710 95 a4 be 8d ba 72 b5 3f 16 1c 15 85 5d 74 af bf
       0.08378187141956268 -0.061434671874444444
000720 11 14 ac bd e6 b9 aa bf 94 96 2c 2f 1c 6c af 3f
       -0.052199564603178435 0.061371689566198345
000730 d7 a3 f8 3a 9a 45 a2 bf 89 a5 3e 34 1f 38 a5 bf
       -0.035687274645461 -0.04144380104782914
000740 33 c2 22 c6 05 64 ac bf 10 49 0e 66 3c f4 a4 bf
       -0.05545061153077704 -0.040925872285827336
000750 de 6e 58 b9 47 e4 95 bf 17 4a 2d ee 09 af 9a bf
       -0.021378632247531885 -0.026058344995656037
000760 e6 59 68 1a 32 d4 8c 3f 42 93 c8 1f e3 0d 9b bf
       0.014076606207749042 -0.026420162978087143
000770 26 78 af fe b1 af a0 bf 9f 1a c4 2f 97 88 ad bf
       -0.03259044870331733 -0.05768272836762844
000780 6f 7e fb 06 92 df 94 bf 70 ca 84 e2 13 43 89 bf
       -0.02038410346619773 -0.012334971761992025
000790 df e2 87 51 49 59 c1 3f 49 1a 44 d0 85 0d b9 3f
       0.13553730469700206 0.09786259016628053
0007a0 61 3f 84 84 4c 12 a7 bf 12 4b c4 3e e5 16 b7 3f
       -0.04506148450502568 0.09019310743705614
0007b0 d1 ec f0 37 ca dd aa bf c8 07 b4 83 76 f7 3f bf
       -0.0524733727729313 -0.000487772401996375
0007c0 6f a5 6a 2f 31 03 9a bf 34 a8 e9 aa 1d ef b6 3f
       -0.02540280200870398 0.08958611891435525
0007d0 09 52 ab 91 3a af a4 bf 0f b2 40 c1 1f 79 a9 bf
       -0.04039938953579642 -0.04975222810785251
0007e0 5f d5 1e b7 91 71 b5 3f 5a eb cb 50 c9 07 ab bf
       0.08376417847360561 -0.052793780434476204
0007f0 69 af f7 54 c5 fa 8e bf aa 7c 8b 15 08 81 a5 bf
       -0.015126744895461024 -0.04200005782126344
