hw4/theta_of_simga_200C_0.03learn100000.npy (npy, 25736 bytes, 1 tensors)

array f8 [3201]
-0.03452928869563572 0.001357963325842477 -0.002252017041106663 0.0018622908677248745 -0.001137602662818436 0.0014135299096788327 -0.0015184420712923599 -0.0003904260455811296
-0.005008171146362514 -0.0012872710661476195 -0.0017145552717583153 0.0014153785120850596 -0.003092798009663391 -0.0034459580658877157 -0.003682526883200471 -0.0009919187294961864
-0.003478618975348826 -0.0036751284151733885 -0.00563632321553219 -0.0010064566783437538 0.002967468337601349 -0.0027691679673996082 -0.0011007839916141117 -0.0005885077062329887
0.0009404932696752753 7.645532308110577e-06 -0.00032895109274967476 0.0029590810013939853 -0.0021574733281803375 -0.005105127218079628 -0.003434639996230682 -0.0023794582099117808
8.544722177139585e-05 -0.0020281626451428155 -0.004461662866086358 -0.0014231034280449582 -0.005332424555621384 -0.00396298939297981 -0.0044879943399011935 0.002818335002310115
-0.005190544595593243 -0.0017022611080861085 -0.0016657436733520511 -0.0042206580704708735 -0.0017059146134635785 -0.003229837586716842 0.0010653804141420513 0.004366212203917426
-0.002429401063514705 -0.002135888183184232 -0.002761886234533336 -0.0026331330843511304 -0.004083562411711236 0.00046911379903715204 -0.003900197410992096 0.000625327192449437
0.0012712245752028125 -0.0027129082233623776 -0.003050643387834318 -0.003980548975340526 -0.0021225820849062886 -0.0023768091595262647 0.0007550350038419867 0.0003692963510856086
-0.0029706156479161485 -0.0015453914039681228 -0.003660708332978877 0.0025625066938768392 0.00039727437403895555 -0.0037641153319459145 -0.004509983997999621 0.00026026379385372885
0.0006631676117204811 -0.00458136199361534 0.0011392591042225244 -0.0039109393158817726 -0.0005465514159799673 -0.0035726956294769934 -0.0034708192542111304 -0.0031483836853325392
-0.002218250810120258 0.0018250077982341353 -0.00037550186918811117 -0.0022844958472200707 -0.0017890282308018336 -0.002415242670467229 -0.003776493361314774 0.0002862393851517562
-0.004121319261047492 -0.0044509462664361335 0.0016322849373695783 -0.00028525337174706224 -0.003549047666039814 -0.00486356757885545 -0.002559160600219285 -0.00044326352506286043
-0.003710932864152358 -0.0014742649232085108 -0.003957838052709393 -0.003569835563933924 -0.0019515474551579255 -0.00223225363007723 -0.0007044886620631766 -0.003528325366116303
-0.002076888521261478 -0.0004665097815769698 -0.003624891687929444 -0.000435232710533117 0.0002539174142500318 -0.0036882882489839776 0.00040711085066928206 -0.005525594857886952
-0.0015355248545927942 -0.0007494872035736681 -0.004758642871429818 -0.0006034647562192882 -0.00011463914063349039 -0.0007895068591324579 -0.0016147431439715626 -0.004576939685476253
-0.0025838201307863367 0.0006043378100176992 -0.002199712830309544 -0.004423024950307916 0.001430196511828373 0.0007437975137974097 -0.002367419364867354 -0.003940689880026832
0.0009702959308888862 -0.004490277611105091 -0.004544643707532831 0.002565545145889474 -0.002857869714382025 0.000760672346969608 -0.004344645456034523 -0.0025977996369372716
-0.0006887671343124024 -0.00490701557440935 -0.0024802151450427305 -0.0044088419192600614 -0.0029417487228907847 -0.001167731477318102 -0.0021284213367400136 -0.0006104527740170645
-0.003170737622825105 -0.00293799730919882 0.00017711040829367246 0.0025047778151048913 0.000852390932691037 -0.002285402503149665 3.256887954592461e-05 -0.0009911378575257926
-0.00047786477659802465 0.002383190313165638 0.004366212203917426 -0.0037844438758167787 -0.0010064566783437538 0.0013463212659913253 0.0006517431421124821 -0.0015694433547476937
-0.004623374844670328 -0.002012482058097684 -0.0021533485216286854 -0.0034779615077994105 -0.0016390550670318874 0.001335272498784887 -0.0031032865338761866 -0.0017879758725762964
0.0005744706926443192 -0.0029210739690702127 0.0017973756878858441 -0.0050759054072734636 -0.002540409991908758 -0.004316400033860694 0.003929558891874356 0.0021898276036467126
-0.0016493067710886997 -0.003962751856075325 -0.0011809078288471354 0.0033087728446301807 -0.004500130601147337 -0.004527601337390683 0.001517999098888146 -0.0022465287464998097
-0.0026984863845242067 -0.000703271271929345 -0.0026600051318797033 -0.0007037130327279236 0.0020639063741810775 0.0007683857640508134 -0.0032341161789407177 -0.002972467732563195
-0.0014347784194244106 0.0018853113002592816 -0.002218250810120258 0.0004371222765333128 -0.003745798316710048 0.0008479313402536492 0.003033469871029286 -0.0031054336485797696
-0.0049005302780394154 -0.00021038027382333432 -0.0025549768988218946 -0.0042846572400817755 0.000801473864857368 -0.0018637878110726955 -0.004040552953374944 -0.003017405426419934
-0.004139035780318477 0.0008057183879109428 -0.00029981158930737816 -0.0014383413607048535 -0.0014322216795085733 -0.0037035328268786353 -0.002371367787655422 -0.0003388402274082595
-0.004310441077695788 -0.002244222429877322 -0.003726096687213187 0.00033741612323205645 -0.002609832373817661 -0.0013959537448219313 0.00023777328193727104 0.00020930369264392118
0.0004374154215154877 -0.0019694549684779834 0.0006656061412803452 -0.004105070212217086 -0.00440764824089959 0.0005808381699898666 0.0009291885015086119 -0.0011467925328651862
-0.00488577850435577 -0.004506352891627036 0.00011830534880957477 -0.0020707852876417163 -0.0021492921889909172 -0.00025721053683320854 0.0025772908333206216 -0.004994835064981124
-0.003186350773365677 -3.0884587019780154e-05 0.0022701510641723404 0.004366212203917426 -0.00365491403678594 0.004044555212324357 3.5366166958726283e-05 0.0028613223043914868
-0.003544183750009883 0.004951476315128824 0.002783371543545274 -0.0036160457547504306 0.003846161243256576 -0.0034791576445665218 -0.0022553379291763236 -0.002929917703935104
00000000: 2a5f 67ab d2ad a1bf eadb b604 b63f 563f
00000010: f3af 5471 d272 62bf e454 d797 0383 5e3f
00000020: 2bb3 e38e 73a3 52bf 91aa f92e c628 573f
00000030: d35f 5fc2 cee0 58bf 962e e718 4396 39bf
00000040: e315 95b4 7283 74bf f60c 55c8 3417 55bf
00000050: 79d3 70b4 5d17 5cbf ed79 ef1a 8730 573f
00000060: 8598 bf49 1156 69bf 8bb4 48a6 b23a 6cbf
00000070: f3a6 f590 d12a 6ebf 5df3 38a0 6840 50bf
00000080: d2f1 7f57 317f 6cbf 30b3 418b 4d1b 6ebf
00000090: 721a 16fe 1c16 77bf e845 2ca1 627d 50bf
000000a0: 5cfe c76e 3b4f 683f 6176 6dbb 5daf 66bf
000000b0: e2c2 9ccf 0509 52bf 6dfc 04ad c248 43bf
000000c0: 3c30 edea 6dd1 4e3f 36b6 8bf5 a908 e03e
000000d0: d8a8 722f e28e 35bf 220a 1284 a43d 683f
000000e0: 816d 5eac 8cac 61bf 64de 1827 1de9 74bf
000000f0: 9a90 a24e f622 6cbf ba5c 33e6 157e 63bf
00000100: 2960 9817 4466 163f e35f 6b87 5d9d 60bf
00000110: 4da7 8781 6446 72bf cc73 aaab ed50 57bf
00000120: bf4d 32d1 73d7 75bf 1a59 65dd 7e3b 70bf
00000130: e9d3 a1ce 0062 72bf 1f42 4015 7a16 673f
00000140: ac83 9534 ae42 75bf 8b7f 76f2 cce3 5bbf
00000150: 3cac 6fa6 a24a 5bbf e796 1546 ae49 71bf
00000160: d3c1 5fde 1ff3 5bbf 628a cdd9 7575 6abf
00000170: dea7 5682 8774 513f 08b7 f829 4ee2 713f
00000180: a0b4 bbc3 d2e6 63bf 1b4b a13c 487f 61bf
00000190: 12d8 ae61 18a0 66bf 5a39 778f 1492 65bf
000001a0: e3ce 26f0 ecb9 70bf 36a1 ca6c 6cbe 3e3f
000001b0: c13e 808a 4ef3 6fbf 629f a1eb 9f7d 443f
000001c0: 6ace 7cfe e6d3 543f 51a2 1583 6139 66bf
000001d0: cee5 a3b2 a9fd 68bf 9a19 b57a e84d 70bf
000001e0: 816e 6894 6063 61bf 89ea 7cb3 8778 63bf
000001f0: 9e13 0d53 b1bd 483f e426 1dc0 c333 383f
00000200: 4330 d121 d555 68bf 9f31 8862 d751 59bf
00000210: 7b37 40d2 0ffd 6dbf 457c 454e f7fd 643f
00000220: ff5a ac71 2809 3a3f 6276 f807 ecd5 6ebf
00000230: fe25 6e9c 0f79 72bf f59a a17b 800e 313f
00000240: 5324 209a 0dbb 453f 667f f0fe e7c3 72bf
00000250: 061c 0926 66aa 523f c669 55c7 ea04 70bf
00000260: 9511 863a cee8 41bf 93a9 635c 7c44 6dbf
00000270: 2e3f fde5 d56e 6cbf f225 d79e a3ca 69bf
00000280: ca9f e155 022c 62bf 012e bc33 a3e6 5d3f
00000290: 0988 6c3f e09b 38bf 83fb 735e efb6 62bf
000002a0: bee9 8b6f ba4f 5dbf 128b 0289 21c9 63bf
000002b0: bc80 5f6f e1ef 6ebf 5943 4dcc 4cc2 323f
000002c0: 55c8 1437 84e1 70bf dfd7 68ca 273b 72bf
000002d0: 6dd0 1e9b 4cbe 5a3f f423 19e7 c1b1 32bf
000002e0: 12f2 0a75 e412 6dbf a1d0 16fb d1eb 73bf
000002f0: a731 a9e2 f2f6 64bf 7ec0 f957 ba0c 3dbf
00000300: f902 41e9 6366 6ebf f85c 5fe8 8327 58bf
00000310: cbee fc0f 1836 70bf 8765 f9df 7c3e 6dbf
00000320: 4b94 c61f 62f9 5fbf 8048 cd0a 6049 62bf
00000330: b193 c9e1 ad15 47bf 81e6 d341 6fe7 6cbf
00000340: 8116 d708 8d03 61bf b9ab 5041 bc92 3ebf
00000350: e8d2 09e8 f2b1 6dbf 5906 0542 fe85 3cbf
00000360: 2b75 76fd 06a4 303f 711e 0bad e636 6ebf
00000370: a1ca 1aca 2fae 3a3f 0104 4a93 01a2 76bf
00000380: f948 1742 7528 59bf 9d6a 9983 278f 48bf
00000390: 9820 1978 cc7d 73bf 4f43 35b2 3ac6 43bf
000003a0: ebc3 7f70 4d0d 1ebf 1b9b e911 ddde 49bf
000003b0: 92c5 aa3f b974 5abf 17f8 3ce4 44bf 72bf
000003c0: 7733 bcde a92a 65bf e50c 9c90 8dcd 433f
000003d0: 5330 56d5 2105 62bf 23e9 2cb8 e01d 72bf
000003e0: 60a3 b0cf ad6e 573f edc8 90ff 6c5f 483f
000003f0: a0cc ef97 d664 63bf 86c7 88e2 1c24 70bf
00000400: 5fb2 32a5 6ecb 4f3f f8a2 d5b7 6564 72bf
00000410: 8780 8881 679d 72bf 0aac ef8f 5604 653f
00000420: a138 b41e 6369 67bf f0da 356d fbec 483f
00000430: ff95 57e2 b0cb 71bf d03b 6e0f fb47 65bf
00000440: 0ad3 8028 cc91 46bf 2bdb 9bf6 6019 74bf
00000450: 348a eb5d 6351 64bf 090b b47d 010f 72bf
00000460: 2409 da51 4b19 68bf 699a 5b20 d221 53bf
00000470: 7aab 1181 9f6f 61bf 4cb4 9e59 d900 44bf
00000480: 8389 9dcc 84f9 69bf a7d6 7a4b 6d11 68bf
00000490: 3b5a a3d2 d636 273f 8c80 9659 e684 643f
000004a0: c0ca f396 5fee 4b3f dc90 4b20 d6b8 62bf
000004b0: 4873 1d2e 5213 013f ce07 c52b 223d 50bf
000004c0: 96c5 5f96 3d51 3fbf 7ceb 908e e985 633f
000004d0: 08b7 f829 4ee2 713f 000a c4d5 8d00 6fbf
000004e0: e845 2ca1 627d 50bf 077e ab73 e10e 563f
000004f0: 68b8 89bd 375b 453f 4293 6bf8 b8b6 59bf
00000500: 6a83 14bc f5ef 72bf 1435 f213 7b7c 60bf
00000510: 83eb 452f e6a3 61bf b50c d95d d07d 6cbf
00000520: 2012 31fa b1da 5abf c176 aaed 89e0 553f
00000530: 5829 8a45 106c 69bf 2f28 8579 504b 5dbf
00000540: d081 306b 02d3 423f 88c4 52a5 efed 67bf
00000550: e8fd 1373 bd72 5d3f a89c 8cfb 78ca 74bf
00000560: 2281 ad3a a0cf 64bf 05cd b5cf 12ae 71bf
00000570: c557 daee 7018 703f ec19 21be 66f0 613f
00000580: d13a 25a9 b105 5bbf 93ee fb19 3f3b 70bf
00000590: 718b 4920 1659 53bf 32e4 0ae5 ff1a 6b3f
000005a0: b78d 279c ba6e 72bf d752 c6ba 888b 72bf
000005b0: 9d95 0b1f f3de 583f 4d1b ddef 4f67 62bf
000005c0: 26bf a5d8 221b 66bf fcca 7b8e 770b 47bf
000005d0: 1442 8e61 6fca 65bf e809 0d3b 2c0f 47bf
000005e0: fcb2 214c 53e8 603f 4c80 18dd af2d 493f
000005f0: 9e5c 0ae7 6e7e 6abf db8c 6476 b759 68bf
00000600: 051c dc98 e581 57bf 5834 2798 91e3 5e3f
00000610: ca9f e155 022c 62bf 54ec cee1 b1a5 3c3f
00000620: cfd8 9028 82af 6ebf cc10 15b0 f6c8 4b3f
00000630: 3d8e 76bc a5d9 683f 4dcf bcfe 9070 69bf
00000640: 2590 6f14 9412 74bf e29b a5ca 3093 2bbf
00000650: 0585 1ec7 2cee 64bf 9512 88eb c98c 71bf
00000660: ac76 e204 4043 4a3f a8d2 7eec 4a89 5ebf
00000670: 2816 aeac d38c 70bf 0e05 0234 f5b7 68bf
00000680: 71db 03f5 17f4 70bf 3b4a 1c10 db66 4a3f
00000690: 08e1 95f8 00a6 33bf cd97 b346 d790 57bf
000006a0: 070b 8b51 2c77 57bf 0b1a e00b df56 6ebf
000006b0: b656 0863 1e6d 63bf 8c5f feb1 cb34 36bf
000006c0: 3b51 5c37 d3a7 71bf 08e8 1ebe 7962 62bf
000006d0: 7fdf 39ed 3086 6ebf fd8a e436 e71c 363f
000006e0: 5ae1 3116 3761 65bf fe39 91eb 0ddf 56bf
000006f0: 526b 87f0 582a 2f3f d5cd 9807 116f 2b3f
00000700: 24f4 1fee 9caa 3c3f d620 c715 3f22 60bf
00000710: 69ad ed4d 82cf 453f 97b6 f264 7ad0 70bf
00000720: 9e3f c010 c10d 72bf 6447 e178 6c08 433f
00000730: 13f9 e61c 9972 4e3f ae0b 221b ffc9 52bf
00000740: 6d6f 442e 1c03 74bf 7a4b b3e4 4075 72bf
00000750: 33af 936a 5603 1f3f 1477 cc62 c0f6 60bf
00000760: a013 2975 649b 61bf dadc 08d8 46db 30bf
00000770: 4bb0 ec7a f81c 653f 1452 0cd4 7675 74bf
00000780: b6a2 af0b 431a 6abf 04e3 6054 4231 00bf
00000790: 93b2 7b12 da98 623f 08b7 f829 4ee2 713f
000007a0: b6f8 3e08 e9f0 6dbf 5f1f d205 0691 703f
000007b0: d56b 683e c48a 023f c7c8 0fb7 a070 673f
000007c0: 278a 8329 b108 6dbf 0244 72cd ff47 743f
000007d0: 4790 1138 27cd 663f 6861 3dc8 659f 6dbf
000007e0: 5262 2818 fc81 6f3f 0022 a289 5280 6cbf
000007f0: 1332 b654 c979 62bf b5e8 fc96 7b00 68bf
