hw4/theta_of_simga_220.0C_3learn10000.npy (npy, 25736 bytes, 1 tensors)

array f8 [3201]
00000000: 0760 c1bc 7767 b5bf 9946 1ccc 0cfd 973f
00000010: efc0 df73 46ca 6cbf 7c6b 4d72 9d80 7bbf
00000020: 93e7 ad93 fd40 82bf 8dc3 ea3f 0cae 87bf
00000030: d821 2d6c 3f7f 7fbf 10bb 0659 b765 923f
00000040: 7e69 3e08 9fe5 93bf 3774 744c 2681 7cbf
00000050: c892 b622 6c5d 72bf 38ad 8d00 cd6e 933f
00000060: 5f85 b0a2 1976 81bf dde3 8bc0 8766 92bf
00000070: 2504 09e7 ae07 87bf b983 53fb 8ea7 6b3f
00000080: 372e 694f 29b7 90bf 7a8c 430f ec9f 8fbf
00000090: 3112 a117 8e3c 97bf c57a 7214 75b7 913f
000000a0: 8ad3 573c 9fae 9c3f 796b 3524 cea7 68bf
000000b0: fbf0 8a73 5c56 793f 06df a349 02f0 4dbf
000000c0: 5a81 92a3 4c83 963f 25e3 d13f 1102 9b3f
000000d0: 1a30 d064 f63b 9a3f c76e 9b66 fd8a 973f
000000e0: f437 b85e 5c1d 85bf 8946 be67 27d3 91bf
000000f0: f653 f188 5083 82bf a483 68c4 b123 7cbf
00000100: f409 6fc7 77a6 7f3f 1afd 549d cd87 82bf
00000110: 572b a807 821e 89bf 4130 6b64 33bd 89bf
00000120: d2a6 5874 e2ef 92bf 4fcb d81c 93a5 91bf
00000130: 34f1 0ade cc94 91bf b79a 8cca db69 a23f
00000140: 44c5 fda5 9719 95bf 5cee a308 8821 863f
00000150: e3c6 ad2a 7ff0 8a3f ab1f babe bdbc 8abf
00000160: 1e2d 5d07 f4f5 813f c7bb 9861 7265 89bf
00000170: f014 d824 3c5d 9e3f 2e0f a9d7 59d4 9a3f
00000180: ac62 67a5 08da 593f 43cc 9a63 395c 8dbf
00000190: 93b0 7aac 66e9 3a3f 6de2 ecb3 00af 77bf
000001a0: 2c16 b5c5 1518 92bf 3f23 25c3 0921 973f
000001b0: e242 eccd d177 80bf 1801 7606 9718 833f
000001c0: 20a5 272a 3cb7 a03f 7716 fb0b df94 753f
000001d0: 7abc b547 4d12 82bf 4ce5 93dc 3fb1 8bbf
000001e0: 6a80 0bb6 758a 87bf a017 f743 49f3 82bf
000001f0: 951e c143 9fa9 a03f cb12 fa52 3370 9a3f
00000200: 365c f4f3 6285 81bf 2e75 93e9 c295 7ebf
00000210: e90d 5c23 f9f1 81bf 480b d47e 3ea9 953f
00000220: 7dd3 333b f259 9a3f 4474 9b7f 6dfa 80bf
00000230: d63c 5727 c137 91bf 7ba9 c25a 5527 9f3f
00000240: 7a2c f613 0f7a 9a3f 9eff db2c 74ce 90bf
00000250: 242e f46d 6cc2 9c3f 9e07 c462 b7c0 86bf
00000260: 6b3f 82d5 c8f1 933f a966 c163 5a8b 90bf
00000270: c46c e7c1 10e5 88bf adf9 04a1 ea28 82bf
00000280: f48f fdd0 967a 673f bb2e 1396 89fc a13f
00000290: fd38 e723 0f80 943f a36b 933b c7f3 8cbf
000002a0: ae93 4bb9 0193 7a3f 20d3 a0a1 f2ac 72bf
000002b0: c633 4990 e0b4 76bf 11e4 293b 3b36 953f
000002c0: c9bd 3718 9500 86bf 8b27 626f 1207 91bf
000002d0: 198d a661 6b08 973f 807b 1472 56d6 ca3e
000002e0: 6bf2 0eff 4571 8bbf 038d 1fc5 2c95 91bf
000002f0: 2852 7120 c971 793f 27c5 fc90 66bb 5ebf
00000300: f8e9 d186 16a6 84bf 964a fe26 b768 85bf
00000310: 2ea2 3dc2 06d1 88bf 7311 7f4f 7010 90bf
00000320: cf27 4260 7d9f 703f 65bb b11f c295 743f
00000330: 4f30 a0a8 f56f 68bf 4cdb 02ef 974c 7dbf
00000340: 9c53 0151 efd6 60bf d458 4f57 d47a 67bf
00000350: ec72 622a 421e 88bf b1f1 31e2 ffcb 86bf
00000360: d42a 9a33 4195 863f 29de fbe8 5730 92bf
00000370: 8421 41d9 2c86 85bf 14ac 62a2 43ab 94bf
00000380: fca0 36ff ae18 5dbf 7944 c8b0 a769 983f
00000390: d01e 69f2 3beb 93bf 407e 8da1 630d 80bf
000003a0: 908c fb12 8ff1 933f 3615 8eba 65f3 8a3f
000003b0: 1d32 808d 1f34 78bf 817a 09e3 8720 90bf
000003c0: 0789 fdb5 ee57 7abf fbab a0a4 6245 963f
000003d0: 4c6c 9c7a d0d0 683f ce60 ebd0 7553 90bf
000003e0: e702 a661 aec9 84bf c774 5e59 90ad 8b3f
000003f0: f72a 61ba 1f8a 84bf a4e1 8d78 2afe 86bf
00000400: d105 8c91 223f 8f3f 2872 efbc 16be 8fbf
00000410: 2ea6 952d ead6 8cbf 6466 c5cf 9e39 87bf
00000420: 9577 2851 f3d8 83bf ae48 a5f1 ce13 9c3f
00000430: 4c52 60ca 25cf 8ebf 1049 2cbf ae8b 8abf
00000440: da08 2d15 fa65 4cbf ed72 c976 b6b9 90bf
00000450: 53e1 956a 382b 683f 497d 3725 7c08 8cbf
00000460: 9c48 0723 0bef 45bf aeae c2e6 d87f 8e3f
00000470: b30a 2727 ab32 84bf 228a d759 207d 933f
00000480: 1a26 8c97 014a 81bf cbb1 d481 56b4 83bf
00000490: a049 dc83 1a7a 9b3f 8f08 1ffa 6b3a 923f
000004a0: 131a ecf3 3052 973f 7266 9d5f 864e 7abf
000004b0: 71cf 7177 ff62 663f 5227 8413 36bc 833f
000004c0: 77f0 8c07 1279 903f 18ee 21ba 6e26 a53f
000004d0: 2e0f a9d7 59d4 9a3f 23af 3175 567b 85bf
000004e0: c57a 7214 75b7 913f b752 534a 932c 88bf
000004f0: a052 a821 bd24 953f 2d54 7a25 0b13 7c3f
00000500: 91ae 1770 6b6a 91bf 7931 0dab c301 85bf
00000510: ad3d a05e 6e86 5dbf 193d 288d 5195 81bf
00000520: 6dba 6679 0541 76bf 1313 c728 3ca5 833f
00000530: eed8 357f 8311 8fbf d51e e6e2 b671 81bf
00000540: 5598 a8d6 449d 843f 955f dff1 f3e6 87bf
00000550: cdc6 7b8a ae82 8a3f d40d eadf 58b1 96bf
00000560: a385 83e0 d5cd 89bf 19f9 6906 bcda 87bf
00000570: edf8 7052 e268 603f 7f5a a4f7 49ba 7fbf
00000580: 85a9 2fe1 84b1 853f da1e 71bf 477e 89bf
00000590: e59d bf7b b7f5 6bbf 1900 feb0 f76a a13f
000005a0: c3dc 141b 5db2 8ebf 32ae cb38 1878 8ebf
000005b0: cbe2 bfad 7b3a 9d3f 5b40 67ed f4f9 78bf
000005c0: 9176 507f b5cb 443f 257d 2ef0 18a0 71bf
000005d0: 9f1c 735f 31d2 80bf c59f d9a0 e02d 923f
000005e0: 1b3d 00bb c858 723f 2beb 29ec 2240 9a3f
000005f0: a5f3 bdd1 a666 88bf 5909 01f3 b48f 7bbf
00000600: e46e 977a a87f 81bf 7a2f 9b3d 3a00 8bbf
00000610: f48f fdd0 967a 673f 9343 7f57 cd63 84bf
00000620: 1cd8 0751 b411 8abf d9f6 061a edd5 973f
00000630: 370d 66f1 171d 89bf c4e8 20b6 9d2d 86bf
00000640: fcd3 1a84 8a35 90bf 4333 d68e 3f43 383f
00000650: c7fd 2e7a 9186 81bf fff9 7a64 0077 8abf
00000660: d9c1 89a2 68db 84bf 232d 96e7 d0ab 7d3f
00000670: e1ba 6022 1493 89bf a766 550b d646 80bf
00000680: a659 2300 dabe 8ebf a3ad ee24 fbfd 9b3f
00000690: e8ee 5ecd 17a6 973f cfe7 b800 8b36 7abf
000006a0: d960 9d19 7165 6cbf a218 8e90 260d 8abf
000006b0: b6d8 ca55 f483 80bf 9d28 380c f9f9 8e3f
000006c0: 9f72 2dc5 178b 8bbf 227f 4ae7 c622 80bf
000006d0: 5b2e 9d71 9fc7 8ebf 5a2d e18b ff47 9a3f
000006e0: 98c9 1c12 d525 89bf a47b 3e4b 50eb 80bf
000006f0: 3395 1b64 91c5 983f c36a f3f1 4241 953f
00000700: d47b 0525 bc27 78bf a8dc c499 269e 583f
00000710: 7fda 0c40 464c 963f 6ab8 4d3b 001c 90bf
00000720: c288 04c8 ba68 8dbf 1b71 3052 e497 8f3f
00000730: 44ba 0258 fca8 82bf 1026 1c82 3bb0 81bf
00000740: ac52 dfe6 861a 92bf 5930 366c bb63 8cbf
00000750: 4c45 8997 725c 70bf 4b8b 125b a45f 79bf
00000760: bc27 b44a 6f9c 60bf 62f5 8fcb 3a66 7abf
00000770: 2736 7268 7e82 83bf f3ae ba01 b835 93bf
00000780: 83f2 071f 2960 7dbf c8b2 6fce e2e2 52bf
00000790: 5c20 8bf7 fd6a a23f 2e0f a9d7 59d4 9a3f
000007a0: 01ca 1240 4e2d 8abf 3506 9fe3 57b7 983f
000007b0: 629b 701c 43b1 85bf 0ba2 7c6c d62d 483f
000007c0: 2d4f 2737 03f4 81bf 1ecc 3d71 909c 973f
000007d0: 4233 f07a 31a0 89bf 9034 3778 a0fe 8abf
000007e0: 7b0c de31 3489 973f 2f41 a9e3 d616 8cbf
000007f0: c709 23a0 b75a 75bf c58a a9ac 9061 83bf
-0.08361004217420041 0.023426246602929444 -0.003514421084212064 -0.006714453721396004 -0.008913022107424761 -0.011562438679307419 -0.00768971228064471 0.017966141518338807
-0.019430622938310098 -0.006959104160412947 -0.004483625797921227 0.018977358969477026 -0.008526039388075444 -0.01796924698553314 -0.01124512331546341 0.0033757965671701
-0.016323705169538818 -0.01544174596387492 -0.022691936676226546 0.017301396725651914 0.02800988012127762 -0.00300970327377342 0.0061858760242865475 -0.0009136210603903634
0.02198524235120778 0.026375073929077026 0.0256193636924281 0.022991141688961016 -0.010309907570469769 -0.017407050806986155 -0.009039525202902948 -0.006869978335573377
0.0077271155232119144 -0.009048086513415533 -0.012265220507307424 -0.012567903043780972 -0.0184932120811599 -0.017233179698631414 -0.017169190456784736 0.03596388671421862
-0.020605439668945694 0.010806143535311445 0.013154023637727835 -0.01305530775358917 0.008769899821024437 -0.012400525668537455 0.02965253805998186 0.026200679576745482
0.0015778622088104361 -0.014336059906190473 0.00041064030345228894 -0.005782129998629243 -0.0176700021668436 0.02258696797915438 -0.008041037651794484 0.00932424534289615
0.032647972246033996 0.005268927837908436 -0.008823970557129569 -0.013521670264241913 -0.01149455987746269 -0.009253094088204794 0.03254411413268802 0.02581863588285919
-0.0085551958750739 -0.007467042328440683 -0.008762308494175879 0.021153427592263158 0.025733742583685427 -0.00829015298534775 -0.016814249063654106 0.030423482575011356
0.025856242745743142 -0.016412558782576185 0.028085416995095383 -0.011109764768210625 0.019477022201101073 -0.01615658983096205 -0.012155657689552853 -0.00886710456745451
0.002866072238179024 0.0351298328110636 0.020019756857259974 -0.014136845117197988 0.006487852796202382 -0.004559467104674281 -0.005543591691616839 0.020714688764631065
-0.01074329834133793 -0.016628540085128967 0.0224930551863852 3.199250287480094e-06 -0.013399645658745038 -0.017170619517753682 0.006212030078206733 -0.0018757344841556307
-0.01008241270959774 -0.010453635098916874 -0.012117436220891422 -0.015687708713600878 0.004058351278340268 0.0050256331406747 -0.0029830739995358245 -0.007153123369952063
-0.002055613913436406 -0.0028661868368359076 -0.011776463430856997 -0.011131285753656824 0.011026868235850008 -0.017762540431219307 -0.010509825115278877 -0.020184571062298387
-0.001775904555737339 0.02384054199689387 -0.019452034636087856 -0.007838037841508272 0.01947616151199988 0.013159556155879142 -0.0059090836075595095 -0.015749095184555365
-0.006431515182926845 0.02174905900771405 0.003029257951209929 -0.01594337546961882 -0.010150301318164036 0.013514640548061852 -0.010029075503685798 -0.01122697048570915
0.01525713926958164 -0.015499284401749483 -0.014081792369967063 -0.011340370860739309 -0.009691143907783398 0.027419312952880297 -0.01504354022839851 -0.012961735924851087
-0.0008666487795852232 -0.016333437919786076 0.002950296581442449 -0.01368805874420666 -0.0006693653468181795 0.014892286817789948 -0.009862267620410625 0.019032006724851176
-0.008441936910020199 -0.00962131103241228 0.02683297567188847 0.017800986424625406 0.022774472129663503 -0.006422543426958792 0.0027327527600906 0.009636328192317887
0.01608684702954163 0.04130884191632961 0.026200679576745482 -0.010489154292563868 0.017301396725651914 -0.011803770738347692 0.02064795988015311 0.006854098835579453
-0.017007521359046655 -0.01025727144010412 -0.0018020704105799854 -0.008585583801532114 -0.005433102973639065 0.009592504496035248 -0.015170123405124216 -0.0085176742548038
0.010065591622218909 -0.01167097646604968 0.012944568253689859 -0.02216090075172679 -0.012599631227604052 -0.011647671647776069 0.0020031376220962433 -0.0077460183477088265
0.010592496988427022 -0.012447891740648687 -0.0034130653057109378 0.0340192225985449 -0.014988639248811336 -0.014877499802842118 0.028543407897788236 -0.006097752330291052
0.0006346355645551906 -0.004303071417694403 -0.008213411069290464 0.017753133599768284 0.004479202369125158 0.025635286011019758 -0.011914542461221542 -0.006728846390674136
-0.008544269791790744 -0.013184027676650823 0.002866072238179024 -0.009955982430172294 -0.012729080889567305 0.023277001107763737 -0.012262522749330358 -0.01082919323026877
-0.015829243004834112 0.00037021924693974114 -0.008557449856993039 -0.012922289911668548 -0.010184113941449734 0.007243934663516502 -0.012487561511162539 -0.00794760915839572
-0.015012457970823356 0.02733604824940773 0.023094531926957013 -0.006399672488948085 -0.0034663399682522797 -0.012720395361395301 -0.008064183109450656 0.01512522285976941
-0.013448892311936076 -0.007878831799927936 -0.01502918782684686 0.02566527644402803 -0.012279190650222913 -0.008261325165049467 0.02419116185673893 0.020756765382297326
-0.0058972691916485305 0.0015025498351642162 0.021775338801683915 -0.01573181497536106 -0.0143599121370851 0.01542642951795208 -0.009111377178070097 -0.008636917980328312
-0.017679317323045993 -0.013862098922594311 -0.0039944149253455345 -0.006194726957945938 -0.0020277188938324347 -0.0064451500593326345 -0.009526240885203553 -0.018759608369392344
-0.007171784047838361 -0.0011527266412897797 0.03597253462572844 0.026200679576745482 -0.012781726198544343 0.024136899249930194 -0.010592006974616989 0.0007378861418816952
-0.008766198273327664 0.023058182632166184 -0.012512575687674169 -0.013180974644365656 0.02298432878843613 -0.013715437719981153 -0.005213467871899308 -0.00946343447612231
