hw4/theta_of_simga_210.0C_3learn10000.npy (npy, 25736 bytes, 1 tensors)

array f8 [3201]
00000000: 1abb 1bed e173 babf 3620 d8f3 93a3 973f
00000010: 380e 2611 c3f8 6fbf ba9f 8d62 63d1 79bf
00000020: 775a 2809 f66f 81bf 9436 54ae 607b 86bf
00000030: f936 ac67 b930 79bf 5a1f dcb4 f28a 913f
00000040: 6796 adc4 f447 94bf a7fc 6797 d9bf 79bf
00000050: d46f 56de d5fc 72bf d2d3 2080 c9ac 933f
00000060: 4866 f33d 7093 82bf d95d c3cb 1de6 91bf
00000070: 598a 6f79 2c78 86bf 8e86 5b6a e62d 6a3f
00000080: 6c47 682c 7e9f 8ebf 1d4b c5e3 39a1 8fbf
00000090: dbbf 4a92 1008 97bf 1fcd 9817 0db1 903f
000000a0: 9253 e25d d823 9d3f d630 324f 7685 6fbf
000000b0: df56 dcec aec6 773f a605 f31a cf77 4cbf
000000c0: 52d9 8d75 631b 963f 1a06 d477 c05e 993f
000000d0: 6360 65a3 85d3 983f 6af3 a48f cc2c 983f
000000e0: a1e6 ff91 98ed 83bf 85e0 93cc e8b3 91bf
000000f0: 0ff6 b49d 83a1 82bf 800e 7f5a 970b 7bbf
00000100: 0d05 edc8 f537 803f f984 2494 01a6 80bf
00000110: 1841 347d afbd 89bf b1cc 48dd 3480 88bf
00000120: 12b5 c2ac 9548 92bf 0672 7f1f 8688 90bf
00000130: 8757 9591 88bf 91bf 670c 7de6 df8a a23f
00000140: dc22 2170 9995 95bf 90c7 cd8c cd5f 833f
00000150: a1b2 42b6 0ba7 883f 5367 1bb2 79e0 8abf
00000160: 00b3 255c a620 7d3f 575d 7f95 8419 87bf
00000170: bad0 6ad7 24dd 9d3f 5205 6a2f 673f 9c3f
00000180: 78bd d9e0 86b5 433f 1b0e c85a eec1 8bbf
00000190: 4ae1 1d5e 896b 42bf 3208 e720 0606 78bf
000001a0: 99bb a7dd 05d4 91bf e7b2 4721 f2cf 963f
000001b0: 379e bdd2 f5c0 82bf 1022 cf6f 2224 843f
000001c0: 87a2 0f1e 8812 a03f 446e 4e9b ec40 713f
000001d0: 74d8 b45e 369f 82bf 1ba5 04f0 69a5 8bbf
000001e0: caa8 996a 6687 85bf b96c 646b 09a0 81bf
000001f0: d6c4 2fe9 ad9f 9f3f e8db a817 5f1b 993f
00000200: bbdb a1a5 6ca9 82bf a0ee e637 1a65 7cbf
00000210: df84 d6b2 5549 82bf 0571 5b77 42e3 953f
00000220: 1293 71e2 f8f9 993f 726f 03e3 b21c 82bf
00000230: 5f3a e5c1 107f 90bf b319 ad1d 2098 9d3f
00000240: 7e42 477e 5ad3 993f 2c69 908e 64b8 90bf
00000250: 5440 7dbb 6657 9c3f e29e a67e 898f 86bf
00000260: 814f 0b2e 4954 933f 3310 8e1d 925f 90bf
00000270: 5949 03f7 fd21 87bf c58c ba41 1715 80bf
00000280: 57d5 2099 8b6f 573f 0f44 a168 53c8 a13f
00000290: cd79 edea 6a65 933f 4029 c19b 6810 8cbf
000002a0: 04b3 c6b9 7e7b 773f c521 4b4f 5773 74bf
000002b0: 9c4a 9ca3 b413 7abf 923e 7fac c316 943f
000002c0: e392 056b 0ada 86bf d25e 931d e03c 91bf
000002d0: af3d 9c94 e94c 973f 21dc d281 546d 403f
000002e0: c1c4 345b e28a 8abf c04a a61e ece8 91bf
000002f0: 4814 2486 10d3 743f 684c 5654 53ac 64bf
00000300: 7f42 6c2c 102d 85bf 6a03 8d18 7db0 84bf
00000310: 2438 3791 810c 87bf 2e33 44ec c1e4 8ebf
00000320: 3c7e 8545 5def 6b3f 581a ceaf 0dcf 6f3f
00000330: 92bc e4ab 3c54 66bf 9090 f56f d4c2 7fbf
00000340: 15f3 69f2 5153 65bf 6cc7 33f5 30fc 62bf
00000350: bec3 aac5 7fe7 87bf cd14 95ca e304 86bf
00000360: 9382 c728 8107 883f b367 ee34 7f53 91bf
00000370: 9c14 c34e 5e65 84bf f4ee 1ac2 5f06 94bf
00000380: 6257 1537 4d29 53bf f2c0 14dd 0c6a 963f
00000390: fba3 7472 fb77 93bf 6c23 dfae 064d 7cbf
000003a0: 9177 97fd 4373 933f 7efb 0371 c712 8a3f
000003b0: 999d 9591 17f8 76bf 3083 ad96 262e 8fbf
000003c0: 3a65 ba01 c734 79bf 5c87 5bc2 6ca9 963f
000003d0: 0e22 afdb 5670 5a3f 8c8a f377 ee8f 90bf
000003e0: 2f34 7128 61bd 83bf e96a 20c4 e1fc 8b3f
000003f0: 30b1 7b05 e64a 84bf 5c01 cba5 2489 87bf
00000400: e724 beac 3c5a 903f aa4c 0010 3ab4 8fbf
00000410: 0f8c 49a6 ceeb 8cbf 226d 0445 0802 87bf
00000420: d840 6830 71b4 83bf 10c4 b4c3 796d 9b3f
00000430: 9648 9cc5 7c09 8ebf 7e3f 046c 04e8 88bf
00000440: 901b 3df9 5742 3bbf fc79 5c5a edb8 90bf
00000450: d1ac aa9d 8b58 5f3f d448 66ca 80f9 8cbf
00000460: 59f3 31c6 7a44 57bf d0a4 e8dd 3b5b 8e3f
00000470: bf2a 9482 f320 82bf 2b44 de13 313d 923f
00000480: a1ac b1c5 a06a 82bf e9c9 b6da 2ef7 81bf
00000490: ea89 fc8b e73d 9a3f 508e 7b85 f7c3 923f
000004a0: 75dc 317d 7ba6 963f 593d 470f 0833 7abf
000004b0: cf88 054e 89fd 693f 1a93 94b8 1d6d 823f
000004c0: 408c da16 0c78 8f3f 4d32 4e2b 3ee9 a43f
000004d0: 5205 6a2f 673f 9c3f d8ff 8d69 4b43 86bf
000004e0: 1fcd 9817 0db1 903f 911d fe3a 784a 87bf
000004f0: 4fb7 690c a168 953f a598 0054 7014 783f
00000500: a98b 429b 9c13 91bf 3410 a8fd 52b6 84bf
00000510: 3b8a 19c8 cc75 63bf 250f 46a8 f6dc 82bf
00000520: 007b 43ec 2ba4 74bf a888 73d5 d699 843f
00000530: 2e8c c993 07c7 8dbf 8612 8787 748f 7ebf
00000540: 52d2 2015 7e48 853f cb8c 68a7 7ad1 87bf
00000550: b7a9 b6db cd13 8b3f cb56 08c9 aa4d 96bf
00000560: 25cf 0877 55d3 88bf dc0a 28d9 8a7a 88bf
00000570: f0dd 1b4e 24bb 683f 401e 46a6 bbad 7ebf
00000580: 40b0 3ba6 ee81 823f df66 b72f bf1d 89bf
00000590: 122a 7593 995f 6abf 5c41 adf9 b786 a13f
000005a0: ffa4 0b75 562a 8fbf 73f2 208e feae 8ebf
000005b0: 3b7f 889b 9eaa 9c3f d2b7 3688 4660 77bf
000005c0: 60d9 f560 3dfd 1ebf 5125 1fbe 8434 70bf
000005d0: 03b7 0a16 d5ee 81bf bc6e 7665 7844 913f
000005e0: 1f60 6cfc fcfc 753f 6960 7400 d789 9a3f
000005f0: e82d eacb 1fea 87bf 86c5 68d6 3d83 7ebf
00000600: 3c0e 6e26 61d0 7cbf eea7 6252 995c 8abf
00000610: 57d5 2099 8b6f 573f fc5a c3c7 3765 83bf
00000620: f912 feba 1184 8abf 848d 3437 c728 983f
00000630: dc65 75b3 ac58 89bf 11d6 0ed0 a8ad 86bf
00000640: 3d72 8425 1a94 8fbf 0581 7e82 a50f 443f
00000650: 2667 3eda 6a1b 81bf d32d 00d8 c0ad 8bbf
00000660: d4d2 8073 0ead 83bf dd74 97c8 8c33 7b3f
00000670: 6db7 412d 2698 89bf 11b7 8192 af91 80bf
00000680: 28f7 0d3c ccd3 8cbf 8bd1 e3a4 2e18 9b3f
00000690: 4e41 8621 0eeb 953f 37b7 dacf ad9f 78bf
000006a0: 3605 bfc7 9ca4 6cbf 81a2 8b41 8dbc 8abf
000006b0: 057b 7a61 1cc4 7dbf 38b6 61dc b2ba 8d3f
000006c0: f55a fa42 3742 8cbf d1d7 96f8 2527 7fbf
000006d0: e129 c402 fa53 8dbf 9c42 da40 e02e 993f
000006e0: 21e5 f4e2 a08b 87bf 9d42 63c7 14a7 7fbf
000006f0: 05d3 0f75 bbe1 973f b43b f07d 69d0 943f
00000700: 5306 e8ee a6df 74bf a83d ebe4 fa82 443f
00000710: 7a8b 650a eb1d 963f 71ed 11bc 8def 8ebf
00000720: 3f8e 3a07 fb30 8cbf d875 5173 2949 8f3f
00000730: 964b 533f 8ee3 81bf 1f0b ada1 22e6 7ebf
00000740: 96b6 685f c445 92bf 1d96 b8b4 3828 8dbf
00000750: f813 e7d2 d0ab 69bf 8edd 6a5b 37cd 78bf
00000760: 61f0 acfb 0f33 66bf 2ab1 c990 5251 79bf
00000770: e53c ac3d 7736 83bf 212b 1ea9 5c65 93bf
00000780: bdf2 4992 3cdd 7ebf 4085 77dc 988b 34bf
00000790: ebf4 ddb3 5854 a23f 5205 6a2f 673f 9c3f
000007a0: e698 5535 e3cf 89bf 7aa0 3f85 45ee 993f
000007b0: 7e8f a19d e032 82bf e5eb 1ed5 e253 5d3f
000007c0: f698 2a1d 0c6c 82bf ad22 4742 4912 993f
000007d0: 4036 464b 04ab 89bf c816 8213 1faf 8abf
000007e0: ff99 0f22 4b81 983f 0436 ce92 60c5 8abf
000007f0: 0a49 1dad 1df3 75bf 8839 800b 4438 81bf
-0.10333072699334558 0.023084937818595296 -0.003902798643311358 -0.006303203795006535 -0.008514330057591153 -0.010977511711213674 -0.006149982679529258 0.01713160733109418
-0.019805740837361443 -0.006286478010678532 -0.004635653900006493 0.019213818021132152 -0.009070279017055274 -0.017479386865344757 -0.010971400695727928 0.003195714979356285
-0.014952645998196089 -0.015444233191976015 -0.02249170201201865 0.01630039650463033 0.028457051019887887 -0.0038478193978957837 0.005804713536937205 -0.0008687745338635158
0.0215888538836791 0.024775512040838256 0.024244392488384735 0.023608394877772033 -0.009730522113375275 -0.017287862287930018 -0.009097126245815294 -0.006602851128210241
0.007919235414763049 -0.008129131635146157 -0.012568827637125454 -0.011963284495413925 -0.017855013532131876 -0.016145797417140194 -0.01733220470972399 0.036215779195594426
-0.0210784887970331 0.009460073337070246 0.012037364482546055 -0.013123465297599479 0.007111215442233698 -0.011279140293409524 0.029163909576440196 0.02758561350720374
0.0006014736733969536 -0.013553487916403253 -0.0005621357670256091 -0.005865119876434165 -0.017410365728149555 0.022277625352148524 -0.009157104963107716 0.009834546124595028
0.0313913857169768 0.004212307209765568 -0.00909273602028924 -0.013499095570824118 -0.010512161377125646 -0.008606027212002198 0.03088256583936729 0.024518476313655585
-0.009112213902182966 -0.0069323562769871006 -0.008928937454415862 0.021374739203438704 0.025367630787871916 -0.008843801072025068 -0.01610971625751245 0.02890062504891384
0.025220312077922184 -0.016328402711317455 0.027677159493862583 -0.011015962770059177 0.018876212535203777 -0.015989573530092293 -0.01129530344079359 -0.007852727597600037
0.0014304030669454926 0.03473148967953687 0.01894156512150307 -0.01370317197156068 0.005733008405894639 -0.004992810300514743 -0.006366448995111764 0.019618089106926258
-0.011158067122502618 -0.016833783917575236 0.02275433511300456 0.0005013144142570516 -0.012960213096990693 -0.017490090723706997 0.005084099337414001 -0.002523577454391513
-0.010339857440642362 -0.010102250396472907 -0.011254322284823877 -0.015084757826593877 0.003410036250144603 0.0038829104727853662 -0.0027257142056878536 -0.007754163583147414
-0.0026032066846809567 -0.0023175197799156135 -0.011672018260783786 -0.01075151407224908 0.011733063752161576 -0.0169200779015239 -0.009958969858767035 -0.01955556509231733
-0.0011695150427235225 0.02188892459270248 -0.019012383328263365 -0.006909395318822269 0.018994390824324695 0.012731130730115 -0.005607692780677986 -0.015224744294472708
-0.006153848047369787 0.022130679476397006 0.0016136978363069407 -0.016174055167435017 -0.00963855652494247 0.013665927694139284 -0.009908482591946738 -0.011492048558807859
0.015969226878529332 -0.015480474103276205 -0.014121641587911097 -0.011234345060577914 -0.009621509828349792 0.02678480393405286 -0.014666533260911312 -0.01216128782883152
-0.00041594169418995245 -0.016330441131794146 0.0019132007061369203 -0.01414776437448887 -0.0014201353995126535 0.014822452268236225 -0.008851911947677647 0.017811552846584682
-0.008992439301627466 -0.008772245454427856 0.02562677184972443 0.018325679323324018 0.022119454876215323 -0.0063963236647873395 0.0031726533635928265 0.008997184939809656
0.015365690658034947 0.04084200171118777 0.02758561350720374 -0.010870541723988866 0.01630039650463033 -0.01137250833541151 0.020906940825106187 0.005878866941236326
-0.016676375366511263 -0.010113380781156513 -0.002375507320537621 -0.009210516939453914 -0.005039378713461273 0.010059049977318615 -0.01453977508317025 -0.007461028283107246
0.010392174739629532 -0.01163001845731628 0.01322136713755105 -0.021780651588492 -0.012121837325231486 -0.011952481033409006 0.0030189236721260768 -0.007489903455627778
0.00903688854983653 -0.012263768809975982 -0.0032194137126329092 0.034230946758386976 -0.015217471548981452 -0.014982212746070566 0.027994611971848143 -0.005707049861866724
-0.0001182144844643399 -0.003956335569406847 -0.008756317839778932 0.01686275595930796 0.005368221499132657 0.025916442301508278 -0.011677025232777319 -0.007449380448222858
-0.007034663670200166 -0.012871930910780063 0.0014304030669454926 -0.009470401557718493 -0.012947214621598745 0.023593056435073048 -0.012376164652482417 -0.011073416566300261
-0.015419201154650891 0.0006122167733231548 -0.008353075776358642 -0.0135150018613989 -0.009607422733190964 0.006640958724770854 -0.012497232681393656 -0.00809037366726842
-0.014075847227782726 0.026459435285646243 0.021404476925057474 -0.006011656716209227 -0.003496462069933283 -0.013054946482456533 -0.007267104017641972 0.014516255713000623
-0.013798171741013368 -0.007605694126530297 -0.014320328912181548 0.024592880209243093 -0.01149678890816347 -0.007727700393119233 0.02332203771580323 0.020326278983755677
-0.00509610374729304 0.0006259656018644992 0.02159850359874891 -0.015105349828664601 -0.013765298040488648 0.015276264030201256 -0.008734809215104094 -0.007543692855338318
-0.017844265292458937 -0.014236872687500452 -0.0031336859312625052 -0.00605508445612858 -0.0027098953409261804 -0.0061810708253740385 -0.009381228990177745 -0.01894135267461217
-0.007535206420126781 -0.0003134964176450712 0.03579976268427195 0.02758561350720374 -0.012603545251021985 0.0253229963854271 -0.008886103449363022 0.0017900195275461991
-0.008995146408164772 0.02448381869342835 -0.01253321985930278 -0.013029330046502877 0.023930715516963016 -0.01307177970900409 -0.005358806536451386 -0.00840809974763769
