hw4/theta_of_simga_180.0C_10learn5000000.npy (npy, 25736 bytes, 1 tensors)

array f8 [3201]
-4.304846028155743 5.791111989272673 3.3338445923046534 -1.410879481172448 -2.990132628579577 -3.2621560046145235 -2.20981492894849 3.8967951629411175
-2.7638627277682164 -2.174064956819396 -1.6386905657223323 5.1758170980059 -1.0563720369132859 -4.3305262674911695 -2.4877726814747767 2.377462252339927
-3.8295508765444715 -1.319609394317945 -2.831523922876926 4.4952311887926495 7.457719331226423 -1.5205461595463505 2.3595290018835637 -1.0417928591001717
4.971933049105949 5.326836230285465 6.649918908896407 5.781047397560179 -2.8457916294524788 -3.4373329910485584 -3.1268336597819806 -2.250690546724265
2.735018650519042 -2.7729274103518198 -2.402846327389753 -3.8304570087515426 -3.6207413932101233 -4.2011415390043965 -1.8361057249915833 8.353016794225157
-2.267286412500207 3.9535722367902197 3.936095074796361 -2.726033683339356 2.681549583226286 -3.417385771880654 6.812690502449252 7.191703130467766
2.6890788699741632 -3.7277586319418123 2.924118412498973 -1.7776311320292897 -4.101492402631862 5.216059640804579 -1.5789218138146708 2.3474637566429646
6.378592773695653 3.080871759661963 -2.053203930557797 -3.393064584027192 -3.439415934578566 -2.8726947731482277 6.5908833934155195 5.50091403437529
-1.4047779221030774 -2.2707150725704675 -1.8552834177827684 4.603132778745084 6.500635013034798 -1.0360892128198556 -3.7238753433660277 6.308912808583323
6.206767092136422 -3.252129469529893 7.27095167669431 -1.9770519968988163 4.9604303820198705 -1.0624331786968202 -2.5272752954999276 -2.2492170641955167
-5.509356930012154 8.469191632035384 5.432416125998802 -3.9096761896770866 2.1184836922623256 2.1453376480613757 -0.6087402379195763 2.2465687660861446
-1.9156202318176838 -2.7563711532103876 5.471592487497964 -0.2827604837945401 -3.2164216471494953 -2.394997499893523 2.4378712757727827 -3.3313385003347733
-1.8677664035303212 -3.289552923454092 -2.717747427471975 -4.403574987728006 1.7339814037098265 3.254790564725109 -0.4324791601134264 -1.7479076937504188
3.0913387722335823 -1.2478319611963107 -2.9273701450052947 -3.216619877795273 3.5668800334463326 -4.936091664038309 -3.576670547236471 -3.5713589758528532
4.015445593236915 5.487812079373218 -3.9595766557246375 -2.373384365456677 4.632135084998301 3.4346104042018326 -2.180256798164473 -3.16487101783776
-1.908681834182682 5.824600448316282 -5.112266678173321 -2.643729087904091 -2.3618473205596 4.145638976297611 -0.8970978015511686 -1.7595642628092643
4.176988609352346 -3.1741590880533375 -3.1485618922434258 -2.302161504202274 -2.5813103806902755 6.003230282997359 -3.42666607024296 -3.57719209454958
-0.5159774950788467 -2.5247139480098113 2.881002901801901 -1.940172143409615 3.5765433324997624 4.076716913709149 -2.4724232957212875 4.819431877830447
-1.076719343643315 -2.549595627081421 6.534535776773773 4.875752284905228 5.8971489332552816 -2.183920660247604 -0.5748165619156492 2.850008676746954
4.158048668229156 10.40444524698539 7.191703130467766 -2.2261531148393723 4.4952311887926495 -3.5569686676309584 5.867586953449726 -0.34473711482770264
-3.6187266024273224 -2.9609031560900365 -0.28217601982633783 -1.3712119847401003 -1.8613952020822344 3.3735957661442457 -3.4851385310977325 -2.3717817653840814
2.863530026622366 -0.9847746126937577 3.462465471939108 -4.519545917272836 -3.4558299747883106 -2.2803155577277714 2.1100164373937482 -1.8437452199432296
2.315772932085972 -2.8910947191813876 -1.0748217844525136 8.197951737779002 -1.9247035326358002 -2.599078983866337 7.115229814320287 -1.6929203818423162
3.7410076044596745 -1.3209137559477946 -2.2255172654828375 3.301528238927662 3.3600914518390996 7.856882735191393 -2.9313258877526676 -2.759037354055576
-2.227946666239478 -3.9682768280420055 -5.509356930012154 -3.1790530734603895 -1.9215697177144575 6.816547562420306 -2.422023823330414 -1.192565356371606
-2.9539281615567567 -0.9196332186526761 -2.430561357150522 -1.6064246931950312 -3.211088607917289 2.2991774390651516 -2.6181926243233913 -1.8034827343285689
-3.799391514337151 6.919456763000866 5.565184482769437 -1.9700058784042136 2.2706781203577955 -1.0204499238226346 -2.069796951067368 3.6570416932491137
-1.6123063508300541 -2.2376720995686687 -4.183520585231782 6.0585706055966 -3.2991662606261674 -2.2718353788240107 5.5003768062241605 5.6924638643204215
-1.7905245841447008 1.9561997313324486 5.327439649245054 -4.0624616261807605 -2.5837551305023214 4.035050405856129 -2.719221209568196 -3.1269298309092854
-3.0191279523286445 -2.255595363964792 -1.1558182993980106 -2.56553385274887 1.64090886236474 -2.4441488907614235 -2.142211720161228 -3.282242587942967
-1.3560368469347854 -1.0797670765319156 8.778577471394621 7.191703130467766 -2.941114682477402 6.34365855002653 -2.0616647987310683 1.380491005694299
-1.6642585459462413 7.73790899275163 -2.508944249830812 -4.167462022848331 6.477055923377703 -3.381693965259985 -1.4569248070399101 -2.5214840171796267
00000000: 47fa a48e 2938 11c0 3999 e542 192a 1740
00000010: d628 afb6 b6ab 0a40 d4ba e35c f692 f6bf
00000020: 489d d3a7 caeb 07c0 bd27 523f e518 0ac0
00000030: e15e 1073 b3ad 01c0 4058 40f1 a22c 0f40
00000040: c72e d30f 641c 06c0 075a 072b 7c64 01c0
00000050: 93a8 4099 1338 fabf 470d b865 09b4 1440
00000060: 3639 6f5d e6e6 f0bf c45f 557a 7552 11c0
00000070: f887 165d f5e6 03c0 2632 eaed 0a05 0340
00000080: 5b03 e991 eba2 0ec0 6770 81bd 1e1d f5bf
00000090: c0c8 b403 f6a6 06c0 664b 7fe2 1dfb 1140
000000a0: 3a75 5960 b4d4 1d40 a7f5 b435 2854 f8bf
000000b0: 6c6d c8bd 50e0 0240 49aa 30fd 2eab f0bf
000000c0: 173f cf6a 42e3 1340 5fe5 2028 ae4e 1540
000000d0: 5c0c ab57 8499 1a40 6796 94e3 ca1f 1740
000000e0: e2d4 dd66 2ec4 06c0 941f 7070 a87f 0bc0
000000f0: 625d a65d c103 09c0 d1c6 9c0b 6a01 02c0
00000100: 496f 4f75 51e1 0540 f124 ed90 f42e 06c0
00000110: 209f cb7e 0739 03c0 2c93 eaa4 c6a4 0ec0
00000120: 3de3 7843 47f7 0cc0 6090 2f0c f8cd 10c0
00000130: 4165 8d65 b060 fdbf 8945 049e beb4 2040
00000140: 14d4 020f 6723 02c0 ba19 1b7b eaa0 0f40
00000150: 8c93 216a 1f7d 0f40 48e5 6dbf eace 05c0
00000160: 8179 9444 d073 0540 5258 005a ce56 0bc0
00000170: 4a28 67f0 3140 1b40 7999 4fd3 4dc4 1c40
00000180: b63a 57c8 3b83 0540 0493 1c1e 73d2 0dc0
00000190: 2784 ba31 9864 0740 16ad 8657 2d71 fcbf
000001a0: a062 d89f ed67 10c0 f6f6 0cbd 3edd 1440
000001b0: 7366 1485 4343 f9bf 5c9d fa13 9bc7 0240
000001c0: 5a19 f6d2 ad83 1940 4658 d717 a0a5 0840
000001d0: 7a1d ae2e f66c 00c0 ace6 6c0b ff24 0bc0
000001e0: 88d9 6280 ec83 0bc0 857e b065 47fb 06c0
000001f0: 6be0 4989 105d 1a40 46ff ce9b ef00 1640
00000200: 7735 196a f879 f6bf 9fcb f9a9 6c2a 02c0
00000210: 7002 43aa 3daf fdbf 476c 9fa3 9b69 1240
00000220: 33de 0077 a600 1a40 6ccb 4c48 d293 f0bf
00000230: 561a f127 7fca 0dc0 39b9 a8a3 533c 1940
00000240: b675 aac0 bad3 1840 e5e8 8f74 5c04 0ac0
00000250: 30cb 385b 7415 1d40 24c0 5246 01a2 ffbf
00000260: c670 e30f 7bd7 1340 bb02 cbee b9ff f0bf
00000270: 9349 311c dc37 04c0 5999 2284 65fe 01c0
00000280: 9992 f1dc 9409 16c0 354c b6e2 39f0 2040
00000290: 24b6 fd4a cbba 1540 62e7 644f 0447 0fc0
000002a0: 1502 fb93 a7f2 0040 ca68 eac8 a629 0140
000002b0: 7ef6 b3ce cc7a e3bf c670 940b f9f8 0140
000002c0: 0068 7366 61a6 febf 4f69 b551 0c0d 06c0
000002d0: 475f 1b24 e9e2 1540 80ea 9f6d bf18 d2bf
000002e0: 703a c545 3bbb 09c0 065b 0073 f428 03c0
000002f0: 4a6a caa7 c280 0340 90bf b6cc 94a6 0ac0
00000300: 2eaf 3b06 5fe2 fdbf 7792 851f 0151 0ac0
00000310: fb3d fe5c f2bd 05c0 ff19 f7c2 429d 11c0
00000320: e0e4 cc48 63be fb3f f896 b6a2 cf09 0a40
00000330: b1e0 3812 bdad dbbf 795b d10e 6ef7 fbbf
00000340: dccc 7cd2 0fbb 0840 fcdd 83a5 1ef7 f3bf
00000350: 18ad e009 416b 07c0 8d5a d633 a3bb 09c0
00000360: 5342 2366 f888 0c40 3969 2cd0 8ebe 13c0
00000370: 9793 a772 059d 0cc0 3183 9ca7 2492 0cc0
00000380: 8c47 37f8 d00f 1040 c501 7e02 85f3 1540
00000390: 2cbd 9286 36ad 0fc0 0acb 33f1 b0fc 02c0
000003a0: 35e3 726b 4e87 1240 bd62 0405 157a 0b40
000003b0: 14fc e779 2a71 01c0 0d5f 6de5 a751 09c0
000003c0: e98a 84f6 f589 febf 3824 570f 644c 1740
000003d0: 69bd 3c09 f672 14c0 7f41 a06f 5b26 05c0
000003e0: f596 3f35 10e5 02c0 77e2 4062 2295 1040
000003f0: 7c39 df72 06b5 ecbf 449e 3fdb 2c27 fcbf
00000400: 3cbb 8380 3cb5 1040 12ec 1b85 ad64 09c0
00000410: 6af0 a437 4130 09c0 7f45 95a6 d36a 02c0
00000420: cf1e 8f0e 86a6 04c0 6a52 9fcc 4e03 1840
00000430: 020d 90e6 cf69 0bc0 2ecd 8ce3 169e 0cc0
00000440: a0bd 5a3c e382 e0bf 50a8 f339 9d32 04c0
00000450: b45c d73f 4b0c 0740 4fdf 08f2 f10a ffbf
00000460: b581 2ec0 c29c 0c40 30b9 ede0 8e4e 1040
00000470: 86ee 67dd 85c7 03c0 9953 7226 1947 1340
00000480: aeb2 fe0f 3e3a f1bf ebb6 6264 9265 04c0
00000490: 2924 bf58 5d23 1a40 cb42 fc34 c580 1340
000004a0: 11e4 bf35 ae96 1740 d693 2665 ab78 01c0
000004b0: 570f d4b3 e564 e2bf 238e 5f59 d1cc 0640
000004c0: e0e1 9482 d7a1 1040 58a6 8972 13cf 2440
000004d0: 7999 4fd3 4dc4 1c40 35fd 405d 29cf 01c0
000004e0: 664b 7fe2 1dfb 1140 29f9 22fd ab74 0cc0
000004f0: ea02 deb6 6878 1740 96c0 7942 2c10 d6bf
00000500: 6fb9 d4ee 26f3 0cc0 373d 70fe edaf 07c0
00000510: 03a7 3702 2c0f d2bf c278 65fa 7bf0 f5bf
00000520: fcfd dd55 46c8 fdbf da1b ecc6 1ffd 0a40
00000530: 01c1 684f 90e1 0bc0 1797 dcb7 68f9 02c0
00000540: 15a8 3b6e 82e8 0640 976c 6e0c 4683 efbf
00000550: b80f ec18 21b3 0b40 20d4 4dd8 0314 12c0
00000560: b504 922f 8aa5 0bc0 9801 4815 163e 02c0
00000570: 5507 454c 50e1 0040 feff dcfc fa7f fdbf
00000580: 942b 82f5 b386 0240 cd2d a444 f620 07c0
00000590: d007 d453 7832 f1bf f5e4 1fee 5965 2040
000005a0: b3a9 72ee 95cb febf 256a 1bec e9ca 04c0
000005b0: 801e f0cd fe75 1c40 cde9 abae 3316 fbbf
000005c0: cfee 1965 95ed 0d40 ea1d 6a76 7622 f5bf
000005d0: 0475 fffe dbcd 01c0 461e 28a3 8769 0a40
000005e0: a7be 89a0 77e1 0a40 c29d f0aa 726d 1f40
000005f0: e986 aefc 5a73 07c0 7ae3 202d 8212 06c0
00000600: a6d8 a5b3 d5d2 01c0 fb51 efeb 07bf 0fc0
00000610: 9992 f1dc 9409 16c0 d415 b660 b36e 09c0
00000620: ac14 69e3 bfbe febf 1ae5 500b 2544 1b40
00000630: 32b2 ba06 4e60 03c0 9056 3f69 bf14 f3bf
00000640: 18f5 8416 a5a1 07c0 f4b5 cda4 a26d edbf
00000650: 1d10 1f27 ca71 03c0 e226 0c61 eab3 f9bf
00000660: de80 5c39 4fb0 09c0 0ae3 2324 b764 0240
00000670: 6fc7 80f9 0ef2 04c0 4278 2db6 10db fcbf
00000680: 4d39 d660 2765 0ec0 f0b2 dc12 86ad 1b40
00000690: 3ece 96b8 bf42 1640 17c8 4ae2 2485 ffbf
000006a0: 956f 554a 592a 0240 ec61 a04c c353 f0bf
000006b0: 128f 31b4 f18e 00c0 42e8 4413 9f41 0d40
000006c0: c42b 7fbe 01cc f9bf 7e8d 36a1 c0e6 01c0
000006d0: 67da fed1 ecbb 10c0 602d ceee f93b 1840
000006e0: e4a5 cb47 b164 0ac0 268f ef06 b82c 02c0
000006f0: 88a3 09c7 6200 1640 06ac 4b3f 15c5 1640
00000700: 2b5e 391b fda5 fcbf 0845 e816 984c ff3f
00000710: 54af e356 4c4f 1540 2dce c6f0 f53f 10c0
00000720: 9709 53cf 87ab 04c0 5474 eb40 e423 1040
00000730: ce7a ad0c f7c0 05c0 3523 85c9 f303 09c0
00000740: 1e87 4d8e 2c27 08c0 6ce7 0995 750b 02c0
00000750: 5186 4054 3b7e f2bf beb2 d29c 3686 04c0
00000760: 842b b9a6 2941 fa3f fbff 02ef 9d8d 03c0
00000770: 609a f9e5 3f23 01c0 0f07 e666 0842 0ac0
00000780: 0218 5cb1 53b2 f5bf a108 90d7 b946 f1bf
00000790: a515 d2b4 a18e 2140 7999 4fd3 4dc4 1c40
000007a0: f934 7822 6787 07c0 3d6b e506 e85f 1940
000007b0: 36ea 2e1d 4a7e 00c0 0e11 9ebc 7d16 f63f
000007c0: 88d7 ae91 cda0 fabf 932b 3d6a 9ef3 1e40
000007d0: b115 e45c 5112 04c0 85d2 1d2a 7bab 10c0
000007e0: ce14 1559 81e8 1940 42fa ce90 b50d 0bc0
000007f0: fb7a ef62 904f f7bf b662 f9cf ff2b 04c0
