hw4/theta_of_simga_220.0C_0.1learn100000.npy (npy, 25736 bytes, 1 tensors)

array f8 [3201]
-0.053614078718966514 0.007492691058042224 -0.004211492729061322 -0.0013169916131977716 -0.0022201405799347203 -0.002482631392782717 -0.0013983305189530833 0.004547701811000793
-0.010073693638075566 -0.0009050680452936201 -0.0020649636117042614 0.006779721114742566 -0.006071153535281529 -0.006513496280429902 -0.004708477016496677 0.00019387109550229162
-0.005253543993152072 -0.008305353660259517 -0.01134397398284245 0.0036734900749881704 0.009954333742350201 -0.0035879065888151556 0.0010699733463198757 5.1407582382961617e-05
0.0069933092268465525 0.006524019046146976 0.006404422111805863 0.008929265628832346 -0.0031470645049773527 -0.00825460179174598 -0.004571907312631904 -0.002197740450567669
0.002753457535717638 -0.0022128406864630277 -0.006533791223544069 -0.0034180410544199934 -0.008298240014697903 -0.006127122435699532 -0.009432651374172344 0.012071741545288988
-0.010748703634210299 0.00018128001978595212 0.0019460709282671097 -0.005896040253049174 -0.00022327596046675067 -0.0040400624730451305 0.009251362717786748 0.009712115640808842
-0.0024170208457139366 -0.003950653768297062 -0.0029396092414060893 -0.00308895796848339 -0.007238656992842438 0.007015970349808632 -0.005796659729706023 0.004201101963984278
0.009276026590029705 -0.0014680934022319558 -0.004349746265118965 -0.006402734339121147 -0.002822253819329476 -0.0027849228044923013 0.008730438883541627 0.006955596548340445
-0.005836111595819235 -0.0017237176223584593 -0.00451766116883408 0.007436638212213278 0.007883666169518556 -0.005127815866753369 -0.0070850809636234195 0.007947745452667816
0.00770498947580143 -0.007696587142916258 0.008426541227012141 -0.00503916561991495 0.0052662074507188765 -0.008615619522314679 -0.004517479047081751 -0.0032075970213763087
-0.0013585830902116986 0.011335195129100913 0.005023755540918656 -0.004576940141569848 0.0002027702890390124 -0.004706094035912725 -0.004758890987865055 0.005659751979632421
-0.006126639978933518 -0.008198485246613504 0.008429659447401847 0.001194843886215904 -0.005219792543189125 -0.008858915074860736 -0.0008205600688463518 0.0004127463104412343
-0.0054578107903315845 -0.003179664975448244 -0.00498466683948689 -0.005513674775783418 -0.000528974134299664 -0.0018198557781793849 -0.0005873684839812118 -0.0048825071665282264
-0.003703967531332773 -0.0001893665128627018 -0.004596642168054031 -0.0029279956990025616 0.004295972081533868 -0.005983252240689004 -0.0020056617177881563 -0.009128898366282983
-0.000473629409267001 0.00484382417820477 -0.008529277413216567 -0.0012690143098015385 0.0057914418659167815 0.0033071609447988923 -0.0017412195001614448 -0.007172368175827022
-0.002766900529341846 0.007178968575014893 -0.001321301085476678 -0.007983599930166237 -0.0022201510501390033 0.004635301795739356 -0.005851654301225826 -0.006042718394347641
0.005792761101626855 -0.007100451644319394 -0.007179018356131767 -0.0032593979005981866 -0.003808229446755826 0.008106945709165425 -0.006513469716068813 -0.004195894159512246
0.0007990874465987158 -0.00847967344701401 -0.001758295307401488 -0.007536496371484356 -0.0038526149950851274 0.0037381735602348928 -0.002940817909351085 0.004388813329207606
-0.005952797445916953 -0.0033758643382820258 0.00728329951302986 0.0070180915131077895 0.006835963324799101 -0.0021535722448981854 0.0021058236690234574 0.0017725091526225466
0.004015314644016307 0.01269100541503866 0.009712115640808842 -0.0052271109735077615 0.0036734900749881704 -0.0024910930151279416 0.006660834723336889 0.0005370230707127386
-0.007402482411251235 -0.0033847903870421517 -0.0021071777655234055 -0.005451977422597477 -0.0014362655517757854 0.003922442199176381 -0.005310295961505296 -0.0021815395152959723
0.003935676235258682 -0.006837866261319307 0.00462375782714464 -0.009474343078072886 -0.004136172646090871 -0.006716463662196394 0.002374326776304189 -0.0017894960847079288
0.0006374236444776467 -0.005654465036833092 -0.0012274294287679466 0.012050795017730102 -0.008130105321020766 -0.007549367967008481 0.009166877183519617 -0.0016575182453137
-0.0027752147916068216 -0.001039985810826593 -0.004705947623271773 0.004197733257298178 0.0031680231276954894 0.008024275198552026 -0.004461010124505098 -0.0037083346023711592
-0.001365198835949921 -0.0029346294754685124 -0.0013585830902116986 -0.002536522209679846 -0.006341654361211277 0.007474158773004707 -0.0038947218364245645 -0.006730925977796153
-0.007405761449336255 0.0009051786511187409 -0.0032944522223951724 -0.007628764068204788 -0.0019886226661708414 0.0007492360192093852 -0.006093313755524827 -0.004043519701885282
-0.00576270960670035 0.007961652077967256 0.005455568743561381 -0.0018143972939546895 -0.00338463732018401 -0.007297557597841163 -0.002477359627653718 0.003978278440217943
-0.007509085824121671 -0.002754588020441833 -0.005486954208663458 0.006801072742251931 -0.0036296206797279016 -0.001974667408023639 0.006745027119379558 0.005868049320365464
-0.00037585905220613545 -0.002531757685468482 0.0069985651969625634 -0.006151309807606737 -0.006246997428979544 0.004885694533777087 -0.001954867855351478 -0.0015245584172404482
-0.00872728983871072 -0.007271815496180774 3.5106527601372326e-05 -0.0019521573735144728 -0.0036464658284250753 -0.001478104644081714 -0.002438925644442569 -0.009801228498049442
-0.004193287895006211 0.0010204662628081856 0.011720060353999818 0.009712115640808842 -0.005323318369022776 0.008985253022801154 -0.0016349508390788364 0.002207059642869351
-0.004747722676595131 0.008724987397830326 -0.0038538620636832093 -0.005724798214666657 0.00919924044227985 -0.005100484466411431 -0.002903096732007469 -0.003211553623773232
00000000: c100 68f5 4d73 abbf 3569 daf0 a7b0 7e3f
00000010: 1f5a 9ef8 1140 71bf 363e 19fa dc93 55bf
00000020: 3ff0 dde5 f82f 62bf 1415 7b94 7456 64bf
00000030: 9807 44f6 05e9 56bf 4da7 cd68 9ca0 723f
00000040: d4bc cd45 84a1 84bf 534a ddd3 42a8 4dbf
00000050: e419 c0e5 8aea 60bf 81ce 6b87 0dc5 7b3f
00000060: f7e2 20de 10de 78bf 38ef 1c58 e5ad 7abf
00000070: fb10 cc2c 3249 73bf f9c0 9607 3c69 293f
00000080: 2e0e 387a bd84 75bf 79fa d1b2 6502 81bf
00000090: ee96 1a6a 823b 87bf e103 7ff7 dd17 6e3f
000000a0: f6d0 030f f062 843f 2ad8 b8ae 6264 6dbf
000000b0: 381a ec21 cb87 513f 46f6 af14 cff3 0a3f
000000c0: c9d0 b826 04a5 7c3f 8a21 1107 eeb8 7a3f
000000d0: 40dc 51f8 853b 7a3f c436 d3be 8149 823f
000000e0: d7ad 1264 dfc7 69bf 837b e5e5 c9e7 80bf
000000f0: 7da5 3506 feb9 72bf 3d73 87eb fe00 62bf
00000100: e17c 2342 6b8e 663f 54d2 25cc a920 62bf
00000110: b0f5 fb39 2dc3 7abf e19d 71d1 2600 6cbf
00000120: 35e4 d1eb aafe 80bf d1bd ade7 c018 79bf
00000130: 2f47 5509 6d51 83bf 366a 24b9 11b9 883f
00000140: b3a8 aa94 6a03 86bf 5db7 4683 bfc2 273f
00000150: 3ed1 86bf 69e2 5f3f b401 0141 7226 78bf
00000160: 22db 78e5 e543 2dbf 93df 2003 508c 70bf
00000170: d9d6 87e2 60f2 823f effe 6a18 f2e3 833f
00000180: 0310 8e2f dccc 63bf 7ff4 b88b 8f2e 70bf
00000190: a966 c1b1 ce14 68bf d7e1 81ae 034e 69bf
000001a0: 0acc d130 48a6 7dbf 9bf0 3b33 c7bc 7c3f
000001b0: 9b29 71ff 3cbe 77bf 0ef9 adb8 2c35 713f
000001c0: 4c60 ba36 4fff 823f ae93 9a49 a10d 58bf
000001d0: faf9 451f 0ad1 71bf 47ca 76e9 c039 7abf
000001e0: 606a 5cfb b11e 67bf 40ee bf0b 68d0 66bf
000001f0: 7b55 e0ab 43e1 813f 894d 30bb 787d 7c3f
00000200: 23a0 0947 9be7 77bf 0f46 32b4 cb3d 5cbf
00000210: 52c3 976f 1c81 72bf e944 9e5e e175 7e3f
00000220: 941e f7c2 4f25 803f fd6e 2997 e700 75bf
00000230: 3ad0 73f0 3e05 7dbf 2a7f 5e56 e846 803f
00000240: ea90 085d 448f 7f3f 363e 1de1 7486 7fbf
00000250: 0045 e837 ef41 813f 2f2b 96b8 f2a3 74bf
00000260: 4389 65cc 0492 753f 2e3b aae0 10a5 81bf
00000270: 6603 488c eb80 72bf 1d22 c789 d146 6abf
00000280: 0d35 3f7c 4f42 56bf 5e73 fc22 e836 873f
00000290: b981 051c ca93 743f 08a7 9403 45bf 72bf
000002a0: eebc 2185 d793 2a3f 104b 9e7f b246 73bf
000002b0: e09d 8712 0f7e 73bf 00f2 7e1a ae2e 773f
000002c0: 2d8e 8065 3f18 79bf 8b69 1610 5eca 80bf
000002d0: 92e1 24bd 9143 813f 715f 91da 8993 533f
000002e0: d609 3d64 5961 75bf d750 3274 9f24 82bf
000002f0: 4f1c 7e54 5be3 4abf 0adb a6e7 bb0c 3b3f
00000300: ffbb a2ed ed5a 76bf 75ff 9da2 3d0c 6abf
00000310: 3aaf e950 cd6a 74bf 4efc 7bcd 8195 76bf
00000320: c844 ba4d 5b55 41bf e3f2 3e43 07d1 5dbf
00000330: ab97 f636 343f 43bf 4cc2 a409 aeff 73bf
00000340: 635d 336d c857 6ebf 409d 9bf5 15d2 28bf
00000350: a503 88bc edd3 72bf b434 a4b8 73fc 67bf
00000360: fbf5 8339 a798 713f afde 280b e581 78bf
00000370: 05fc 826f 2d6e 60bf 961b 74ff 2bb2 82bf
00000380: 2ee9 bed2 2e0a 3fbf 346b ed26 1ed7 733f
00000390: dcde 623c cc77 81bf 2538 5cbd a1ca 54bf
000003a0: b5a0 9256 c4b8 773f 1975 3783 9e17 6b3f
000003b0: 4c05 bc33 3487 5cbf 9532 00ec c560 7dbf
000003c0: 5526 1d69 9caa 66bf 93ad fab3 b167 7d3f
000003d0: ff93 d13c f0a5 55bf e4d5 d5a4 b459 80bf
000003e0: 7680 e184 fe2f 62bf 8ea9 ea59 77fc 723f
000003f0: 97c5 9e7d e7f7 77bf e160 1fde 3fc0 78bf
00000400: 02ad c277 26ba 773f 0c3f 96f9 5c15 7dbf
00000410: fa58 e910 bf67 7dbf 5734 68ec 73b3 6abf
00000420: c74d be9d 6f32 6fbf 20cf 87d5 5f9a 803f
00000430: 84c0 9f36 dead 7abf 64d1 14c3 b62f 71bf
00000440: 5793 9239 3b2f 4a3f e4e1 1581 ca5d 81bf
00000450: 8852 e335 d3ce 5cbf 0a38 12d7 96de 7ebf
00000460: bb16 0eed 848f 6fbf 35f0 03a6 849f 6e3f
00000470: 0e1c d097 5717 68bf 0aa2 791b 01fa 713f
00000480: a14b 99e5 f561 78bf 8e88 b75d b3a7 6bbf
00000490: fe6c 72d3 17d5 7d3f 4854 7798 00bf 7c3f
000004a0: 9cab aaee 0600 7c3f d2ad 904b 5ea4 61bf
000004b0: 0764 4479 3b40 613f c776 e935 710a 5d3f
000004c0: 2367 44d1 5c72 703f 8706 b0e9 bdfd 893f
000004d0: effe 6a18 f2e3 833f c9c1 f0ea 0569 75bf
000004e0: e103 7ff7 dd17 6e3f e326 0061 3368 64bf
000004f0: 790c d034 6448 7b3f fef9 5043 e098 413f
00000500: b63f d9bd 1052 7ebf 8b64 8480 6bba 6bbf
00000510: 357d df72 1243 61bf 5b4a a80b d054 76bf
00000520: 071a b064 2288 57bf 0f61 748f fa10 703f
00000530: 4db6 c9b7 3fc0 75bf e8a9 f01b 05df 61bf
00000540: eb41 7d0b db1e 703f ebf6 77bf 0502 7cbf
00000550: 0474 6f8a 5cf0 723f a50a 5fcd 4867 83bf
00000560: e3da ed63 17f1 70bf 28eb 61fc b882 7bbf
00000570: acf6 55fb 5273 633f 5cbe 3fca b051 5dbf
00000580: 6315 76da 18e3 443f 039d 8de6 2229 77bf
00000590: 9f1b 4d50 361c 54bf c283 ef53 16ae 883f
000005a0: 010c bc43 84a6 80bf 275e 6108 16ec 7ebf
000005b0: 0665 ad6d 15c6 823f 504a fea9 2228 5bbf
000005c0: 2453 9e18 0cbc 66bf fd74 ee42 040a 51bf
000005d0: d4df 3732 8b46 73bf d038 eb70 a431 713f
000005e0: 0add 3e77 d3f3 693f 9c42 6afc 076f 803f
000005f0: 2b51 7849 b545 72bf bdb7 dffa f060 6ebf
00000600: cc9a 9616 0f5e 56bf efbc ef33 5d0a 68bf
00000610: 0d35 3f7c 4f42 56bf 48f6 f4fd 78c7 64bf
00000620: 97cf 57e1 b4f9 79bf ec33 ec37 399d 7e3f
00000630: ce42 43dd d2e7 6fbf 2595 242f e391 7bbf
00000640: 8b49 a1f3 8055 7ebf b850 0f5a 30a9 4d3f
00000650: 9aa1 b591 f7fc 6abf 83d0 e8c2 563f 7fbf
00000660: 0cd7 16aa 714a 60bf 87df 8819 0c8d 483f
00000670: 2131 de74 4df5 78bf d1d3 150e f08f 70bf
00000680: 1304 c194 a39a 77bf 6f41 60da 324e 803f
00000690: 29d5 5a15 9458 763f 81f1 8642 22ba 5dbf
000006a0: f719 2b53 19ba 6bbf 3210 9333 0be4 7dbf
000006b0: fd37 9952 664b 64bf 9bcd b8fc 864b 703f
000006c0: 6e6f 99e0 d8c1 7ebf 25aa c62e ca90 66bf
000006d0: b9ff 170e 7d79 76bf 6f4d 1710 71db 7b3f
000006e0: a6dd b8c3 ddbb 6dbf d997 037e 2d2d 60bf
000006f0: abc1 366e aca0 7b3f 99ad c17e 1809 783f
00000700: 1236 4e56 dea1 38bf 7d48 bc0e 7bbd 64bf
00000710: b9f0 3c0a 87aa 7c3f 2e42 38a7 1d32 79bf
00000720: b998 7d9a 7396 79bf 8f64 daa3 0503 743f
00000730: f42e 37b0 a703 60bf 8bb2 be22 76fa 58bf
00000740: f511 8503 9ddf 81bf bb7a d11b 0dc9 7dbf
00000750: fee7 771a eb67 023f 6261 db04 f1fb 5fbf
00000760: d584 546f 31df 6dbf 0734 cfc6 9e37 58bf
00000770: cd0f 2b3c ccfa 63bf 47c2 e09e aa12 84bf
00000780: 2fbf f225 fb2c 71bf 6e7c 6d4e 25b8 503f
00000790: a7ac 6bdf af00 883f effe 6a18 f2e3 833f
000007a0: 7e81 d164 e7cd 75bf 73a2 083f dc66 823f
000007b0: 1c32 9a18 7bc9 5abf bdf5 901f 8a14 623f
000007c0: 49f4 051a 5972 73bf 77e8 40fc 67de 813f
000007d0: fca9 db70 2292 6fbf 0a28 bbd1 e272 77bf
000007e0: 91f3 c726 0dd7 823f 86c3 a1df 3ee4 74bf
000007f0: afd2 ac30 3cc8 67bf fd12 12b9 1d4f 6abf
