hw4/theta_of_simga_180.0C_30learn100.npy (npy, 25736 bytes, 1 tensors)

array f8 [3201]
0	0xbfa7ed5656b695fe	-0.046732614598379726
1	0x3f43288df1425d0a	0.0005846684530465285
2	0xbf5adfa4f827df07	-0.0016402350453272334
3	0x3f5bfb0114a9a57c	0.0017077932885974636
4	0xbf5d11cf0577ea7f	-0.0017742654507616749
5	0x3f5353e7caeded1d	0.00117967258458302
6	0xbf630bdf673b2d5a	-0.002324997267214063
7	0xbf514ca362593661	-0.0010558696316310889
8	0xbf732b810f89b5d6	-0.004680160659160623
9	0xbf61466dc95ad719	-0.0021087784069448
10	0xbf63618403366ce3	-0.0023658350343801356
11	0x3f44a77346b29ba0	0.0006303131935013646
12	0xbf651e46c53d998a	-0.0025779134975209604
13	0xbf709c82af960475	-0.0040555100362108425
14	0xbf718cba4cca1ec7	-0.004284599050727151
15	0xbf5625fbd37a7a4f	-0.0013518294562470284
16	0xbf713194cebb3834	-0.004197675017804815
17	0xbf68e630ee2fe0b0	-0.0030394511863925597
18	0xbf75232327ace645	-0.005160462688587557
19	0xbf584411a836d84e	-0.0014810726578225078
20	0x3f62b2e267fed7d3	0.002282564353630592
21	0xbf66c87bcbb5b9be	-0.002781144894178327
22	0xbf59726ae31cf3e8	-0.00155315817069312
23	0xbf558e2c37346e3b	-0.0013156348985096228
24	0x3f28101d043ef461	0.00018358568388335535
25	0xbf415acacfc43303	-0.0005296221056894926
26	0xbf4e36cdbc6b1612	-0.0009220604486805414
27	0x3f62c1376f14fed1	0.0022893984502444305
28	0xbf66c67a670c6f43	-0.0027801886248094722
29	0xbf75a340da386d6d	-0.005282643632678369
30	0xbf6fa85feda828e7	-0.0038644670105486448
31	0xbf69894ddef821d7	-0.00311722954916525
32	0xbf4393b41f784b51	-0.0005974416262140935
33	0xbf66b2bec521763d	-0.0027707792260532036
34	0xbf73449cd5b12d31	-0.004704105983431448
35	0xbf60dea9b9bb2f22	-0.002059298987523565
36	0xbf7714cd261aff07	-0.005635072100346645
37	0xbf72c0bf2f0751b7	-0.00457834893355307
38	0xbf6fa8232782bc54	-0.003864353810136426
39	0x3f60d2729b428235	0.0020534742744333875
40	0xbf7315460f9e2648	-0.004658960033233912
41	0xbf58376bd5393ecd	-0.0014780571990690606
42	0xbf60e6de7b61f995	-0.0020632119513372496
43	0xbf730f32b4550705	-0.004653165878439007
44	0xbf59ca3daf3f3fa6	-0.0015740969074506755
45	0xbf7038d6a7bc9949	-0.003960455414733063
46	0x3f29bca1743d6788	0.00019635649561671972
47	0x3f711aafe011f6df	0.004175841343678959
48	0xbf62909d1bde34c4	-0.0022662228138360125
49	0xbf66d57c3572c459	-0.0027873445465833977
50	0xbf658d1abe64cc05	-0.002630760415877289
51	0xbf69c361584b7296	-0.0031449223773577046
52	0xbf7253bf30ad229c	-0.004474398457042252
53	0xbf33fc2e9a2c79b0	-0.00030494821310069874
54	0xbf6fbafd7c5927b2	-0.00387334355290122
55	0xbf290e57d4dff835	-0.00019116232073196492
56	0x3f4337eaa4849f5f	0.000586499759298125
57	0xbf660adff899e142	-0.0026907324252613283
58	0xbf6cc1bd057d52b3	-0.003510350401408091
59	0xbf71b5fcff7c2a8d	-0.004323948167221159
60	0xbf67b797094a2032	-0.002895159714459105
61	0xbf69498fa28b79e7	-0.003086834465974453
62	0x3f1e063ea499d751	0.00011453397123681082
63	0xbf34044d1a652674	-0.0003054321517948829
64	0xbf64b07e0cfae692	-0.0025255643775750703
65	0xbf62710a0f7b0aad	-0.002251166962964865
66	0xbf70cf688b61c15d	-0.0041040500419600974
67	0x3f6047acabeb1ba9	0.0019873020640690142
68	0xbf3e79d6077e5356	-0.00046502566646582555
69	0xbf706aa907b25a74	-0.004007969163601122
70	0xbf73dfbe03bd556f	-0.004852049107133423
71	0xbf38e0497cafa783	-0.00037957948796806684
72	0xbf1b377b8f0e9488	-0.00010382358210721439
73	0xbf737dc9e90491c1	-0.004758633338756758
74	0x3f3e594f4547a53d	0.00046308694189052866
75	0xbf71de0611b45f26	-0.00436212893261948
76	0xbf550b7bc4df4eda	-0.0012844761545140388
77	0xbf66f37ad5015a8d	-0.0028016470969690122
78	0xbf70f64183a5de26	-0.004141097941434723
79	0xbf6fcfa8c141754b	-0.0038831993097533705
80	0xbf656892e103f240	-0.002613341210347536
81	0x3f4e2687e4e540c2	0.0009201205773852405
82	0xbf4f5c7b9ca1248f	-0.0009570697377593462
83	0xbf67534772f4affb	-0.0028473277558500576
84	0xbf61aa03e7c06036	-0.0021562649035438376
85	0xbf5d3aff91e16b3c	-0.0017840858268047396
86	0xbf6fe77cc21e7790	-0.003894561451445129
87	0xbf3a155718116e79	-0.0003980004913210832
88	0xbf71a9cbdf3933e7	-0.0043123210667319395
89	0xbf724d8623fd3e84	-0.004468463884975574
90	0x3f47df89d9bf58a0	0.0007285521601214824
91	0xbf518f3948cc8bdf	-0.0010717448632895294
92	0xbf709880e9cdee57	-0.004051688735554024
93	0xbf73ce35c6b08325	-0.004835329115878283
94	0xbf66905fdca2d9d0	-0.002754389982409601
95	0xbf54562d8454743c	-0.0012412495137319587
96	0xbf705e33ea357fb2	-0.003996088783736628
97	0xbf60f49f51c00a2f	-0.002069770021990956
98	0xbf725fbacb419896	-0.004485826171821602
99	0xbf7146d206a4dd1e	-0.0042179302347940244
100	0xbf62cc8945cab036	-0.002294796095460706
101	0xbf5f0d9c2e6f96dd	-0.001895334740532765
102	0xbf55db847b047cdd	-0.0013340753321882594
103	0xbf6e6bef911e1617	-0.0037135771789873584
104	0xbf589014a02903c4	-0.0014991952345015805
105	0xbf5254cb201109a7	-0.0011188491482846204
106	0xbf716005534d8130	-0.004241963198041085
107	0xbf4d84d2d880b392	-0.0009008435745322277
108	0xbf420ba7fda6d317	-0.0005507059352597179
109	0xbf71d42bef72d6a7	-0.004352733251996511
110	0xbf1c89dd8ab26556	-0.00010886587795013355
111	0xbf773d5d502c5006	-0.005673756126970636
112	0xbf61e8f39cda0270	-0.002186275297219979
113	0xbf5164ac163a3d3d	-0.0010615997825061528
114	0xbf74233a96a326a0	-0.0049164093599728675
115	0xbf54aafaa5fd9173	-0.001261467717960843
116	0xbf4dcdc3baa0e1d4	-0.0009095388134091006
117	0xbf57e2946123c617	-0.0014578293817603166
118	0xbf629898f0483c4b	-0.0022700297433924425
119	0xbf73e5086bec4e41	-0.004857094666266771
120	0xbf6a11ecd546f10f	-0.003182375492739926
121	0xbf2e1c5eee374f4b	-0.00022972735233272654
122	0xbf651d48ec55a80b	-0.002577440670099134
123	0xbf725dc0b3ea86e5	-0.004483940835287224
124	0x3f54390a0d410611	0.001234302345452302
125	0x3f128e54a5bf0658	7.078544280061363e-05
126	0xbf5c36416d660a52	-0.0017219199122286044
127	0xbf70fd6b5953b351	-0.004147929507990992
128	0x3f255190a13d7c42	0.00016264811039953987
129	0xbf73890d060dd1cc	-0.004769373773218576
130	0xbf73558c0c7849c9	-0.0047202559139968925
131	0x3f67915ed163bf95	0.0028769351875936413
132	0xbf6bbea3f5ad9873	-0.003386802896261415
133	0xbeef712e15290333	-1.4992766101619425e-05
134	0xbf735a769d73967b	-0.004724944438952878
135	0xbf6a5b71c1545264	-0.003217432191954738
136	0xbf58326782287c67	-0.0014768610786928483
137	0xbf73b7df822116c3	-0.004814026908268767
138	0xbf64bb871415c4b1	-0.002530826401816976
139	0xbf71f326996e9a61	-0.004382277277648145
140	0xbf64db0ccdf63d65	-0.0025458574379581427
141	0xbf5dc7d09d6a9d9b	-0.0018176591162645031
142	0xbf66e1e4f138164a	-0.002793261673789603
143	0xbf5207baf559a923	-0.0011004758611315522
144	0xbf66425a25fcb93d	-0.002717186041898105
145	0xbf6df96d8adb4034	-0.0036589755535274774
146	0xbf3f215058fab0cc	-0.0004750081215927459
147	0x3f5ea1b61320d88d	0.0018696096490322972
148	0x3f26790dc4d0ee5c	0.00017145436359721183
149	0xbf68a7e2c61613b3	-0.0030097417044907203
150	0xbf4a06c463f527fb	-0.0007942637384215073
151	0xbf57cab750051473	-0.0014521398698701643
152	0xbf519283b79df9b0	-0.001072529440051189
153	0x3f5b915bccb09548	0.0016826054077310904
154	0x3f711aafe011f6df	0.004175841343678959
155	0xbf711d1559f52809	-0.0041781267203280315
156	0xbf584411a836d84e	-0.0014810726578225078
157	0x3f518bc34a7bfbc6	0.0010709197176195103
158	0xbecef5afeaf2a4a0	-3.690685694464154e-06
159	0xbf607568f3d48bdb	-0.0020091104367039154
160	0xbf7427230ec0d208	-0.004920136398187676
161	0xbf64ebf85670b261	-0.002553925547110134
162	0xbf65908b96be39e7	-0.0026324011177571885
163	0xbf6c1204a0035456	-0.0034265604336760997
164	0xbf632d40045e0056	-0.0023409128506842
165	0x3f49418e2e698d43	0.0007707542652721017
166	0xbf6db00b275b16a6	-0.0036239831777916285
167	0xbf64563ff940c1a7	-0.0024825334058038054
168	0xbf237f49f0c00ecc	-0.00014875199883600807
169	0xbf6235a9b7876a30	-0.002222854116763949
170	0x3f550e4ba93b5877	0.0012851466062122876
171	0xbf7559d4da097ef1	-0.005212623073560727
172	0xbf69d58ba11d662b	-0.003153584207137757
173	0xbf722b1acf05f495	-0.004435639115738206
174	0x3f707adc22d2a49f	0.004023418337206013
175	0x3f61f63550ce8f14	0.002192596561558244
176	0xbf5c29d4e7ba76a3	-0.0017189578201518916
177	0xbf71d24c8508cf22	-0.004350947289413461
178	0xbf5cf8a64a8319fe	-0.0017682670532380702
179	0x3f642a12cf5e629b	0.0024614684470630316
180	0xbf7151e825fcb1a4	-0.0042285030647629986
181	0xbf730728de5658a6	-0.004645499842260181
182	0x3f466c4ca3fa58a4	0.0006842970105534097
183	0xbf68ae93e6103a5d	-0.003012932648295759
184	0xbf648dae6fe26648	-0.002508965203628564
185	0xbf55569c50ef3960	-0.0013023878598122582
186	0xbf682d2e2a3ad986	-0.002951231161058834
187	0xbf55904ff31b5942	-0.0013161450155415176
188	0x3f59be52953f1674	0.0015712553476857878
189	0x3f0a37ce2e92782b	5.0006847069669916e-05
190	0xbf6ee4e96e3849e1	-0.003771263045345239
191	0xbf6c1cc61e88582a	-0.0034316892163231043
192	0xbf629203f0d4a5b8	-0.0022668911903067322
193	0x3f5d8f11972d71ee	0.0018041297705259046
194	0xbf656892e103f240	-0.002613341210347536
195	0x3f103e67e9e95949	6.196507681841436e-05
196	0xbf701cf57acf173a	-0.003933867364087901
197	0x3f1cf431558350ae	0.00011045027838757729
198	0x3f6d5e47d2d212f8	0.003584995537098453
199	0xbf645b0f111ddea7	-0.0024848264956139512
200	0xbf75375118a34085	-0.005179707319442288
201	0xbf4dc3f462057d0a	-0.0009083693767414646
202	0xbf69b0d1104c319f	-0.00313607056376082
203	0xbf7093bacab0a33f	-0.004047135978034798
204	0x3f38132a476dc6bb	0.00036735326960189344
205	0xbf639688794a6f05	-0.0023911157134771676
206	0xbf71e4972b9f9d57	-0.004368391522781088
207	0xbf6c7858efd3c596	-0.0034753548667302942
208	0xbf73542ab9b4452d	-0.004718939682122153
209	0x3f1399867eb042a3	7.47669543417298e-05
210	0xbf4783efb658429a	-0.0007176323385370165
211	0xbf60cd8ca51b59b5	-0.002051138589062885
212	0xbf4c375337bc5e77	-0.000861087449694999
213	0xbf6ae26cec154fe3	-0.0032817962061617452
214	0xbf692cffa8dc96e8	-0.0030732148506044006
215	0xbf4e60f2a9604e33	-0.0009270844336719042
216	0xbf70e57d12bdb62d	-0.00412510735246267
217	0xbf677789934d0791	-0.0028646170634666975
218	0xbf71cc89e8605b83	-0.004345453931839385
219	0xbf2d32553ec0dadf	-0.00022275248136490505
220	0xbf6b2bd1f4e3cc36	-0.0033167935099469815
221	0xbf60c7097e55f6be	-0.0020480332775026635
222	0xbf3d9c8be132ffb1	-0.00045183577567442084
223	0xbf3bfe4b295a1d3a	-0.00042714438436815586
224	0xbf1e61f2396713a0	-0.00011590042991034425
225	0xbf597d2da35f5939	-0.0015557237324990826
226	0xbf273d1dd741147b	-0.00017729748981501814
227	0xbf730fcf8dac6c8b	-0.004653750186459092
228	0xbf73ba4b2dff22a7	-0.004816335363962899
229	0xbf166f752609ac93	-8.558418768138598e-05
230	0x3f4261b42b7764b2	0.0005609636054330262
231	0xbf5f6d8fe5cdc697	-0.0019182114840216363
232	0xbf7421b70799f3d8	-0.004914965591180619
233	0xbf72fcefeaaff866	-0.004635750937266625
234	0xbf4082f03f4092cd	-0.0005038903314057097
235	0xbf66d140d494228b	-0.002785326597067266
236	0xbf5b161fb0185ed8	-0.001653223939120643
237	0xbf4b695811083aa6	-0.0008365325939524062
238	0x3f6689f24d7f239b	0.0027513248896621884
239	0xbf739a7f49ae10a7	-0.004786011903778731
240	0xbf6d5934a77505e7	-0.003582575645538755
241	0xbf495649d8dcbbc4	-0.0007732258397704574
242	0x3f57c5f8c235feb5	0.0014510087283667154
243	0x3f711aafe011f6df	0.004175841343678959
244	0xbf70db4c541d2a83	-0.00411538902137443
245	0x3f6f12d42b414efe	0.0037931579518416516
246	0xbf413da039665a1c	-0.0005261452050032175
247	0x3f6545d5d3cd9eec	0.0025967766109039527
248	0xbf700aae7884ca26	-0.0039164366974540395
249	0x3f7448ea9a9cf71c	0.004952351018628478
250	0x3f6aa19e79d0da47	0.003250894091731102
251	0xbf709fc6f565a98d	-0.004058625394785753
252	0x3f6b085922e38c0f	0.003299879164033743
253	0xbf708238b804e7a8	-0.00403043895522074
254	0xbf667a7ae969d7f6	-0.0027439499493153675
255	0xbf6dae6e6b8e33dd	-0.0036232144015628646
