hw4/theta_of_simga_190.0C_1learn10000.npy (npy, 25736 bytes, 1 tensors)

array f8 [3201]
00000000: 2d22 27e9 aad6 b5bf 7006 f988 48e0 7a3f
00000010: c02a c7ec 03a3 6bbf d6b6 9768 6d4b 35bf
00000020: 97a1 e6ae bb10 63bf a765 0867 4aab 59bf
00000030: 24b9 b029 7e4b 61bf c618 90f8 5750 693f
00000040: c519 1b2b 2aa3 84bf 8fe9 f22a 4b3a 56bf
00000050: 47ab e382 f437 66bf 6585 628e c094 793f
00000060: cf14 2fb4 76de 76bf 8a8a 2b89 02e6 7dbf
00000070: 5024 f377 afa7 78bf ccc6 840e f1eb 35bf
00000080: 8bcf 2074 5de0 79bf 4117 88ae 29bf 7dbf
00000090: a014 bf05 830e 87bf f821 3ff5 5284 603f
000000a0: 54c9 bbd1 c595 843f e464 7bb8 ed53 71bf
000000b0: 3563 e511 309c 293f 089c 161c 2ed6 27bf
000000c0: fb30 21da 4cc1 783f d13d 4912 419e 723f
000000d0: 58fe aef6 b0ad 713f 5c90 a881 7b40 833f
000000e0: 1dd2 ce7e c26c 6ebf 0a61 d00b 3581 83bf
000000f0: 3b47 0bec ec61 77bf 6939 ec39 db83 69bf
00000100: c9bf e5ec f118 623f cd9a cf53 773a 68bf
00000110: 7eab e54a ae11 80bf 4be7 3dcc c16d 6fbf
00000120: 71ab d12b 8fe0 83bf 9cde 768f 9e9c 7dbf
00000130: 4217 65bd 6404 82bf 2664 d1dd e819 883f
00000140: 3ee2 2b74 0e5f 85bf c1c7 0af5 7236 40bf
00000150: e5f1 c122 f676 2a3f 4504 a0b0 c35b 7dbf
00000160: 8db6 1ac5 ded2 52bf f2a2 6039 0e85 75bf
00000170: 3a8a 09f2 e98f 7f3f 00da dfa9 f9e6 873f
00000180: 98bc 9d94 5ebd 68bf 6402 aade 4c11 72bf
00000190: ce09 79d5 06d7 6dbf a0b6 ffc1 6583 70bf
000001a0: 0f89 68c8 c0a9 80bf c4ca 8f2f 1574 773f
000001b0: ccb2 7c5d 7549 7bbf 830d 58c6 5194 6f3f
000001c0: ee3d f338 ab2c 7f3f 5b1b ec1a 90dd 65bf
000001d0: 2e96 2041 5471 76bf 1c2d 7a39 65ad 7ebf
000001e0: 0c78 16d6 5b49 6cbf 427c fdbc 5bce 6dbf
000001f0: 5106 55ec 4075 7b3f 1362 1c84 10ae 753f
00000200: 8f32 96d2 0311 76bf e7b0 6371 63ea 62bf
00000210: 83a0 cb8e 1964 78bf fcd8 c551 18ee 7f3f
00000220: 9aae 2009 12a1 793f f193 89b5 4d9b 79bf
00000230: 4d00 b6a6 f303 81bf e1ee a248 9cc1 773f
00000240: c794 0f4a 6a2e 793f 4726 ca02 94e1 81bf
00000250: 520a 3c10 479a 7d3f b9d7 0ad1 6321 7abf
00000260: c873 0146 7f3c 6c3f 0473 ae9a b54e 7dbf
00000270: 2450 b96c 16a9 77bf 7b60 921c dbe5 72bf
00000280: ed94 e723 eece 66bf ebf5 9602 8412 843f
00000290: a248 daf0 58d2 6b3f b736 3336 5e7b 74bf
000002a0: 91d3 39b4 f693 50bf 74d6 069c ab30 6fbf
000002b0: 21aa f197 3485 78bf 454d 3e24 5f12 713f
000002c0: f01f af63 f3b1 7dbf f5fb 5be1 38dc 81bf
000002d0: 5a8a 3310 5f4a 803f 95d8 e4eb 578f 503f
000002e0: 65e2 981d dc9a 79bf d908 0a03 1396 83bf
000002f0: 5352 bb03 3994 62bf b2dc d86c e5d6 443f
00000300: 67a2 b948 7d58 7abf b5ff fb48 fb66 6cbf
00000310: 4bc0 616c df26 7abf 5008 525a 06c9 7abf
00000320: 7e76 f99e 825c 5abf 9326 c9a8 b8b9 61bf
00000330: 48f4 0f5b 41d4 4abf 0e9c 937e cd0c 78bf
00000340: 3578 7750 8234 68bf 4bc3 91e4 397e 35bf
00000350: b6bd 9f16 15f2 77bf 9723 5fc8 f576 66bf
00000360: ae24 64ef 55e8 6c3f 6d2a e671 9786 7cbf
00000370: e82c de48 fdc5 58bf 68a6 23b1 1158 85bf
00000380: 3679 e8be 4d67 52bf e8d4 811a 9d44 673f
00000390: d1ce f812 9320 83bf 9ef0 a55e 85e0 55bf
000003a0: 3a31 ef30 c45a 713f 9e91 24fa e49b 5f3f
000003b0: ae54 9d83 4de5 62bf 3892 cd46 fa53 81bf
000003c0: 57bc 23b0 1211 6fbf 873c c8c3 1681 783f
000003d0: 8035 e94b 1e42 66bf 52ed 480e 71a5 81bf
000003e0: 61a7 699d bab8 56bf 801c 5f66 f172 713f
000003f0: c644 ed28 5163 72bf 1024 68b6 17b9 7cbf
00000400: ce37 960a 7e89 753f 525e 6f3d 35e2 80bf
00000410: 1175 f672 d208 81bf 4625 bb3a 433e 63bf
00000420: b35a 1a49 2ef6 73bf b1d1 ffef 8659 7b3f
00000430: fbb7 300a 8aad 7fbf 4004 a4f9 031e 74bf
00000440: a46e c17f 06ca 3d3f 989d 4c6e 54e7 82bf
00000450: 4527 9f2b c7c1 66bf 2b87 1b1b 2ae5 80bf
00000460: d7f6 ae0c 9730 70bf c308 9704 de93 613f
00000470: b09d 2f19 b513 6ebf 8fb7 4f56 5da9 663f
00000480: 3ca5 3a6f 8b17 77bf d89a 78ac 1146 72bf
00000490: 71f2 d625 78ff 753f 2485 d56a 9d50 7e3f
000004a0: bc85 9ecf 7d27 773f 7236 7013 533c 69bf
000004b0: b2b6 4ede f164 5f3f d189 da00 dbf3 443f
000004c0: e329 a8a7 cc71 653f ea7b 8aa6 50aa 873f
000004d0: 00da dfa9 f9e6 873f 3053 25e2 117d 7abf
000004e0: f821 3ff5 5284 603f 2866 004b 7dd0 59bf
000004f0: 8970 3526 35c0 783f b96d 49d2 5483 47bf
00000500: a9a7 6cb0 a186 81bf db62 7be9 f1ff 6fbf
00000510: d5e2 7adc 3022 6abf 61d9 f3c7 ec7a 78bf
00000520: 8615 4808 70ec 60bf 21a2 68a4 779a 713f
00000530: 46ae 59ed ce5a 78bf fb6a e46c 6e36 67bf
00000540: 7eec 0704 ce47 6e3f b130 2c70 fabf 76bf
00000550: 5368 2cc2 f771 733f 7ee4 539f 4f26 85bf
00000560: b664 70c0 cea5 73bf ccd4 db02 2c9d 7fbf
00000570: 9a4b 79ef a9db 713f cabe 7c39 a331 4fbf
00000580: e921 f620 859e 43bf 3bdf 07ae a48c 7cbf
00000590: 26c7 cfb4 06cc 5abf a501 b2b3 51e0 873f
000005a0: f011 aa60 ed35 81bf ea3f 9781 5f6b 81bf
000005b0: b5d5 83f0 483d 803f 1b69 cccd b896 65bf
000005c0: e44e c0c8 3147 6cbf ca91 ca93 1352 53bf
000005d0: 7d5a e796 8b8d 75bf f8ab fde3 5528 653f
000005e0: a8b8 3858 fe73 703f 2fbb 6eee aebf 7c3f
000005f0: f109 c06f 47f2 75bf 2cd4 c726 bf99 72bf
00000600: 2c32 03b1 4830 60bf aded 321e 529b 60bf
00000610: ed94 e723 eece 66bf 02be 759b 3bf5 60bf
00000620: a397 fe56 8bea 7cbf 276b d1ad a236 7b3f
00000630: a0c7 2a1d 7348 69bf d15d 2b88 21d8 77bf
00000640: 1f32 df5f faf6 81bf 821d 75e8 e6d7 453f
00000650: 3df1 5214 6e46 71bf 67d9 7d17 ec52 80bf
00000660: 940a 2bc3 e4d2 54bf 7160 43f1 bf42 46bf
00000670: ca0c afd3 1c0f 7ebf a886 ee92 2ef5 74bf
00000680: 6918 4bbd 7bf4 7cbf 0462 4f50 0835 7a3f
00000690: 4488 e423 6bce 6c3f 21b7 a71b 2da5 61bf
000006a0: d628 cc7c e63c 61bf 19a5 c719 7cb0 7cbf
000006b0: 5191 1e96 904f 6cbf 05b1 4f3e 05f5 653f
000006c0: 11e9 f320 1838 80bf 9f2a 9189 5604 6dbf
000006d0: 84b8 8438 4113 7bbf 4dad 7ad4 4086 753f
000006e0: d848 1faa a01d 72bf c8dc 6199 4b88 63bf
000006f0: 1254 2a3c 08f2 743f 0e02 35a3 5f4e 733f
00000700: 6371 f80c 9517 113f 1331 1f97 f10d 63bf
00000710: 5b42 0473 01ab 773f dfcd 2a97 7722 7ebf
00000720: 7d35 3e2b 61c6 7ebf b2e1 5263 8daa 703f
00000730: 95c8 01e5 ee04 57bf cf02 acfb 845b 5ebf
00000740: 5773 30bb 7170 83bf 6192 1376 9edd 80bf
00000750: a8bc ef33 a81c 293f bacf 6cc3 dd40 66bf
00000760: 3c8c e70a 99cf 69bf 3c62 4019 1f3c 57bf
00000770: e51b 1d7b 50c8 57bf 8e94 6448 80a6 84bf
00000780: 38f3 a859 54b6 75bf fc1d b348 760f 513f
00000790: d3f5 d410 86dd 853f 00da dfa9 f9e6 873f
000007a0: 0874 f9f5 9f22 7abf 929c 5a90 bce3 853f
000007b0: 2463 8df7 5b29 55bf 38e7 d263 f9a2 6d3f
000007c0: 1051 4adb 3da1 78bf cf44 e695 d373 863f
000007d0: 47c8 eecb aeef 68bf d790 db81 5625 7bbf
000007e0: 5b20 2350 42b6 843f 34c3 1827 df02 79bf
000007f0: 2d6d 1a72 bd4c 6ebf a165 131d 7506 72bf
-0.0853068179341185 0.006561549510992401 -0.0033736302050092204 -0.0003249303923372587 -0.0023273149192457143 -0.0015667177759780355 -0.0021111930959910753 0.003090068643817198
-0.010076837006079207 -0.0013566717205280886 -0.0027122283564628177 0.006245376751537667 -0.005583251654518408 -0.00729943266444145 -0.0060192922821410005 -0.00033449778722448027
-0.006317486813759997 -0.007262385196104949 -0.01125814782416007 0.002016222026189004 0.010051293814716068 -0.004230431171628999 0.00019538962164735723 -0.0001818591390876092
0.006043720439333318 0.004545454201959357 0.004316035522549187 0.009400334257471048 -0.003713970063893747 -0.00952378694823654 -0.005708623387094931 -0.003114631820955772
0.0022091603379337005 -0.002957566319753502 -0.007846223507575575 -0.0038365159143126984 -0.009705656552076754 -0.007229442001907362 -0.008797442464707598 0.011768168706270354
-0.010435212059278883 -0.0004947720827514977 0.00020190958582934275 -0.007167591489634144 -0.0011489081847843336 -0.005253844798098527 0.007705606316991404 0.011671019074111832
-0.0030199858928692917 -0.004411030075630682 -0.0036425717806036545 -0.004031560412824625 -0.00813627826307031 0.00572593951891304 -0.006661852319478977 0.0038549039043133683
0.007610958898296867 -0.0026691259912498383 -0.005479172819865803 -0.007489581497462507 -0.003452948920950943 -0.003638438392882943 0.00670361862768372 0.005292953983165666
-0.005387320453689739 -0.002309030746905905 -0.005954837641844904 0.007795424459223318 0.006257124377991774 -0.006251624633113005 -0.008308318638910484 0.005799875720352538
0.006147780602053738 -0.008731037459500558 0.007227208701581294 -0.006379499348147571 0.003446816044784449 -0.007155141250134948 -0.005776488872999894 -0.004613738922806583
-0.002784218900375826 0.009800940827399315 0.0033961999059296125 -0.00500046540692061 -0.0010118397921392334 -0.0038073875186579956 -0.005986409610253791 0.004167911192684064
-0.00724978517514073 -0.008720821740551424 0.00795435207550559 0.0010107382400526322 -0.006251201464288235 -0.009563587694405505 -0.002267943722339441 0.0006359691848904141
-0.006432046309421047 -0.003467074195100362 -0.006384728190923348 -0.006539368453674824 -0.0016089702220577757 -0.002163754141552962 -0.0008187598342598379 -0.005871584618240012
-0.0029547257615681007 -0.0003279582347835332 -0.005846102119888943 -0.002742271465625067 0.0035287550373409226 -0.006964294034683333 -0.0015120480997861622 -0.010421884744988577
-0.0011232623325053265 0.0028403347424111776 -0.009339474693752877 -0.0013352682531993297 0.0042369521824635 0.0019292579750721304 -0.0023066057155270636 -0.008460955892311536
-0.003792320728386349 0.0059824837922085655 -0.0027170745591209022 -0.008616336105765985 -0.0013868162547176698 0.004260008781734048 -0.004489247351402164 -0.0070124555845803155
0.005258076046983319 -0.008243957459782045 -0.008317608006843476 -0.0023490250658581317 -0.004873448183977547 0.006677176570509522 -0.007733859270087957 -0.004911437538113239
0.00045454653423402714 -0.009230289093081365 -0.002777947430307489 -0.008249596550232127 -0.003952589070591115 0.00214570391537547 -0.0036715066030301377 0.0027663062087332556
-0.005637688318225028 -0.004461354291868523 0.005370587661158597 0.007401099120529584 0.005652896355884559 -0.0030805227829720444 0.001916156959150522 0.0006394214012355686
0.0026177403608518154 0.011555318911005547 0.011671019074111832 -0.0064669321603403745 0.002016222026189004 -0.0015755866588790333 0.006042678465146286 -0.0007175602118638026
-0.008557570644899775 -0.003906223759127731 -0.0031901315995493764 -0.0059766053448043486 -0.002065867245849065 0.004297702171733892 -0.0059459765521797155 -0.0028335720773048335
0.0036963485474622018 -0.005554178499334637 0.004747360045053456 -0.010326978730960553 -0.0047967983473650635 -0.007718250197048703 0.004359878359155989 -0.0009519621844215839
-0.0005987310450317726 -0.0069700653843865435 -0.0016355576983610536 0.01165832357060099 -0.008403639328442986 -0.00850557913045687 0.007929391708311731 -0.002635346360318936
-0.003451916918501984 -0.001179236525026816 -0.005261941214902974 0.002582710032517973 0.0040168700539153016 0.00701874096459569 -0.0053580084313602375 -0.004541155515188893
-0.0019761485819798277 -0.0020271877161499225 -0.002784218900375826 -0.0020700611309434356 -0.007059616371327157 0.00664390131449969 -0.003086304504301432 -0.005821352943449169
-0.008771854449059422 0.0006666066628121944 -0.004217557904834299 -0.007970661608607 -0.0012709840781758618 -0.000679343912021414 -0.007338631253279002 -0.005116636209011517
-0.0070690949984904905 0.006398231959757531 0.0035163967687746062 -0.0021539574638528435 -0.002104234858397817 -0.007004246490830889 -0.003455908198661963 0.002680311432859852
-0.007919491296423805 -0.0035421075995477193 -0.0066101596533326736 0.005254986993956945 -0.0044227863272274445 -0.0023843266054047497 0.005113632362413705 0.004713414749233381
6.520125611370535e-05 -0.0023259848175937264 0.005778318082108126 -0.007357089186075665 -0.007513408247075912 0.004068901345072028 -0.001404984755961657 -0.001852874628355195
-0.009491814160406937 -0.008235204676062926 0.00019158890970014564 -0.0027164775196073217 -0.0031507481682964394 -0.0014181426713603248 -0.0014515672632613383 -0.01008320065427373
-0.005300836079695163 0.0010412840954802096 0.010676429165523615 0.011671019074111832 -0.006380677077314274 0.010688279300053592 -0.0012915990939374533 0.003617751207085098
-0.00601314699874346 0.010963109027928656 -0.003043977164872511 -0.006627405089350633 0.010113256521791117 -0.006106254282301649 -0.0036987018691668956 -0.00440068957797149
