hw4/theta_of_simga_190.0C_30learn100000.npy (npy, 25736 bytes, 1 tensors)

array f8 [3201]
000000 b6 11 18 22 8b a5 ee bf 33 24 98 3f 81 55 e4 3f
       -0.9577079454325517 0.635437607009527
000010 24 13 c3 97 da f7 d4 3f 9c df 39 ad 62 fc c0 bf
       0.3276278001833808 -0.13270219286254992
000020 48 58 13 fc 7d 94 d3 bf be 4d da c8 ae c7 d4 bf
       -0.30593824021105265 -0.32468766798521276
000030 3b b8 ed d5 d5 99 cd bf e4 b4 aa 6c 0f 5f dd 3f
       -0.23125718065006304 0.4589270173263016
000040 cd d7 a2 52 74 7e d4 bf 97 7f 7d 71 33 56 d2 bf
       -0.3202181632035462 -0.2865112884810456
000050 90 04 80 b2 7f ce cd bf 02 f9 62 3d 71 c5 e1 3f
       -0.23286434379409515 0.5553518485028521
000060 d0 33 36 68 57 25 c2 bf 73 01 b3 49 d5 1c de bf
       -0.14176457012618338 -0.4705098361701154
000070 4b 25 a1 13 b0 42 d1 bf 52 fe 2b 9f af e2 cc 3f
       -0.26969530026379535 0.22566790840208967
000080 7c 34 c2 fb 56 31 db bf 68 ae e5 a7 10 a4 c5 bf
       -0.4248864611225327 -0.1690693683443556
000090 73 06 ea ca 23 d5 d5 bf 77 9b 46 3c 45 55 e0 3f
       -0.3411340219100573 0.5104089905988606
0000a0 0c 63 09 29 42 91 e8 3f b3 46 35 0f 64 ea b5 bf
       0.7677317430016912 -0.08560777064601659
0000b0 f4 f6 59 5e f4 60 d1 3f 29 e8 f1 5a f0 49 c8 bf
       0.2715426370049123 -0.1897564357821591
0000c0 dd af 01 d8 29 37 e1 3f df aa af 66 4c 72 e4 3f
       0.5379838198546129 0.6389524465169777
0000d0 77 4b 9f 14 57 ab e7 3f 3d 78 49 37 d5 1b e3 3f
       0.7396655466821888 0.5971475677322428
0000e0 f9 4f fe 24 a5 ab d4 bf 48 1f 4e 0b c0 b8 d8 bf
       -0.32297638523709754 -0.3862762556459427
0000f0 9e 3c e7 da 1e f9 d3 bf 23 fe d6 36 12 7f d1 bf
       -0.31208011033317884 -0.2733808074517318
000100 a9 00 7d f9 6a fb d1 3f f9 7d 52 fc eb 6e d3 bf
       0.2809703289422126 -0.3036451305469821
000110 29 68 a6 ca 03 25 d0 bf 7d 02 43 9b 1c 21 d9 bf
       -0.25225920476953206 -0.39264598047524385
000120 e8 20 b1 e1 4a 0d da bf 77 d7 44 81 46 53 dd bf
       -0.4070613101980727 -0.45820772766034373
000130 85 8b c0 2f 59 bc cc bf 05 d1 25 d7 80 ca eb 3f
       -0.22449793655058783 0.8684696390251082
000140 07 88 27 17 42 07 d2 bf 50 25 ea d4 fc d1 dc 3f
       -0.28169300328420416 0.4503166274303867
000150 f8 31 37 85 93 88 dd 3f 72 a6 7f 88 25 4f d4 bf
       0.4614609528478293 -0.31733072595543554
000160 bd 21 c6 ba 21 a7 d5 3f 53 88 2f c2 a7 48 d8 bf
       0.3383259128536585 -0.3794345280022117
000170 b0 14 25 4d 49 c5 e7 3f 16 44 d2 34 46 95 e7 3f
       0.7428328043685237 0.7369719535510082
000180 d0 57 e1 25 10 35 d4 3f 60 b1 a6 5a ec a4 da bf
       0.315738713257244 -0.4163161168351248
000190 f9 2b e3 f0 3a 20 d4 3f 83 ee 5d 0a b5 53 ca bf
       0.3144671776214519 -0.2056795406932573
0001a0 ef 16 f1 39 03 e1 db bf 95 e8 b2 e8 17 9e e2 3f
       -0.43560867937445286 0.5817985100650441
0001b0 4c 0c 7b 31 84 b4 ca bf 98 28 96 70 d2 ba ce 3f
       -0.20863392272994685 0.2400763559092567
0001c0 e6 eb 2f 35 46 d4 e7 3f 4d e5 0c ca 22 ca db 3f
       0.7446623839199418 0.43421239596826383
0001d0 f8 07 da 4c 58 1b cd bf 67 e5 50 0d d1 3e d6 bf
       -0.22739700081370962 -0.347584021572024
0001e0 8a a8 ad e3 3d e6 d8 bf 51 92 ec 16 93 16 d4 bf
       -0.38905284151281505 -0.31387784231836685
0001f0 4d fe 6b 3c 3c 65 e8 3f d7 ca 6a e3 58 71 e4 3f
       0.7623578243364563 0.6388363305798873
000200 31 d5 48 90 4e 98 c5 bf d3 20 07 55 4e ee ce bf
       -0.1687105373872924 -0.24164752151251054
000210 81 33 26 48 31 e7 ca bf 99 7b ae b7 b0 9a e0 3f
       -0.21018043539916323 0.5188830935984355
000220 38 e3 df 06 fa af e6 3f 53 ac 2b 30 ae 55 bf bf
       0.7089815267819182 -0.1224011294940948
000230 5c bc 97 00 b1 a4 da bf 7f 4a 58 5f 75 da e7 3f
       -0.4163019662655125 0.7454172956662005
000240 88 99 1d f6 31 20 e6 3f ee 7d fd 44 f8 9c d6 bf
       0.691430073446825 -0.35333067643475047
000250 2f f8 19 7b 88 07 e9 3f 01 d7 24 0c 1a b9 cc bf
       0.7821695713353217 -0.22439885704960008
000260 41 5e fc 47 68 06 e2 3f 71 64 7e 95 5b 83 c1 bf
       0.5632821470234789 -0.13682122039316227
000270 58 d2 ec ac 15 0a d2 bf 5b 99 16 fc bc d2 ce bf
       -0.28186551940169613 -0.24080622014043737
000280 39 19 24 5b 0f 19 d1 bf 55 5f c9 11 70 e8 ed 3f
       -0.2671545400666165 0.9346237513918633
000290 43 5f 85 3c 01 94 e3 3f 3a dc b5 cf 94 ad da bf
       0.611816995816277 -0.41684456142633375
0002a0 4f 33 cb f2 1d b6 d1 3f 8e 7f ad 9f ba d2 c6 3f
       0.27674053869559584 0.17830593868984262
0002b0 db e6 07 e1 9b 8b ba bf aa a2 0e d7 4b a0 d9 3f
       -0.10369276279370913 0.40040870668102946
0002c0 31 c1 4e ef 6b 67 cc bf 71 67 c6 25 15 ac d3 bf
       -0.22190617737715848 -0.3073780888458862
0002d0 48 c2 38 0c 89 fc e1 3f fa b4 d1 f0 22 4b bc bf
       0.562077068205391 -0.11052149180769169
0002e0 26 0d 0c c6 9b fd d5 bf a2 ae 81 cf a1 bd d0 bf
       -0.3436040338567231 -0.26157422317803924
0002f0 31 8c b3 bf 4a ce d3 3f 8c 5e ea 28 5a ea dc bf
       0.3094660636981557 -0.45180372234015276
000300 b9 47 79 18 5f b0 c9 bf 07 a6 ff f9 ec 82 d5 bf
       -0.20069493002898556 -0.33611606992653303
000310 17 de 3f 65 0f c3 d2 bf 0e 24 a2 99 27 0f df bf
       -0.2931555260433653 -0.4852999687505538
000320 c0 05 1d 7b 59 7d ca 3f 49 6d 75 ed 62 06 db 3f
       0.2069503642215249 0.4222647971088987
000330 41 fc dd 9a 58 aa ba bf df 57 4e 47 a2 ed c7 bf
       -0.10416177540717887 -0.18693951112498916
000340 86 cb cb 69 2e 3a d8 3f 55 a3 5b ee 63 cf bf bf
       0.37855110484741095 -0.12425827569280774
000350 01 cc 05 18 76 d9 d5 bf 5d ae 5f a3 5f 99 d5 bf
       -0.34139778467141474 -0.33748618082493015
000360 31 8b d5 7c fc 00 d7 3f 53 7d 7e 64 25 a3 e1 bf
       0.35943519774280036 -0.551165291097201
000370 a1 1e 39 39 e4 fa d6 bf 2e 27 ad bd b9 ba d9 bf
       -0.35906320179172196 -0.4020218231495275
000380 de 22 56 e7 85 9a cb 3f cd 26 4c bc fc 03 e5 3f
       0.21565316959119846 0.6567367246327308
000390 8d da 54 2e 59 9b dc bf cc 52 f4 e5 f8 3f d1 bf
       -0.4469817116218245 -0.2695295568130802
0003a0 53 67 df dd 76 6c e0 3f 9a 43 37 12 02 30 db 3f
       0.5132402738047211 0.42480518130201406
0003b0 24 8a ee 04 62 86 cd bf c7 f0 0c c8 69 c4 d6 bf
       -0.23066354027567215 -0.355738110887398
0003c0 f4 ed 07 04 5c f9 c7 bf ff 6b 69 67 1c d3 e3 3f
       -0.1872973460848325 0.619520379997425
0003d0 7b 51 60 c6 d4 eb ce bf 91 e3 92 1c 2f 54 d3 bf
       -0.2415719956048966 -0.3020131854096287
0003e0 55 6a a5 c8 e0 17 cf bf 58 c4 0c 9c 47 12 de 3f
       -0.24291620061088062 0.4698657058643838
0003f0 d5 c3 63 f5 87 ae c6 bf 3e 60 c2 24 a7 d0 c7 bf
       -0.17720126611632617 -0.1860550813187291
000400 0a 29 24 7e 5a 70 dd 3f f3 e2 d2 59 54 7e d7 bf
       0.459982512650314 -0.36708554050305436
000410 35 39 3e a5 4b da d5 bf f4 06 07 5c 1f 8c ca bf
       -0.3414486993505251 -0.20740119927909684
000420 a1 59 45 e9 8e 2a d2 bf 60 8f c9 66 23 19 e5 3f
       -0.28384754925118655 0.6593186385693848
000430 63 d6 48 aa f6 96 d7 bf 4a ed d8 5d bc 80 d8 bf
       -0.36858908299777776 -0.38285741009504604
000440 58 d6 12 72 b9 3e c0 bf c3 7a 23 09 8a 40 d2 bf
       -0.12691419668196846 -0.285189160274893
000450 c9 22 19 15 63 96 d5 3f e9 72 f1 52 97 e7 ca bf
       0.3373038965260489 -0.21019259977301566
000460 ab a5 7a e4 23 f1 da 3f c3 51 3b e4 20 20 de 3f
       0.42096803009425326 0.4707109669518809
000470 2a fc a3 0a 1c a1 d1 bf 63 21 43 4e 0c 02 e1 3f
       -0.2754583457862646 0.5315000084456581
000480 78 3f f4 65 a5 5d c2 bf db 21 6d ef b9 75 d2 bf
       -0.14348285177447528 -0.2884354437014999
000490 b0 cb 04 40 0e 0f e8 3f d7 6a 71 b2 fd 66 e1 3f
       0.7518378496518974 0.5438221440520817
0004a0 92 46 d3 15 eb ba e4 3f c7 70 f8 92 dc 09 d1 bf
       0.6478171755099587 -0.26622690537056964
0004b0 26 e2 ff 81 82 87 bb bf 6c 0c d8 10 36 d9 d6 3f
       -0.10753646539513592 0.3570075191966626
0004c0 97 a3 a8 ef 2b f9 dd 3f 2c e2 44 26 8d f4 f1 3f
       0.4683332291047519 1.1222049231420312
0004d0 16 44 d2 34 46 95 e7 3f fe 16 fa f9 c0 64 d1 bf
       0.7369719535510082 -0.27177452480133
0004e0 77 9b 46 3c 45 55 e0 3f c6 ec 1c 17 6f f7 d6 bf
       0.5104089905988606 -0.35885216958167765
0004f0 4b 1b 58 67 7d 92 e2 3f f1 8d e7 50 d1 c0 b1 3f
       0.5803820627632857 0.0693484137078071
000500 af 68 07 38 48 e5 d9 bf d3 eb 87 7f 44 36 d4 bf
       -0.404619269099963 -0.3158122296733243
000510 b8 75 28 4b cc fb a2 bf ec 52 b8 10 30 46 c8 bf
       -0.03707731645065898 -0.18964196030051228
000520 e1 94 e9 bf a9 8c cb bf 80 7e 23 a1 11 97 d5 3f
       -0.21523019667362234 0.33734551178165617
000530 87 dd aa af 99 25 d9 bf e0 2a 58 f0 63 54 d0 bf
       -0.3929199424269076 -0.2551507804025004
000540 b5 62 45 a8 cd 42 d6 3f 0a bc 88 3c 2a 65 c8 bf
       0.3478273528358316 -0.19058731036918203
000550 2e b3 eb ad 6d e0 da 3f d1 26 3b 80 35 55 e0 bf
       0.4199480246013988 -0.5104014877808486
000560 45 10 7a 34 94 36 d8 bf 62 a0 ac c1 4e 44 ce bf
       -0.37833123326004553 -0.23645958382371918
000570 2d 4c 66 24 dc 89 cb 3f 03 b4 0e e5 44 4e c6 bf
       0.2151446511967107 -0.17426358398861916
000580 bd 09 27 ab 0d 5d d3 3f 3a 2d 1b e6 88 e0 d3 bf
       0.30255452837095814 -0.3105795142298181
000590 f5 72 2b 95 e5 4c c2 bf 82 ea cc 1a 97 5d ec 3f
       -0.1429717043273723 0.886424591393123
0005a0 90 1e 75 00 44 5f cc bf 96 65 19 ee 0a 8f d2 bf
       -0.22165727636660337 -0.28998063327670687
0005b0 3b 38 3c 9e 9c 59 e8 3f c7 49 87 28 91 4a cd bf
       0.7609389391452689 -0.22883810500077414
0005c0 e4 b2 31 d0 3a e2 d6 3f e6 09 17 26 4e da c4 bf
       0.35755796748598656 -0.16291214809287097
0005d0 98 4f 9a d2 08 69 ce bf 51 6b 73 6a 7a b1 db 3f
       -0.23758039744700166 0.4327074088629859
0005e0 8a 3f ed 9e ca 25 d0 3f 8f 20 84 0d 89 64 e9 3f
       0.2523066093462992 0.7935223831164125
0005f0 04 7d 0b 93 1e 3b d5 bf 53 60 3f 05 3e 23 d5 bf
       -0.33173336372233586 -0.3302760173078287
000600 91 9d 2e 63 7e b6 d0 bf 81 d8 02 bc 4f f7 d8 bf
       -0.26113853154898786 -0.3900946937604957
000610 39 19 24 5b 0f 19 d1 bf 79 b0 b7 d0 16 65 d3 bf
       -0.2671545400666165 -0.3030449903733437
000620 cf 1c 3c e9 d5 89 cb bf 43 71 74 fe 0c f3 e5 3f
       -0.21514390839022332 0.6859192819424965
000630 c9 42 ad c7 8a f5 c9 bf e4 91 fc fd 94 02 c8 bf
       -0.20280585050433889 -0.18757879640283115
000640 d9 0d c6 b0 b9 7d d5 bf c0 27 a7 42 df 51 bf bf
       -0.3357986666016735 -0.12234301926869673
000650 45 f7 af ac a1 78 d0 bf b9 d8 60 3d 5e f7 c6 bf
       -0.2573627649688784 -0.1794240760515942
000660 b9 77 d2 b2 85 52 d5 bf 31 f6 d4 cb 40 09 d2 3f
       -0.3331617590246157 0.28181476502854524
000670 7a df c3 e5 49 88 d2 bf d4 9a f9 0f 5b d7 c8 bf
       -0.28956839979172566 -0.1940721347811719
000680 be 9e 7b 20 cb ae da bf 3c e1 49 38 de 27 e8 3f
       -0.41691854641110726 0.7548667048822959
000690 7b da 4f b6 97 72 e4 3f ba f3 ad a6 fe 18 cc bf
       0.6389883576183161 -0.21951277865073654
0006a0 1a cd 14 7a 99 8a c8 3f 9b a4 05 ba 7b f1 be bf
       0.19172972165106544 -0.12087224284700186
0006b0 37 b4 1d e8 9c 2f ce bf 20 8f a3 fa 93 d3 da 3f
       -0.23582803090849477 0.41916369892554606
0006c0 5c 53 11 1c 67 61 c7 bf aa ac 66 0d d7 18 cf bf
       -0.1826599967049799 -0.24294555811261392
0006d0 c7 8e 91 a0 c8 fd dc bf 15 86 47 37 b5 59 e5 3f
       -0.45298972778821817 0.6672006683040218
0006e0 2e 44 70 a2 ff 5f d7 bf 5f c2 6c b3 d3 1d d0 bf
       -0.3652342878641005 -0.2518204929538452
0006f0 06 03 e0 55 01 73 e3 3f 3d ef d8 ef ba 51 e3 3f
       0.6077887227293963 0.6037268337745229
000700 ba a2 ae e1 92 7e c9 bf 60 05 fc 28 57 f6 d2 3f
       -0.19917522449147446 0.29628542902363186
000710 08 44 20 c5 f9 87 e2 3f e7 ef 02 c3 73 e8 db bf
       0.5790985918157512 -0.4360627560051839
000720 49 bf 3e 7e d3 be d2 bf e5 9b 5e 5a ed 66 dd 3f
       -0.29289710358260784 0.4594071753039642
000730 19 9c 6a 37 44 e9 d1 bf fd ee 6c 14 3b f6 d5 bf
       -0.27986245548021454 -0.3431537341564164
000740 f6 4f d7 c0 14 8b d6 bf 44 32 aa 63 8b 21 d0 bf
       -0.3522388346875681 -0.2520473931588507
000750 5e 39 e3 98 1f 8c c1 bf ae 12 01 33 0a e5 d2 bf
       -0.13708872761930996 -0.29522948246839575
000760 fe 17 6c d8 44 ef cb 3f 02 3a a5 9e ea 7d d0 bf
       0.21823940818302384 -0.2576853322288174
000770 f1 8c 73 be 95 86 c9 bf 56 84 64 23 30 36 d8 bf
       -0.19941970633872289 -0.3783073754912655
000780 7e 07 7b 62 07 1b c3 bf 95 ad 31 80 b1 7f c2 bf
       -0.14926235493299694 -0.14452189216113412
000790 44 a2 06 58 a4 0a ee 3f 16 44 d2 34 46 95 e7 3f
       0.9387990683799861 0.7369719535510082
0007a0 0f 09 e8 15 c0 c3 d3 bf b4 8b 8c 47 71 31 e5 3f
       -0.3088226522378514 0.6622854611817872
0007b0 6f 50 3d ff fc 02 d0 bf b3 22 6d a8 f7 b5 b8 3f
       -0.25018238950474986 0.09652660238237835
0007c0 b3 22 ce 42 33 ce c6 bf 1b bc 43 c2 37 16 e9 3f
       -0.17816773187612042 0.7839621347646956
0007d0 0d c9 2c 52 3f cf cb bf 2a e5 56 a2 2f cb da bf
       -0.21726218712280634 -0.41865149358234766
0007e0 e5 79 22 fb 37 e6 e5 3f 04 56 81 4c c6 e4 d7 bf
       0.6843528656934806 -0.3733382937546994
0007f0 55 52 ca 3a d7 a9 c3 bf 47 c1 13 d9 13 89 d1 bf
       -0.15362062807675395 -0.27399154852811985
