hw4/theta_of_simga_190.0C_0.3learn5000000.npy (npy, 25736 bytes, 1 tensors)

array f8 [3201]
00000000: 7169 db1a 5e17 e7bf f12e a786 8673 d73f
00000010: de8f f638 22c3 c23f c674 da00 4cdd babf
00000020: 4ad2 856c 3a98 c8bf 3288 6b68 d27c cabf
00000030: c210 307c b856 c1bf beef c07b 805b d13f
00000040: cb6a 69e3 56f1 c8bf 46bd c335 884a c6bf
00000050: 6837 da8a 316f c1bf db71 22ce bbaa d33f
00000060: b6d4 14c0 7a08 b2bf d719 ef45 997c d2bf
00000070: 6936 5e7c b8d4 c5bf 8de6 d578 8de9 bc3f
00000080: 4b44 67f7 630b d0bf 2c1f ce95 467a bdbf
00000090: a85d ef6e 22cb cabf 0d33 0997 721e d33f
000000a0: f126 6199 a319 dc3f d4d3 6d51 9482 a0bf
000000b0: 6bce 4b1d 9456 c23f 4321 5aa9 fd85 b9bf
000000c0: d91d 81bc f6c5 d43f 071f e165 d1f7 d73f
000000d0: 00c4 e63a 90f6 da3f e6a8 d16e 625d d63f
000000e0: d0bb cbf9 559e c8bf ac68 ccb0 8519 cdbf
000000f0: 5355 a3d4 5137 c6bf dde6 808a 77e0 c4bf
00000100: 6ce5 0ffa c6c6 c13f ef47 480d 0c1c c7bf
00000110: 3d25 8ad4 b982 c3bf 762f f69c 6294 cfbf
00000120: b4a8 d1dd c874 cebf 0bb8 c148 48d5 d0bf
00000130: e738 7417 eca9 c1bf b0c9 1383 462d e03f
00000140: eedf 0438 b7c4 c6bf f4ce b267 5813 d13f
00000150: 69de 8135 ba02 d13f 6dd8 ca5d fdd4 c8bf
00000160: 612a e1db be82 c93f 3f2b 533c 77c7 cbbf
00000170: cb11 f909 92c8 db3f d8ec e31b 483b dc3f
00000180: 0068 9627 6a61 c43f 6897 b008 6985 d0bf
00000190: cc83 4a57 05cd c23f 2384 0bf9 572d bebf
000001a0: e18d 0256 fd03 d1bf fdb4 f81a edfb d53f
000001b0: 947e 7b70 7d00 b9bf 2723 978b f5fe be3f
000001c0: 9e4e 9d25 980e dc3f 47e3 e788 6598 cc3f
000001d0: 9f30 ad18 4abe c2bf ca3d 9f3e be50 c9bf
000001e0: 72a8 6802 b89f cdbf 2de9 0200 e7e1 c7bf
000001f0: b0f9 8e02 4d65 dc3f 6459 b225 f94d d83f
00000200: 356e d315 9728 b5bf e8d0 47f8 6641 c4bf
00000210: b705 703c a41e c1bf 56a4 b525 6314 d43f
00000220: 9d6d 55cd 0945 da3f 037a a005 d9ce b7bf
00000230: a40a 9752 73bc cebf 171c ec8e f9a0 db3f
00000240: 0498 5dd1 7497 d93f 79cd 9a92 528c cabf
00000250: 9765 5634 7fcc dc3f 63b4 8a0e 9e0e c2bf
00000260: 5c46 250d 61a2 d43f 68e5 4e24 97ad babf
00000270: a289 7f10 fccc c5bf 6054 c047 4fb3 c1bf
00000280: b251 7e9f ad43 acbf 8c42 5da4 b82e e13f
00000290: ffd7 303c 5183 d63f 79b6 f990 3312 d0bf
000002a0: 2344 a9e6 88cb c23f 23e2 79b5 e3ac b43f
000002b0: 7aa7 09b1 4579 aabf b159 4d2f 3dec d03f
000002c0: 7876 9e3f 9b68 c1bf 2ef8 3c61 f247 c8bf
000002d0: 59e8 79aa 70ef d43f abef 4aa2 83fc afbf
000002e0: 2778 77e2 0538 cabf d7d9 822e 8417 c6bf
000002f0: 60d0 f10b ed6e c53f 17f1 9b26 e0e9 cfbf
00000300: 3ee6 d0e6 aea3 c0bf ca0f 8c73 f54a cabf
00000310: 12d0 9be8 8c7a c5bf 72ab 7f9b c919 d2bf
00000320: ea5f c23a 9a96 bb3f 97ea 054d 4e76 cd3f
00000330: 79d2 9906 578c b4bf e92a 2221 25d6 b9bf
00000340: 871a 56fe d803 c63f 6e4b 275c 67f0 b5bf
00000350: c81b 4d26 27f5 c9bf bcfe bc04 c2d8 cabf
00000360: 3f2c 8ccd 36bc c83f 5b11 dc38 5184 d4bf
00000370: 1de8 cd94 e6f8 ccbf 0dd4 bb07 f86e cebf
00000380: 2cba 8070 d51a b13f d8e6 b9d3 5949 d83f
00000390: 3be8 e9ee 0694 d0bf ec2f 75b6 4537 c5bf
000003a0: 1404 fda5 e20f d33f 039f df51 1b6a cd3f
000003b0: e6f2 95f3 d408 c2bf a326 385b cde7 c9bf
000003c0: 7934 72ab 1e90 bdbf 0eb2 62ae b27e d73f
000003d0: af63 2751 3619 a7bf 652b cc65 87ef c7bf
000003e0: eb82 7c2f e151 c5bf 6861 0e2d aacb ce3f
000003f0: b061 523d e360 babf 4e8d a88e 692e bfbf
00000400: 3391 0b9b 1185 d03f a6e3 a10e 9fad cbbf
00000410: 8bf5 4534 3bc2 c8bf e466 abe2 b506 c3bf
00000420: 33f5 d379 30db c6bf f613 453e aa2f d93f
00000430: 0875 a50f 76a2 cbbf 3adc 3baa 08e0 ccbf
00000440: a1e7 0d6f d245 b3bf 50fa f295 74c7 c5bf
00000450: 3891 34ef ce52 c53f fe27 8381 dee1 c1bf
00000460: ce73 b8b4 4bfc cb3f 1ed3 6d66 aa34 d13f
00000470: 321f 2ac8 53a1 c4bf bda0 df19 0383 d33f
00000480: eff0 1d25 1837 b2bf ccc5 558c 3c2c c5bf
00000490: f6c6 ff46 2663 db3f 74ff db15 5f29 d33f
000004a0: cf66 5663 577c d73f fe52 f51c 1333 c4bf
000004b0: b9b5 f8ed 9ffa a8bf a64a ffb8 de4a c83f
000004c0: ba71 6ae7 cf4f d13f d6cb d916 c1f5 e33f
000004d0: d8ec e31b 483b dc3f c188 a960 440b c5bf
000004e0: 0d33 0997 721e d33f d1da 8b32 4949 cdbf
000004f0: da59 048a e37b d63f 162b f2bc 4696 b33f
00000500: bb26 dde7 2c9f cebf 5fd1 7642 e10d c9bf
00000510: d72f 5bdd c8be 9fbf 42da ae87 09da b9bf
00000520: 7f38 3c2c 7a3b c1bf 36a6 1349 3a7b c63f
00000530: 231e 1871 5b52 cebf 62d9 823d f1df c2bf
00000540: 991c 730e 014e c63f f8e7 dca2 d245 bbbf
00000550: e31f 8bfd aaa1 cd3f b584 770b 6c3e d3bf
00000560: 0aac 84fa b969 cdbf fffb 571a 3ea4 c1bf
00000570: cc23 6abe 5203 b93f de9f 0b3f 723c c0bf
00000580: c9cb f7c3 4c4e c83f 1cb6 9e96 dcb3 c6bf
00000590: 6a90 627f 0f65 b6bf 4cf6 6ee5 4da0 e03f
000005a0: e777 a925 bd16 c1bf 9d35 f72a 3e79 c6bf
000005b0: c8ed 2c83 24f4 db3f 833a 3a65 2312 c2bf
000005c0: d1f2 7240 da7c c53f 74ac 4579 48bf bcbf
000005d0: ba69 a575 8946 c1bf 87ce d863 6edc d03f
000005e0: de6a c1b6 a68e ba3f 8811 7a0f 2fdd dc3f
000005f0: bbba 22fd 3511 cabf b642 9b45 7f22 c8bf
00000600: 76a0 b91c 00f9 c3bf 5dfe 2ab6 2286 cfbf
00000610: b251 7e9f ad43 acbf e4fb 3eb5 f9fe c7bf
00000620: f123 4d9b cd78 c2bf 18ec 1fdb ec2d d93f
00000630: 7fbc 4a9a 48f7 c2bf 9c2a 702e 80eb b8bf
00000640: c7c8 5fd9 a631 c9bf a7f5 e017 56f9 b1bf
00000650: 6997 8301 2242 c4bf a2f3 dc5d e279 bdbf
00000660: ea8f f86b d5d3 cabf 7899 b1bb 8159 c33f
00000670: aaff 9989 09c7 c5bf 4789 dcf5 a9f2 bebf
00000680: 643f b9a7 6630 cebf 3649 57fe f0ad db3f
00000690: 8420 b7ac 6a76 d73f df3c 132a 6f6d c2bf
000006a0: 4e5d ffb7 049b b53f b5b3 6d94 7db0 b7bf
000006b0: 1d91 c535 45ae c1bf 2d2d fe6b 76da cf3f
000006c0: 239c a73f a971 bcbf 73dd ec68 b8b4 c3bf
000006d0: 5ddf c6c6 1cc5 d0bf 40e2 1d50 2fec d83f
000006e0: 502b ce7e 6082 ccbf 4827 9e88 e4e2 c4bf
000006f0: fb37 6712 f14a d73f 8b9a 109d 5fed d53f
00000700: 728c 613c f302 c1bf 7300 2093 cb67 c53f
00000710: 46e7 e3f9 8442 d53f 7964 699c 5313 d0bf
00000720: 3adf 1d84 84c0 c6bf 73e1 e9b2 6641 d03f
00000730: 1d13 51cc 4a74 c7bf 6e4e ea3c ee14 cabf
00000740: 8f73 c05f c131 cbbf 3745 65e1 eccd c4bf
00000750: 7bd1 be25 6fe1 b8bf c7a7 5aa0 4faf c5bf
00000760: 59d2 3b16 f5f9 b93f fef7 21ed 82ca c4bf
00000770: cdb6 898a ae41 c2bf c244 a87a 3794 cbbf
00000780: 7c8b db70 4e80 bbbf dbab 245a 59d4 b4bf
00000790: 2611 a006 895b e13f d8ec e31b 483b dc3f
000007a0: a01d de73 30dd c7bf 9133 f674 d97d d93f
000007b0: eb8c 7c62 87c5 c3bf 09ca 65b2 38ec a03f
000007c0: 0a0c aba0 fc7e bebf 2495 c9a7 8a4d dd3f
000007d0: c900 08c0 b4f6 c3bf fc8c 18bd e5ba cdbf
000007e0: d4a9 2507 400f d93f a594 fbd9 075d ccbf
000007f0: b12c 0b4b 296c b9bf 1c19 21e0 7103 c4bf
-0.7216024899055765 0.36642611646378415 0.14658000737574545 -0.10493922253450014 -0.19214563654863276 -0.20693426226267914 -0.13545900405745753 0.27120983205145055
-0.19486509422389128 -0.17414953828072494 -0.136205857085254 0.3072957528145516 -0.07044188680159177 -0.28885490254870433 -0.17055421898514858 0.11293873024069452
-0.2506952205704393 -0.11514702946999184 -0.20932417313336527 0.29873337506869363 0.4390648839804348 -0.03224624151236069 0.14326716833567174 -0.09970078835079214
0.32458275231007644 0.3745006079593484 0.4212990355691204 0.3494497377602229 -0.1923320264536117 -0.2273413766168394 -0.17356322176662306 -0.16310018790118522
0.13887870035231786 -0.1805434288840497 -0.15242693784629494 -0.24671585716384542 -0.23793898421292214 -0.263017722178916 -0.13799811501707568 0.5055267868140643
-0.17787828669838696 0.26680574538043733 0.26579146600076925 -0.19399993018822972 0.1993025373106603 -0.21702471204329218 0.4341168496505616 0.44111826633134177
0.15922285969719496 -0.25814271782507214 0.14688174021014644 -0.11787938909721211 -0.2658685054722963 0.34350135454117475 -0.09766372676994656 0.12107786806076302
0.4383907668427386 0.22340077576498116 -0.1464321728220783 -0.19777658517567281 -0.2314367305528467 -0.18658149242930602 0.44368291139462723 0.3797591083652121
-0.08265060694559952 -0.15824591754029105 -0.133747605810681 0.31374434168407583 0.4104637627803756 -0.0929999960648971 -0.2401260522147669 0.43170012433296406
0.3998691601358362 -0.20740730436737545 0.44998149977762963 -0.1410710879330593 0.3224108341574714 -0.10421127926283236 -0.170318134361037 -0.1382845974300464
-0.05520384380284628 0.5369532785644693 0.3517649734307042 -0.25111092717893474 0.14683638823274334 0.08076308422631277 -0.05170648370842819 0.26441888446188516
-0.13600483518978357 -0.18969564197499394 0.32711426399294435 -0.062473405419466964 -0.20483468587821216 -0.1725926615815314 0.16744769175750474 -0.2493248165627697
-0.12999521513283868 -0.2054125608630087 -0.16780244214862755 -0.2828239458601082 0.10776676115563047 0.2301729084100159 -0.08026641760972976 -0.1009238439457182
0.17199242037550652 -0.08569952010956935 -0.20279397363830598 -0.209739925683598 0.19324383770467254 -0.3205760054845734 -0.2263458468040093 -0.23776150109884533
0.06681570049907098 0.37947698284515985 -0.2590348561421966 -0.16574927720137056 0.29784456453131836 0.22980062005739663 -0.1408945264228329 -0.202386540928548
-0.11548034368225214 0.3671080306037603 -0.045114228636243474 -0.18699734182913655 -0.16656126803083934 0.24059035491951453 -0.1030408882819589 -0.12180194599982494
0.25812187329417496 -0.21623600210639643 -0.1934274678459754 -0.1486422879013879 -0.1785641283858382 0.3935342414955011 -0.2158954216383011 -0.22558697044562043
-0.07528414927756312 -0.1701493961499687 0.16658960990856442 -0.1397054798492831 0.21863695453876492 0.2688394546778897 -0.1611733176580344 0.3048713448211052
-0.07115317255187724 -0.1654124913434728 0.4279266064978481 0.2994001115293863 0.3669641943066439 -0.1578086749456346 -0.048787114905603564 0.18978485138957985
0.27049634551238066 0.6237492986969027 0.44111826633134177 -0.16440634460292894 0.29873337506869363 -0.22879900901872088 0.35131157377455013 0.07651178467692107
-0.23923264810064446 -0.1957360815555473 -0.031001223097334076 -0.10098323404859236 -0.13462760124133763 0.17563561027718472 -0.23688834211519447 -0.14745917800400848
0.17425549703168455 -0.10653416134019256 0.23149621372272042 -0.30068493957339665 -0.22978901607834273 -0.13782478605568824 0.09770695828241499 -0.1268446739043147
0.18988952225444525 -0.17736394266596356 -0.08747956142411942 0.5195683938142763 -0.1335064348122039 -0.17557503793652254 0.4367762833605551 -0.14117853586909143
0.16787269732403456 -0.11229374848123702 -0.13496511692467356 0.2634540534083744 0.103739184968997 0.45099998961838894 -0.20365023479594932 -0.18855276964906914
-0.15603639032929423 -0.24628099341315393 -0.05520384380284628 -0.18746873235610828 -0.144311619597175 0.39342805289169425 -0.14817149671350546 -0.09734345563644314
-0.19682775129292038 -0.07021082003571753 -0.15826821397711946 -0.11514105598048599 -0.209589650840939 0.15116902985318936 -0.1701366350061993 -0.12089025738217628
-0.23585208119993262 0.4324915393637129 0.3666025816605798 -0.14396466783953252 0.08439664356352702 -0.09253678201430555 -0.13813080907414924 0.24885444901551904
-0.11110933116980042 -0.15395264743140621 -0.2620307866268286 0.38941557716274033 -0.22272878829638865 -0.1631742159918821 0.36394907757937717 0.3426131280743127
-0.13290253113072797 0.1672300785430739 0.33218502429337027 -0.25117960238055265 -0.17775017214784744 0.25399177047758953 -0.18323645569230332 -0.20376375173929112
-0.21245591330889765 -0.16253434186595836 -0.0971898524429146 -0.16941256837645666 0.10147029679121412 -0.16243015841240543 -0.1426294495062649 -0.21546071519018112
-0.10742655043899946 -0.0813651890827453 0.5424237374686853 0.44111826633134177 -0.18643766076659762 0.3983062402920093 -0.15446560200607648 0.033052226807644365
-0.11912516520082775 0.45785776505938913 -0.1559663713123938 -0.23226615651319793 0.39155579278908914 -0.22158907073677372 -0.09930666048164728 -0.15635512775242766
