hw4/theta_of_simga_180.0C_0.3learn100000.npy (npy, 25736 bytes, 1 tensors)

array f8 [3201]
0	0xbfca0b8f7a5b8f9c	-0.20347779726500625
1	0x3f93fa1622c8ecf4	0.019508691666698177
2	0xbf702769d116e0b5	-0.003943837496471915
3	0xbf78bb14a541daf7	-0.006037789007783393
4	0xbf798a1c220dc475	-0.006235227484340124
5	0xbf821b3117310153	-0.00884092666649453
6	0xbf6c00462c3baf94	-0.003418099456998955
7	0x3f89199583409a4d	0.012255828922275525
8	0xbf946e45030cc995	-0.019951895056871633
9	0xbf70bc698dccaa34	-0.004085933990419611
10	0xbf7c92b034565da0	-0.006975830362896757
11	0x3f923888145531cc	0.017793775788321572
12	0xbf83d7e370ce2906	-0.009689118270916907
13	0xbf8fedc0365d0b47	-0.0155901924696359
14	0xbf866072635eb3b5	-0.010926145226983633
15	0x3f5d32edf60847e4	0.001782162078715726
16	0xbf8998159a382cab	-0.012497109192756225
17	0xbf8c9175b15bb39d	-0.01394931743149091
18	0xbf963fc8e9704e94	-0.02172769474789378
19	0x3f86ec459a0be2e8	0.01119284035074615
20	0x3f9c27911d876f4a	0.02749468558054894
21	0xbf7b65715d52b25e	-0.0066885402967896395
22	0x3f6cd1ab0570c55b	0.003517946267969902
23	0xbf61bf6adb82d8f4	-0.0021664702472562417
24	0x3f92a8c9f7a88aa4	0.018222003689639124
25	0x3f91966a1a105357	0.01717534813004148
26	0x3f91f2d0b4e59ef6	0.017527829209398292
27	0x3f9866bf682b76e3	0.02382945130636117
28	0xbf804713f614db05	-0.007948070475874322
29	0xbf922150af46afd4	-0.017705212305074117
30	0xbf85f4b43da4c0ae	-0.010720642214977563
31	0xbf795d95fa8af162	-0.006192766050557049
32	0x3f7e2249eb64a46d	0.007356919048370531
33	0xbf773187b2253085	-0.005662469923049089
34	0xbf8d5f00978b72e5	-0.01434135878064908
35	0xbf83928d6225960d	-0.009556870038703225
36	0xbf92295abea29ab1	-0.017735879788825574
37	0xbf8c9ced5d52505b	-0.013971189890334459
38	0xbf9119594d6462e9	-0.016698260639801985
39	0x3fa17a50117045c9	0.03413629734871965
40	0xbf94d4d21a5c4852	-0.020343096598545003
41	0x3f755741d45a8563	0.005210168024548298
42	0x3f7b4c43e0b5b9c7	0.006664528987455793
43	0xbf8b99d298cb201f	-0.013476987159620589
44	0x3f60cfebb05096c2	0.0020522692962171305
45	0xbf8467e3ece257b0	-0.009963780085211343
46	0x3f99493a1015b71e	0.02469340060399993
47	0x3f9f3f5dbe29242c	0.030515160304535424
48	0xbf639af51ac1a3ab	-0.0023932254026033015
49	0xbf865715dec00045	-0.010908289776125577
50	0xbf6d23b442507491	-0.0035570641216638517
51	0xbf7ed0650cf3ace1	-0.007522959450606965
52	0xbf911eb727f5c4b0	-0.016718732656447244
53	0x3f938a4d9c03d43a	0.019082272193333895
54	0xbf87db9077bb6d2a	-0.011649254468855636
55	0x3f8527e0dc6bf932	0.010329968191851256
56	0x3f98debac1038a1e	0.024287145643834156
57	0x3f2a61ac281029f5	0.00020127512473806756
58	0xbf85a37c2b4df229	-0.010565729209468593
59	0xbf8e3c69c5186d0d	-0.01476366646516294
60	0xbf7fc22bc12253e4	-0.007753535190336589
61	0xbf7d555b62600013	-0.007161480874856368
62	0x3f975ee25ff15274	0.022822892289996635
63	0x3f926cf00fb1bd8e	0.017993689496902436
64	0xbf83d66fdd2e2fb1	-0.009686349809065438
65	0xbf73aa8c5c9ac9b3	-0.004801319397005721
66	0xbf86578b594c5121	-0.010909165060674799
67	0x3f944bc05fa04230	0.019820218884037455
68	0x3f95ea63052aca15	0.021401927175881925
69	0xbf8719dac5c5d3ca	-0.011279782448335402
70	0xbf8fa0c8e4f7fc4e	-0.015443391311235424
71	0x3f95b676263d704f	0.021203847965225283
72	0x3f94d8a29f796bff	0.020357647880114623
73	0xbf90e4a2568cd407	-0.016497170002555375
74	0x3f98542465c6ef7e	0.02375847693632193
75	0xbf8743b28c92e44b	-0.011359591402980615
76	0x3f8dbb2b97f4e19c	0.014517155241819783
77	0xbf8c2398a2f4fe9f	-0.013739769433072367
78	0xbf85183d68361d48	-0.010300140135554373
79	0xbf7d0bedf872dcf8	-0.0070914550516853955
80	0xbf6e6f4943183cc1	-0.003715174760834467
81	0x3f9f1c67f9969cfd	0.03038179837099352
82	0x3f8b69465ad8304a	0.01338438954100964
83	0xbf87df66f1dd8014	-0.011656574493542883
84	0x3f62a03a474a0980	0.002273668122428407
85	0xbf7496625999fcd5	-0.005026230029783825
86	0xbf836730f19510b3	-0.009474165318018235
87	0x3f8cc9e842098776	0.014056982531829947
88	0xbf8ba36c987320a8	-0.013495300676723623
89	0xbf91e62c54480e1a	-0.017479603428013225
90	0x3f95c68963eb06d4	0.021265169833674616
91	0x3f4dae9af683b977	0.0009058243422524333
92	0xbf8863a92596c46e	-0.011908837756751302
93	0xbf92d86b14c88ac1	-0.018403695243373933
94	0x3f4238cdae326611	0.0005560879038910023
95	0xbf75475be9a53471	-0.0051950064028690604
96	0xbf8903ba03a1485c	-0.012214139209536672
97	0xbf813fed0925e1b2	-0.008422710267709774
98	0xbf85ddc596a2ef5b	-0.010676902446327288
99	0xbf8be8fc5477ae1e	-0.01362797863745074
100	0x3f3998d964bee926	0.0003905802484457536
101	0x3f489ec0c824bc66	0.0007513467137750917
102	0xbf68e5675ccab134	-0.0030390757368278457
103	0xbf8452337fc54ef3	-0.009922411286118904
104	0xbf68c86f3251cd70	-0.003025262051375037
105	0xbf5abb3a0fdc774b	-0.0016315524112040121
106	0xbf87166b9952a521	-0.011273232094327458
107	0xbf8145e12139e0c0	-0.008434065653304734
108	0x3f87238a6087900e	0.011298256941650233
109	0xbf8eb77106565eb6	-0.01499832439985425
110	0xbf7cee42b292099c	-0.0070631604550065695
111	0xbf939350026ab4a5	-0.01911664023161976
112	0x3f2a9a8839a1f0b0	0.0002029696741522361
113	0x3f8c8d84b2c69d38	0.01394179983692699
114	0xbf92b3d852127067	-0.0182641792385855
115	0xbf706ca5c55ead59	-0.0040098643711801935
116	0x3f8f0b107f6eb2a4	0.01515782250302184
117	0x3f83af4a24d3b546	0.00961168217551268
118	0xbf7406409382c6c0	-0.0048887751110428534
119	0xbf8f296d316b97bc	-0.015215733595549945
120	0xbf7a69f33298cf8f	-0.006448698035047231
121	0x3f9432bb8d51c1aa	0.019724779606293964
122	0xbf6c322489b3c7fc	-0.0034418786650514104
123	0xbf918f2272a4fdbc	-0.017147577521652954
124	0xbf813ce37b116d4b	-0.00841691703151661
125	0x3f89f9d2e2fa42a1	0.012683532287412648
126	0xbf80e143b4842297	-0.008242157884994312
127	0xbf8ad5b7af4b23cb	-0.013102946316751038
128	0x3f8f1a3026f4a6be	0.015186668576080972
129	0xbf90499aa72ff463	-0.015905777410797472
130	0xbf8fd847ed6c7e8f	-0.015549241955852082
131	0xbf88a1e20672f7ea	-0.012027517148791095
132	0xbf8426b45253b9f3	-0.009839447748587004
133	0x3f961d22b1ebc426	0.021595518216546726
134	0xbf8d770cb1b832be	-0.014387225316590754
135	0xbf84caeb02b56c75	-0.010152660389101545
136	0xbf271d2b217eb95d	-0.00017634536265860148
137	0xbf91803784d4a0ea	-0.017090671045623042
138	0xbf5ba69daa820c14	-0.0016876735408295528
139	0xbf900edc82b8fb6c	-0.01568169162623738
140	0xbf6adaf0f9c802a4	-0.0032782274777221777
141	0x3f880b30b3c42fce	0.011740093694719091
142	0xbf7da17c5c91537e	-0.007234082972975451
143	0x3f88d6d41ab7fcf1	0.012128502908125035
144	0xbf840a4c5c90381f	-0.00978526742440172
145	0xbf80c985cfa8f722	-0.008196874046116746
146	0x3f93d4ad22cfe151	0.01936598324752598
147	0x3f92e1db1326db0c	0.018439696353847387
148	0x3f924dae5427988f	0.017874454389947444
149	0xbf797e6a9a7edd27	-0.006224075717845146
150	0x3f6a697e046632ed	0.00322413075190863
151	0x3f7716c299e73ac5	0.005636940155865748
152	0x3f8716d3981532b2	0.011274006918619992
153	0x3fa28e89a65711e5	0.036243726306142844
154	0x3f9f3f5dbe29242c	0.030515160304535424
155	0xbf8a1c1cc6823cd0	-0.01274893265534019
156	0x3f86ec459a0be2e8	0.01119284035074615
157	0xbf82703cdd644989	-0.009003139025058686
158	0x3f9481635847dc63	0.02002482630083725
159	0x3f5c5bfb62567936	0.0017309145854152558
160	0xbf90b6a42872c22b	-0.016321721047179032
161	0xbf81035cab7a2503	-0.008307193739954593
162	0xbf7332ff3ec8d5b7	-0.0046873064534813024
163	0xbf86581319b9d958	-0.010910176489443188
164	0xbf70385f21a48de1	-0.0039600101538641306
165	0x3f85b4b48dec9594	0.01059857423895031
166	0xbf89d5b0e54a1503	-0.012614614484173453
167	0xbf7588784a203bc3	-0.0052571009455410515
168	0x3f85b56269c633ee	0.010599869587872814
169	0xbf84c6d5ffd9e35c	-0.010144874449211798
170	0x3f888ba3c4d235d9	0.011985091632847155
171	0xbf95611f280abd3e	-0.02087830240151089
172	0xbf85e85c62b34f51	-0.01069709945878797
173	0xbf8d2c2ec474b7b7	-0.014244428034171237
174	0x3f713d8aa280719e	0.004209081213073422
175	0xbf80360166c1b058	-0.00791550726736305
176	0x3f6e030d142b9894	0.0036635642476197747
177	0xbf88ed1acd01b9c5	-0.012170991307553511
178	0xbf70878ef4aacea9	-0.00403552858431381
179	0x3fa04aa3afc1582d	0.031819453434465884
180	0xbf8fd7023fdb4ed9	-0.015546815465689633
181	0xbf90ad9ad89c2d3b	-0.0162872500141422
182	0x3f98144f1d7bf447	0.023514972853252904
183	0xbf73e18721f873e8	-0.004853752004717805
184	0xbf6826a4f9b025aa	-0.002948114602536041
185	0xbf7125824daeef9c	-0.004186161992887263
186	0xbf8630fb7dedc707	-0.010835613995115801
187	0x3f88d08897f3f0e1	0.012116496216997454
188	0x3f7dabd44d50e527	0.007243947319744571
189	0x3f991c245d934cca	0.024521415912045076
190	0xbf854ec45950c7b5	-0.010404142356580917
191	0xbf857728d81b7f10	-0.010481185050081915
192	0xbf70a833c7e7ef48	-0.004066660183976563
193	0xbf8707ccca3918eb	-0.011245345994336428
194	0xbf6e6f4943183cc1	-0.003715174760834467
195	0xbf7fc63b80b30de1	-0.00775740855459925
196	0xbf8c400120010392	-0.013793953694518444
197	0x3f96fb22da87103f	0.02244238337313242
198	0xbf8dc0a4e7d28222	-0.014527595829634758
199	0xbf857eb51df7a601	-0.010495581604987871
200	0xbf9052f0baf11047	-0.015941392335904216
201	0x3f4491a65da5f051	0.0006277143796036365
202	0xbf7e3575f818fa2c	-0.007375202958029219
203	0xbf8dedde2bc7253f	-0.01461385317897401
204	0xbf7c7c5a505fa5f5	-0.0069545295609514295
205	0x3f6a2135aa7421ae	0.0031896637116270643
206	0xbf8aeae70ceafa51	-0.013143353540155863
207	0xbf83b91364959d11	-0.00963034773549379
208	0xbf8a678846675bad	-0.012892784737159458
209	0x3f95a88170dd4701	0.021150610459989675
210	0x3f8cf5841aba191d	0.014140159669534353
211	0xbf76789773e10937	-0.005486098873065884
212	0xbf62e70eb7f05051	-0.0023074424239073817
213	0xbf8abc3d22d348da	-0.013054349541935673
214	0xbf7846b787ad9efd	-0.005926815904650826
215	0x3f85b2b0827c9d0a	0.01059472940649055
216	0xbf8dba843d89ef4c	-0.014515908363356943
217	0xbf7c19c00d01e705	-0.006860494802930499
218	0xbf8ad40aa81f9bfd	-0.0130997498089993
219	0x3f932a6ebf6f5b3a	0.01871655505587031
220	0xbf82cc3953f1b101	-0.009178588747282836
221	0xbf75b41c4f3f0494	-0.005298719963264937
222	0x3f92542717ff80bf	0.017899142112469898
223	0x3f914afe2af8ee74	0.016887637493921706
224	0xbf64d9a6d2f51a5b	-0.0025451906473421943
225	0xbf51ab2c81851c52	-0.0010784086826605322
226	0x3f92ede9a3c7ab4a	0.018485689755759517
227	0xbf8c7783a98f6c01	-0.013899830448215413
228	0xbf8b7b41c4fc91c4	-0.013418687652639323
229	0x3f8a4ab8b534853a	0.012837832479422152
230	0xbf7ccdd3103ced6c	-0.007032227007410224
231	0xbf743cdfacafc1f1	-0.004940866211641013
232	0xbf9358298b64282c	-0.018890999920621862
233	0xbf90507c6db8a6b0	-0.01593202991185788
234	0xbf50256f6f975390	-0.0009854877701986654
235	0xbf779cc67ac45706	-0.0057647469623327615
236	0xbf6de98ee2aa3159	-0.003651408265176109
237	0xbf7577d49c2cd2c9	-0.0052412324028423074
238	0xbf8476aea8d7ba24	-0.00999199345366459
239	0xbf945108040a9192	-0.01984035992303885
240	0xbf83d85a5e63b458	-0.009690004354036372
241	0x3f5255d7a3e76156	0.0011190992223558314
242	0x3fa08bc929b423a1	0.032316480961589684
243	0x3f9f3f5dbe29242c	0.030515160304535424
244	0xbf886d179dff6312	-0.011926826962665813
245	0x3f9c28ff286c7f9d	0.027500140039705568
246	0xbf74cd94bc9c274a	-0.005078869822463814
247	0x3f6bb35ea8ac2e3b	0.003381428604716933
248	0xbf86922b73aae883	-0.011020984141726814
249	0x3f9bfeb94c4f2577	0.027338881762067637
250	0xbf8ccd93e6a066a0	-0.014063983417190784
251	0xbf8a05789575ce53	-0.012705747662699418
252	0x3f99680bdf157788	0.02481096791358753
253	0xbf8872b94a40a33d	-0.01193756826258296
254	0xbf7b75a3c47070ba	-0.0067039868509050585
255	0xbf7da00754e7c989	-0.007232693328193548
