hw4/theta_of_simga_220.0C_30learn100.npy (npy, 25736 bytes, 1 tensors)

array f8 [3201]
-0.026091746831548187 0.0018011073926127755 -0.002630686314068478 0.0015003844825039366 -0.000816248503545385 0.0010891890592068607 -0.0010288184458532475 0.00015472307771393888
-0.004982726950522584 -0.0007890482701548752 -0.00125958135319688 0.0018062992635855444 -0.003329662221761575 -0.0030387735799794658 -0.0030903458501978717 -0.0007030086239502539
-0.002895331679331519 -0.004006004606150952 -0.005673807792249309 -0.0005024800700410689 0.0031979657135044544 -0.0025766299539648303 -0.0007000935789896688 -0.00018220919092426334
0.00142821450665339 0.0005324416582850449 0.00026852842448763756 0.003133618823493638 -0.0017226798170428563 -0.004687296474726019 -0.002950554037442512 -0.0018001500535020862
0.0004639765798997037 -0.0015159466265059417 -0.0040113070245191606 -0.0011239146792870153 -0.004772283929017089 -0.0033921391720355223 -0.004724392396608024 0.003210047715629209
-0.005303669599641767 -0.0016630155129104492 -0.0011743017839475703 -0.0036595308497089614 -0.0016124942571694191 -0.0026057401868798285 0.0016851877954625202 0.004086718044067802
-0.0023426005233677964 -0.0017214889398346764 -0.0026327411566894067 -0.0021599128903006886 -0.0036398108743070064 0.0010396703641431435 -0.0036571657070199113 0.0010451137989310277
0.0017879187396753426 -0.0024548377814266648 -0.002611305812069524 -0.0035479553996446977 -0.0016084807904497864 -0.0018435938399886877 0.0013119960651907334 0.0009255813364216861
-0.0031605300238234874 -0.0011054112226552037 -0.0031337439357985455 0.0026984690895763847 0.001063057589554834 -0.0033450298719877626 -0.004036711412396202 0.0008552802378159052
0.0012344196040132856 -0.0042070432472510666 0.0016096384284434299 -0.003349301719202694 9.2508205853885e-05 -0.004051623005584669 -0.002863629045951792 -0.0025129116874957067
-0.001777957906473715 0.002437636589770488 0.00016169470363004178 -0.0019340444851112107 -0.001375634615060052 -0.0027988546991116452 -0.003416691156230599 0.0007966200000134611
-0.003728029728746944 -0.004208740730038678 0.0021366700762379485 0.0001309600113474689 -0.0030247457739011573 -0.004618793135474499 -0.002166768313219284 3.1807552679856764e-05
-0.0032987141562434165 -0.0011773271708899577 -0.0033465758345220874 -0.0030039453260486283 -0.0015563097319147476 -0.0022777223827231555 -0.000358016850923505 -0.0031784399819478133
-0.002433670107089423 -0.00015321520072835188 -0.0030162995858075744 -0.00035867425481308937 0.0007397696806630078 -0.003112484521087618 0.0004104444387390357 -0.005104992938489494
-0.001063424737667966 -0.00030948415225443205 -0.00440863854749059 -0.0003287389818057084 0.0005135379259030862 -0.00024367536043030285 -0.0011750214630673738 -0.00412895501768135
-0.0020523779320603067 0.0011843902224118448 -0.0017703843066304906 -0.004151000123801461 0.0011130188868732941 0.001090940347044817 -0.0028433217656559373 -0.00356968131308498
0.001405301138147753 -0.00403679647529209 -0.004142736354081572 0.0018336974684310676 -0.002381643729686678 0.0013356872987613086 -0.0038226729675970503 -0.0021440919990875808
-0.00021599893388040062 -0.0046769492319616674 -0.0022209032107281214 -0.004164888006455089 -0.003007910118043327 -0.0005532831550610129 -0.001673689731032975 -0.00011426430123798072
-0.0033420535095501067 -0.0023605373227640024 0.000767731012131888 0.0026480849187975326 0.0013181376292251282 -0.001724054926660732 0.0004569445220477897 -0.0005775801085137625
1.6303013441032554e-05 0.0028564310105585675 0.004086718044067802 -0.003301613665485018 -0.0005024800700410689 0.0010556128110252923 0.001099595710214075 -0.0011265674082108416
-0.00417229793994792 -0.001656056103843977 -0.0017392048064245533 -0.0032962519534068917 -0.0011675034946162066 0.0014965556388499416 -0.0026553828953389726 -0.0013295335045540283
0.0009362449831028571 -0.0033794311366667816 0.00190365162991603 -0.004733958406520519 -0.0020968996663059793 -0.0039648710524651356 0.0032845888919475603 0.0016889236085144868
-0.0013965071050536285 -0.0034749697800901314 -0.0008214860185132523 0.0036637188901063127 -0.00442492631287825 -0.004188864850515385 0.002054550429218962 -0.0016542185945870088
-0.0026086385638051717 -0.00040985907852600855 -0.0023795818241612284 -0.0001516502927468186 0.0020316297287761064 0.0012810607989739622 -0.0027003413602409293 -0.0024736884922386742
-0.0009396727436969817 0.0014117635397045563 -0.001777957906473715 0.0003351608653596167 -0.003432421846072446 0.001324728465037917 0.0021200847700118338 -0.003456531889168707
-0.004413603659200995 0.0001429865597564907 -0.0020811935962416826 -0.004207080735508869 0.0006892917691458528 -0.0013262583579014236 -0.0035990542785528197 -0.002570552019876377
-0.0035336846460646064 0.0013480464112053364 0.00017585227293027023 -0.0010560506740292515 -0.0019050974136939672 -0.0038200255771277604 -0.0018320068542744866 0.0001435490052786855
-0.004185220223999094 -0.0017810865719508164 -0.0031470590305371538 0.0008240295451113522 -0.0020824129017238294 -0.0010119566944689525 0.0008013089975892404 0.0006957643904870174
0.0005391947700212131 -0.0021475366523974557 0.0012283369778445775 -0.003539314525516043 -0.003844703121094712 0.0009838464874902528 0.0007683178992467097 -0.0007365990207302596
-0.004593927972618034 -0.004147259835594139 0.0003238049120007208 -0.001540854438552543 -0.002415805062730633 -7.954378005259028e-05 0.0019229178283039921 -0.004881628737821675
-0.002735906140031665 0.0003101529692388956 0.0027749682263158927 0.004086718044067802 -0.0031470784341206415 0.003819053463946953 0.00014272585204719234 0.002537484007800197
-0.0030880540427601906 0.0044368488377915846 0.0019391632079568959 -0.0031572256040770445 0.0038138090573866085 -0.0029577837452687346 -0.0018556020009372906 -0.002339708725445615
00000000: 6f19 597d cbb7 9abf 9144 4356 6482 5d3f
00000010: ec2e ebf5 f28c 65bf d074 2992 1195 583f
00000020: c4c5 6650 30bf 4abf 2870 dcd8 63d8 513f
00000030: 5082 0565 2ddb 50bf 9143 101e a547 243f
00000040: 701e c294 c468 74bf a5b6 f441 04db 49bf
00000050: 2d11 fe2d 11a3 54bf d68d e310 2b98 5d3f
00000060: 1896 2ccb ce46 6bbf a9b5 ab24 c5e4 68bf
00000070: 308a 84cb ec50 69bf dee4 3a86 4309 47bf
00000080: d82e f65b f3b7 67bf eb31 56ac 9968 70bf
00000090: ce81 952e 6b3d 77bf 7830 debb 1b77 40bf
000000a0: 9144 e7c4 9e32 6a3f 5687 5bac 951b 65bf
000000b0: cbb2 5083 cff0 46bf bebf 3708 ede1 27bf
000000c0: 6085 41a6 5d66 573f 75c8 32c1 7172 413f
000000d0: 93ce 1ccd 2899 313f 3e5e aecb acab 693f
000000e0: 8783 715e 7139 5cbf 24b7 0c91 fc32 73bf
000000f0: 3895 11a3 c22b 68bf e54b e466 607e 5dbf
00000100: 158f 9d3c 3c68 3e3f e196 bb4b 57d6 58bf
00000110: 259d c007 296e 70bf ee44 a032 0a6a 52bf
00000120: 920b 7036 1a8c 73bf 1500 d6d9 d4c9 6bbf
00000130: e7f3 636d e259 73bf 6f9a a13e f54b 6a3f
00000140: e402 abf7 4cb9 75bf 6a7b 674f 313f 5bbf
00000150: 25fb 7df0 603d 53bf 3ab8 2eaa 97fa 6dbf
00000160: 0bb5 5e86 4a6b 5abf a500 4e1c a258 65bf
00000170: 4139 069e 309c 5b3f 0950 8e05 3cbd 703f
00000180: 46aa 5514 ca30 63bf 84e7 9bac 7234 5cbf
00000190: c38a 5625 4291 65bf d3cd 3b67 aab1 61bf
000001a0: 3a98 6695 3cd1 6dbf d67c 9b8d b108 513f
000001b0: 0f4e 72e3 a1f5 6dbf 2986 9165 861f 513f
000001c0: 66aa f220 134b 5d3f 4970 9fff 2a1c 64bf
000001d0: 7095 0122 4e64 65bf 00ae 170d 9a10 6dbf
000001e0: 09d9 0919 755a 5abf 62ae fdcf 9734 5ebf
000001f0: 2d82 510c e97e 553f 548e ecc8 5654 4e3f
00000200: 7221 e4a2 1ce4 69bf 8f24 3243 6e1c 52bf
00000210: c341 fcf6 efab 69bf 04de a58f 191b 663f
00000220: 1d82 2d65 c96a 513f 8846 f03c 0967 6bbf
00000230: c47d fe77 cc88 70bf 7b28 3e53 9c06 4c3f
00000240: 46b4 0af5 8739 543f 778b 8e92 673b 71bf
00000250: 3fac 251a 505f 5a3f 3b31 26ab fe6f 6bbf
00000260: 4111 01e0 1e40 183f d814 e044 6f98 70bf
00000270: a427 3523 7775 67bf 4239 7f30 f595 64bf
00000280: cd4d f7c3 4b21 5dbf 1dd6 d72d 18f8 633f
00000290: 3f01 95ed 9231 253f 3f03 0174 f8af 5fbf
000002a0: a019 b56b d489 56bf bc1e c4ac 9fed 66bf
000002b0: 6470 d918 52fd 6bbf 1084 776c 881a 4a3f
000002c0: bd75 6eb8 3e8a 6ebf 388d af3c 2f3d 71bf
000002d0: d46d 3103 ec80 613f b31c 80ee 492a 213f
000002e0: 780f af05 5ac7 68bf 5cf0 6bd7 27eb 72bf
000002f0: 2299 62e1 0ac0 61bf 0149 2e30 23ad 003f
00000300: 43f7 6fad e705 6bbf b2c4 856c 114a 53bf
00000310: 8f51 6938 476a 6bbf e433 e6dd ba9b 68bf
00000320: 5651 aad9 a27f 59bf e2ca 94e4 baa8 62bf
00000330: 4ab7 87aa 8676 37bf 51df caf8 ab09 6abf
00000340: 484d 9db0 c6ef 63bf 7176 818d 0c15 24bf
00000350: 8c71 6e82 a3b5 68bf ea39 c031 8e81 37bf
00000360: 4def e14a a33d 483f 44ad 4667 5a7f 69bf
00000370: 9e16 f370 1de6 3a3f 4c56 791b f9e8 74bf
00000380: 1428 159e 536c 51bf 2522 0450 4848 34bf
00000390: d309 1ae6 ca0e 72bf 84a5 ff2c 538b 35bf
000003a0: 0dce 6a4c ded3 403f 1029 6468 63f0 2fbf
000003b0: 3dda 61b0 6540 53bf 4513 48ec 85e9 70bf
000003c0: 7484 1c03 26d0 60bf f96c 5751 b167 533f
000003d0: 9b6e b1ac 8701 5dbf 244f 709c a300 71bf
000003e0: 914b 03ee 563c 523f e949 3247 bcdf 513f
000003f0: 001d dbbf e04a 67bf e121 e60f 2a3e 6dbf
00000400: 38e6 7a9b 4206 573f fdc7 784d e388 70bf
00000410: faf7 8152 f9f7 70bf 8341 17aa 150b 5e3f
00000420: 6754 c03d ab82 63bf bce3 0351 47e2 553f
00000430: b0da 21ec b950 6fbf c895 80a0 7c90 61bf
00000440: 4b06 c7b6 b84f 2cbf 4bf5 f0ff 2228 73bf
00000450: 368a 0b55 9231 62bf fdb6 779c 330f 71bf
00000460: bfff c272 0ba4 68bf 3399 3887 4621 42bf
00000470: bad7 23aa f66b 5bbf af47 67bf 25f4 1dbf
00000480: 3dcc cc50 cb60 6bbf 38b4 45d3 6756 63bf
00000490: 8eef 6bcb 3128 493f ffcb f1c3 6fb1 653f
000004a0: 44e5 9580 ab98 553f 296e b2e1 353f 5cbf
000004b0: a476 3dc7 41f2 3d3f 8839 a4d6 17ed 42bf
000004c0: e70c 8a8d 4e18 f13e 3092 c1b8 5e66 673f
000004d0: 0950 8e05 3cbd 703f 54ff f356 fc0b 6bbf
000004e0: 7830 debb 1b77 40bf 1db4 09a0 8f4b 513f
000004f0: 37e9 4ee7 0904 523f 5e48 338b 2a75 52bf
00000500: 244c 38b3 f816 71bf 7b41 9bb3 0022 5bbf
00000510: 60da eff0 c07e 5cbf 1835 dbca bd00 6bbf
00000520: 332d f354 dd20 53bf 3fdf a161 0285 583f
00000530: 2ced 33d6 bdc0 65bf 7298 f1ba 77c8 55bf
00000540: 302c afca caad 4e3f 8a11 c146 2eaf 6bbf
00000550: 48f4 945f 7e30 5f3f 3d09 9648 ea63 73bf
00000560: da41 ac6f 842d 61bf 0d16 0df8 773d 70bf
00000570: 9b20 e53b 48e8 6a3f 4e2c 7fea dbab 5b3f
00000580: 16cf 1116 60e1 56bf 4d23 ec31 8a77 6cbf
00000590: d892 b4ca 1feb 4abf 1362 121a 6003 6e3f
000005a0: 64fc d01c df1f 72bf 752e a5d8 5728 71bf
000005b0: d2e8 d85c b4d4 603f 986d e8b0 4b1a 5bbf
000005c0: 8e32 322a b65e 65bf 5ac2 9656 4bdc 3abf
000005d0: 3a1c 9d43 587e 63bf 5d26 7618 8ae0 23bf
000005e0: cafd c3e7 a2a4 603f 5808 178f 28fd 543f
000005f0: 6094 91ba 061f 66bf 8ec9 9665 b343 64bf
00000600: 82df ffd9 8bca 4ebf c5d2 e48e 5d21 573f
00000610: cd4d f7c3 4b21 5dbf e26b a3f4 10f7 353f
00000620: 700c 6672 4f1e 6cbf 691f bd5b 50b4 553f
00000630: 51f6 0fd8 235e 613f da6c 7d6d df50 6cbf
00000640: a9fa fab5 ff13 72bf 43ca 2232 d5bd 223f
00000650: cf0f d74d 940c 61bf 56f3 baa2 713b 71bf
00000660: 8096 8dcd 3296 463f 6ea7 7c11 bbba 55bf
00000670: 5681 888d c37b 6dbf 7407 759b d60e 65bf
00000680: cfba a77f acf2 6cbf f3b9 f9cf 1d16 563f
00000690: a220 b785 9f0c 273f fe69 e7c6 654d 51bf
000006a0: 96c2 99c5 8e36 5fbf b184 8e9d 2c4b 6fbf
000006b0: 172b 9c61 fe03 5ebf ca4f eb90 b4d0 223f
000006c0: c971 d17f 8524 71bf 2ae1 fb24 6b2e 5dbf
000006d0: 29f0 ab73 dcc7 69bf 1f8e 3df9 7500 4b3f
000006e0: e7d5 e8e9 220f 61bf d0f5 173a 7494 50bf
000006f0: 3b3c 25f8 dd41 4a3f ef37 c4a6 7ecc 463f
00000700: 3f1d a3f3 17ab 413f 545b 0cf6 b597 61bf
00000710: f6e8 7dc9 0420 543f 122a 6504 7bfe 6cbf
00000720: a8b0 5f45 ed7e 6fbf 7f4b 3c1f 8d1e 503f
00000730: 836c 0620 1e2d 493f 2892 265a 0a23 48bf
00000740: 7af1 7026 15d1 72bf 644e ca95 b7fc 70bf
00000750: eb32 e081 8b38 353f a185 f9da cf3e 59bf
00000760: df32 9d77 4fca 63bf 1f1f 57bc 17da 14bf
00000770: c597 de4b 4d81 5f3f cd86 7b3c c2fe 73bf
00000780: 84fe ae6c 9c69 66bf 4a42 11dc 8053 343f
00000790: 7162 f1b8 87bb 663f 0950 8e05 3cbd 703f
000007a0: e4d6 7ade e6c7 69bf 00a7 56b7 2249 6f3f
000007b0: e7fb d1bb 15b5 223f 1fe7 7b5a 7dc9 643f
000007c0: 7fe5 e663 1e4c 69bf 6661 7d8a 5f2c 723f
000007d0: 0275 d3a3 70c5 5f3f ef3b e696 2edd 69bf
000007e0: 1bd9 9625 233e 6f3f 91d5 8b0e ec3a 68bf
000007f0: 8484 237a f566 5ebf bd90 a78e b92a 63bf
