hw4/theta_of_simga_240.0C_0.03learn5000000.npy (npy, 25736 bytes, 1 tensors)

array f8 [3201]
00000000: c144 ca82 046e a3bf 91aa 0e05 9446 b53f
00000010: 6da7 1655 88e4 913f a4d8 27f4 a0de 9abf
00000020: a95d 680a 82c0 a2bf 0f78 f66e 993d a8bf
00000030: 598a 528d fdba a9bf cf54 0745 89f6 b13f
00000040: cee9 4d96 4cf1 a9bf 12a5 bf9f 2df5 a1bf
00000050: e2bd f85f e31d 91bf ca31 7503 2250 af3f
00000060: 623d a095 cdbe 6abf 2d9c 997a e536 b1bf
00000070: 733b 36d8 5f98 a3bf 57df bf2e 091f 933f
00000080: a395 4a9c 21a6 b3bf 57a6 9684 2301 a0bf
00000090: 3846 ec83 e06a b1bf 2302 2f78 bea9 b23f
000000a0: 8c58 1899 e5cc b63f 601d c601 6353 823f
000000b0: 9f94 eb06 a14d 9e3f acc1 a98d ec33 7fbf
000000c0: ea41 6421 58fd b33f 079f 0db5 3a8b bb3f
000000d0: 489e 665f d96b ba3f 18fe 118f 621f b23f
000000e0: fe5e ff92 d402 a6bf a24d 9237 f427 adbf
000000f0: 0de7 828f 5b5a 9fbf 50c5 11d3 3113 9ebf
00000100: 5296 7c23 4fdf 983f 7d38 1337 4ec1 a6bf
00000110: a3bf 0c1c 961e a2bf ade8 fba8 311b abbf
00000120: 8a77 37f7 c625 b2bf 55a6 a04f 9e87 b3bf
00000130: 9bdc 449f ecee a2bf bdf6 c829 3ff9 bd3f
00000140: c2f0 ce62 0177 aabf 9048 5afb 6f35 b13f
00000150: 02b3 f157 791b af3f b8fc fd63 f5c1 a5bf
00000160: d531 a25d cd52 af3f 8e2e 0150 ffa0 aebf
00000170: 66cd cc29 77a3 ba3f 9e0c 9854 e8d5 b43f
00000180: 8f97 9625 20e9 9f3f 3274 dac7 9e6a aebf
00000190: 03c6 e4b6 c276 9b3f 5bf9 9acb 179d 94bf
000001a0: c93e 7860 8d62 afbf b675 a4fc a80f b43f
000001b0: 9143 7538 08cd 81bf 3290 7d51 1ff7 983f
000001c0: e383 7da0 d24e bf3f eb61 7921 8b1f a53f
000001d0: 4434 56ca af96 9abf 3a18 d75d 4c4e a7bf
000001e0: 76f9 a46f 5395 abbf a1de 9721 ba67 a5bf
000001f0: 3387 0baa fb43 c03f adcf 979c 10e6 b93f
00000200: 9a12 c48c 1993 65bf 07a8 5947 2487 a1bf
00000210: ec9f 5b27 44db 9bbf 3230 22a1 9e36 b23f
00000220: 34be 899e 6211 b73f e7c3 bff7 b6e2 91bf
00000230: 11c4 1e61 4aea b0bf 41ef f73b 6060 be3f
00000240: 312e b177 bb02 b83f 8ca1 9dec 6499 abbf
00000250: 4053 01c9 8071 b93f a24a 7e92 0906 a3bf
00000260: ee6b aef8 4c9d b23f 4c3b 7053 6c2f a0bf
00000270: 0bba 6c03 f9c6 abbf a3ed 5323 9215 a8bf
00000280: ab03 6b37 7709 9a3f 9658 17bb c706 bf3f
00000290: 1f18 b15d d631 b53f 516b 3640 25c9 abbf
000002a0: 8d5d 0e52 3933 a23f b784 36be bb05 8b3f
000002b0: 7184 62c5 75ec 74bf ca9f 8df2 a4e5 b43f
000002c0: 289a 58b9 9b20 9cbf ba5b acb0 d225 a8bf
000002d0: c1d6 5511 2c6e b23f 7826 264b 2911 7fbf
000002e0: eecf 1efd ad53 aabf 5d7b b774 1bc7 a7bf
000002f0: 9db9 d32e 49c6 a43f 3a5f 42f7 26d9 86bf
00000300: a6aa 63cc e77c 9cbf 879b 2579 b84b a5bf
00000310: c812 d072 37bc aabf 7ce8 5c04 0435 b0bf
00000320: 751c 7dba c2bb 9a3f c951 d275 f3aa a93f
00000330: e02a ff64 aae7 8cbf e22f a438 7827 8ebf
00000340: ccef 4dce 1063 993f c6d8 af8a 06f0 91bf
00000350: d8f6 9ae5 35ec a5bf 4782 a977 b8ab a6bf
00000360: bcc8 0ab0 1612 9b3f 05bc f832 e8ed b2bf
00000370: fb4a 896b a0cc a6bf 759b 4751 e30b b3bf
00000380: 0bb9 a56a 8504 84bf 2e09 54ce 0e43 bb3f
00000390: 889c d13a 2aaf b1bf 61cf 9936 300f a5bf
000003a0: 4f63 03e8 08de b13f dacd 48e5 eb5c a93f
000003b0: 9099 5728 c6f5 98bf 8eb8 9393 d68d afbf
000003c0: 6978 b39a 0333 9bbf 1f4d bf61 bde0 b03f
000003d0: a3d0 fe92 7cbf 9a3f 1b3a d947 dc03 a7bf
000003e0: eeb2 da23 335f a4bf 1b1b 488e 3d5d a83f
000003f0: 4e36 e882 ba3e 8abf c382 298b 10ea 9ebf
00000400: 92f3 e0b8 65b9 a43f fa9b eade 001e aabf
00000410: d16c 6a94 3b27 a7bf 9a75 f47f 29e1 a3bf
00000420: 26b6 9fea a486 a1bf b0f0 4bec 3401 b93f
00000430: 4532 1d77 47b8 abbf 1079 dff1 9d94 acbf
00000440: 3e9e 6192 02d4 83bf 60e0 4af8 cdba a9bf
00000450: 52db db9e af3c a13f bba7 e528 e4ee a0bf
00000460: ff20 623f 0ae9 9b3f eca9 5836 0003 aa3f
00000470: 4520 51ae 9da4 a9bf 4bd1 15a4 2e81 b43f
00000480: 3402 cf1a bdc4 6abf 721b 0526 5100 a7bf
00000490: 1453 d262 9c0c bb3f 97e1 9936 eb4a ad3f
000004a0: f503 296c 1dd6 b53f 76f2 70e6 5889 99bf
000004b0: a884 e667 031a 513f 6d9c 8d52 cd6d a63f
000004c0: 02b6 e78f aa1d b03f 763a 07b0 87a6 c23f
000004d0: 9e0c 9854 e8d5 b43f de1f 373e 45ad 9dbf
000004e0: 2302 2f78 bea9 b23f 5f8c df1f b1fb a7bf
000004f0: bfdb 8d47 fb24 b13f b5e4 d8f4 7f04 a23f
00000500: 5c93 bc67 86b1 aebf d2f0 1db1 0444 a3bf
00000510: ac90 bb86 376d 543f 9d04 945e 75c5 8abf
00000520: 1a4f 4ec9 226e 9abf f591 93cb d762 a03f
00000530: aff9 0982 7ae8 adbf a49b dec0 cd0a a8bf
00000540: adc2 dd0f 60f5 a03f 4c24 dfe6 a52a 91bf
00000550: 0628 0695 2f36 a63f 6df2 1093 cb69 b3bf
00000560: 0f68 089e faf9 a8bf 5c6f e476 d2b5 a0bf
00000570: 946a e941 a979 543f f03a 0b11 c553 9ebf
00000580: 4ff2 d643 c573 af3f 1595 2087 cbc7 a6bf
00000590: 556f 96f3 2bcd 8abf 0f1b 61ef 1083 bc3f
000005a0: 5bfa 3c78 bc49 a4bf 1933 381f a4f0 a6bf
000005b0: 7146 7b6b 3001 ba3f f5fb 0fd9 a36a 9cbf
000005c0: 3206 67e0 ab5d 993f 2c05 8004 e6f7 93bf
000005d0: 78fb 140f 5c7b 98bf 476f 4658 9f0a b23f
000005e0: 57f8 df82 13b5 7c3f b1e5 9929 fba6 b53f
000005f0: 65c7 e1a3 1072 a6bf d671 a404 d750 92bf
00000600: 9abe 624c cce0 aabf 44c4 878a 5235 aabf
00000610: ab03 6b37 7709 9a3f e4e9 9ad8 12ea a4bf
00000620: f626 7c43 3bf5 a1bf 63b4 a64f 3e42 b33f
00000630: 2f8e aa8d f63b a4bf 22f2 60c3 94da 87bf
00000640: a2df a8ce c685 adbf 7394 c397 3f8c 71bf
00000650: fcde 6d24 f0b8 a0bf f492 de78 36a4 9abf
00000660: 86da 085f aac4 a5bf 86bd f76c 31cb a13f
00000670: 992f e88e caed a4bf 0ef2 3f27 fd71 99bf
00000680: 54b7 bd51 c3ea b0bf 2caf 42c5 d10b ba3f
00000690: 672b 1ea9 c4b7 b93f 7a7d 0d73 9b3c 9bbf
000006a0: 0b47 1668 c4dd 893f d87e dc78 3c1f 97bf
000006b0: 3ed2 0190 dd47 a5bf 097a c8be fc0c ae3f
000006c0: d277 256e 164c a1bf a8cc 1051 ee09 a0bf
000006d0: ef3e 26df 5045 afbf 8d81 d0d0 3d69 b93f
000006e0: 8101 f7f3 ac22 abbf 68f9 2f3f 6f57 a2bf
000006f0: 8abd 009a 3822 b73f 3d9b 5178 6e8a b33f
00000700: 6971 ff5f 8929 9fbf dc1a ae63 848b a23f
00000710: a93b c075 fd0a b33f 4895 34d9 d4f1 afbf
00000720: 78f6 2601 e647 acbf 0d7d e5e0 29dc ab3f
00000730: a388 708b 11bb a2bf 838a 0ffa 314c a6bf
00000740: 8a4a bd7e 7de0 aabf 9f8d 73ad 8c3b a3bf
00000750: d27e 1165 4f05 9abf 82d9 fcd5 c1e6 99bf
00000760: b078 2ece 36ec 953f be62 3a2f 4183 9bbf
00000770: 149f 022b 1e79 a1bf 484b 1c4d 5d90 acbf
00000780: 669b 1d5d 555b 93bf bb88 bacc ef73 90bf
00000790: 9ed2 7de0 b250 bf3f 9e0c 9854 e8d5 b43f
000007a0: dde1 fe71 4d0d a7bf 1099 f1d2 3459 b33f
000007b0: 89d8 b408 3a28 afbf 496c 40bc d4ca 7abf
000007c0: a6a2 e124 327b 98bf 1e4f a723 0afc b23f
000007d0: 5cdc 9776 f641 a5bf ab2a d8b2 6e15 a9bf
000007e0: 239b 01b8 f0bd b13f c80d 8848 823e abbf
000007f0: b5eb f55e dc2c 8fbf 8be1 592e 7e04 a8bf
-0.037948742833699985 0.08310818789929388 0.017473344987286966 -0.026239886190489017 -0.03662496926352372 -0.047344965739498084 -0.050254748822472 0.0701680940176914
-0.050669091556261855 -0.035073686361849835 -0.016715576870579237 0.06115824024400103 -0.003264810115986159 -0.06724390261807463 -0.038271899359748306 0.01867307994686426
-0.07675371232706722 -0.03125868791114488 -0.06803706379675922 0.0729025882165009 0.0890639780776345 0.008948110095629402 0.029593006179216116 -0.0076178779951167445
0.07808447661614762 0.10759322090381938 0.1032081468498457 0.07079139702727166 -0.04299034399417499 -0.056945449622755065 -0.030618124613034193 -0.029370096690802427
0.024289356747564668 -0.044443554137260734 -0.03538960544972205 -0.052941848638469714 -0.0708889344745939 -0.07628812259704294 -0.03697909778787186 0.11708445329801527
-0.0516891892543483 0.06722164045848644 0.06075648497139775 -0.042495411354133095 0.0611786057280345 -0.059822062030972054 0.1040567853022388 0.08138897004396248
0.031162740987972944 -0.059407197853240126 0.02682022324842671 -0.020130512048802767 -0.06129876902207127 0.07836395423915729 -0.008691848967517209 0.0243801969039767
0.12229648988933621 0.04125628265018463 -0.025965449070600735 -0.04551924367437761 -0.05387364137503685 -0.0418069997794508 0.12707467844944062 0.10116676161834333
-0.0026336192150913764 -0.03423417445158355 -0.027203621771064876 0.07114592966007718 0.0901090275817687 -0.017466410514263144 -0.06607498999689222 0.1186580797584016
0.09379169151468926 -0.05390468014121827 0.09938816935875838 -0.03715543664215672 0.07271271773645058 -0.03161180990729537 -0.054252416294151194 -0.047039572536927275
0.025426733739326284 0.12119720761924876 0.08279170787236055 -0.05426899346203718 0.03554705740605888 0.0131945292876615 -0.005108318369964158 0.08162909433087787
-0.027468140781048117 -0.04716356665283379 0.07199359343743607 -0.007584725668843377 -0.05141967501495502 -0.04644094276203845 0.04057530113810801 -0.011156372471574739
-0.027820226526197665 -0.04159332732051895 -0.05221722866557382 -0.06330895525471364 0.026106875069015396 0.05013237775088759 -0.014113742072273394 -0.01472371981483173
0.02479196795637488 -0.017517187323357296 -0.04281776836203982 -0.044278874022670105 0.02643619012332786 -0.07394267315315524 -0.044529927374830046 -0.07440014585846007
-0.009774248425597173 0.10649197137175712 -0.0690790551758359 -0.04113150278581546 0.06979423202882383 0.04953705953485228 -0.024375053608218844 -0.06162901450612522
-0.02656179076881707 0.06592925678642246 0.026121088477979126 -0.044951328058790284 -0.03978881657289955 0.04758636819683756 -0.012814957733122825 -0.03018976067903868
0.0404769695455577 -0.051010157786826896 -0.04522119700160377 -0.038827225560662273 -0.03423037876187278 0.09767466324768992 -0.054140313425339794 -0.05582135751295614
-0.009681720821574587 -0.050253330763951665 0.033666122571892956 -0.03307259558898986 0.027256164663897128 0.05080414451034074 -0.050084044960897724 0.08009616380679067
-0.0032676404429994536 -0.04492429341421812 0.10566117680202708 0.05721221009747806 0.08529838457708634 -0.024938000741018894 0.001043799711262042 0.04380647309044936
0.06295267117794626 0.14570709319237424 0.08138897004396248 -0.028981286928484333 0.0729025882165009 -0.04684213174893936 0.06697054383208377 0.035190580977038456
-0.059948158419763614 -0.03762831365654197 0.001246742463018295 -0.013071934651181666 -0.025810760056244587 0.03200411186279332 -0.05841429555310939 -0.046957425874374153
0.033122064530180274 -0.016764251915251813 0.043382155362522254 -0.0758330568359697 -0.048782188216321846 -0.03263719273874585 0.001249709406372067 -0.029616431393885756
0.06143013432617705 -0.04449306511404864 -0.013086646434025498 0.11137491077634486 -0.03962506263495832 -0.04480469590280318 0.1015806448370087 -0.027750549434127653
0.02477139050620831 -0.019500345253623028 -0.023908079548387445 0.0704745855823009 0.007008625236265407 0.08457917943623873 -0.04383899689209051 -0.01788650480112771
-0.052496322941235365 -0.05118806782764598 0.025426733739326284 -0.04084833997827156 -0.035074092853461566 0.0752295441113389 -0.03951998214077112 -0.011647379124149874
-0.05766125939084012 -0.004284141931042307 -0.032660965392038194 -0.026017047049793754 -0.042516063786412636 0.03475336508915476 -0.0408767032095902 -0.024848895569435973
-0.06608219857818415 0.10174284997873134 0.10046033028463129 -0.026598385712870855 0.012630018640979587 -0.022580094219960184 -0.041563915089600986 0.058692835129694094
-0.033783627458191426 -0.03132576694079009 -0.061075713386456225 0.09926210735330283 -0.052998928814761655 -0.03582332273798522 0.09036592254482492 0.07633104741544812
-0.030431887134782985 0.03622068135068954 0.07438644528177342 -0.06239190246041432 -0.05523604168000146 0.05441408987348426 -0.036583469649728494 -0.04355007340906971
-0.05249397441970867 -0.03756370179487622 -0.025410881561014183 -0.02529433125092729 0.021408897718736497 -0.026867884166309912 -0.034127180815003794 -0.05578891340532849
-0.018903096969917675 -0.016067263479847976 0.1223251150202693 0.08138897004396248 -0.04502336517856851 0.075579930782258 -0.06085378032951023 -0.006541090962879422
-0.023907454968510898 0.07415831919143698 -0.041518880821904885 -0.0489916413608474 0.06930450908985768 -0.05321128020662119 -0.015222283981293086 -0.04690927806672381
